BikeSharingPrediction-main/models/lstm_short_term_90d_run4.pt (torch, 546325 bytes, 10 tensors)

lstm.weight_ih_l0 f4 [400, 12]
-0.044464026 -0.036804248 -0.1167827 -0.08181394 0.035325304 -0.09079344 -0.009901725 -0.06998431
-0.00809141 0.008056073 0.026045885 0.16942006 -0.06394043 0.09777988 0.03885285 0.073323965
0.058263294 0.124613814 0.09571312 0.04860436 0.09649233 0.124933146 0.09504163 0.16731933
-0.02081404 0.019999413 -0.058643736 -0.05108835 0.10102371 0.010778696 0.0365462 0.021843255
0.06195599 -0.0042763804 0.07187416 0.013620943 0.031792648 -0.048008896 -0.05070035 -0.112855
-0.07118539 0.055120535 -0.087402664 0.117039666 -0.0056720534 -0.06953341 -0.03339615 0.083621584
-0.064583145 0.023031369 0.00021862461 0.07821766 -0.012159157 -0.032951884 0.037419252 0.0055335485
-0.024745287 0.02306112 -0.056005847 -0.022310281 0.081223086 -0.02743264 -0.04770092 -0.07641691
0.03585718 0.1075065 -0.07736833 0.1506602 0.022574933 -0.05898292 0.026215233 0.002281897
-0.06236945 -0.05769256 0.088582255 0.021033315 0.033330094 -0.0033536367 -0.061345898 0.056687526
0.046004772 -0.014216759 0.039096426 -0.050755944 0.005410847 0.003924641 0.0229428 0.06306012
0.027963592 -0.04888034 0.1126359 0.010665967 0.05355942 0.017503763 -0.07273775 0.12596919
-0.04499896 -0.0120237935 0.008620907 -0.100853555 -0.046666946 0.08552301 0.028812993 0.066891156
-0.030733164 0.023123661 -0.030407926 0.010393577 -0.008909707 0.120852515 -0.032942224 -0.07792992
0.041245997 -0.07732724 0.0835615 0.018106464 -0.08192733 0.09258809 0.20413485 -0.08456159
0.11417769 -0.09376033 -0.014741635 0.06039085 -0.059915755 0.028944856 -0.032974117 0.1280669
0.004280851 0.0029187999 -0.051599447 -0.011176037 0.07190376 -0.07095915 -0.042023394 -0.030812152
-0.07162889 0.060353216 0.07031149 0.10377078 -0.0006880251 0.10357208 0.04857763 -0.06353684
0.023928346 0.013475458 0.001030247 0.09072199 -0.06796253 -0.031637583 -0.11513624 -0.01236974
0.0028548476 -0.085903585 0.051375642 -0.1706738 -0.08030272 0.052742194 -0.09609846 -0.11485797
-0.15415895 0.037037592 -0.062117957 -0.10834012 -0.014011759 0.029073285 0.0082221385 -0.14695598
0.021233793 0.06498104 -0.052170202 0.038294043 -0.027436875 0.053431623 0.14093521 -0.023960892
-0.06737421 -0.01936926 0.15749082 0.08775945 0.06757337 -0.043819964 0.09426147 -0.015152249
0.0029363655 0.06860168 -0.051825825 0.035215884 -0.06840956 0.06700935 0.08167227 0.12574376
0.029926175 -0.023834333 -0.024201984 0.13572866 -0.02809768 0.12953036 -0.028519405 -0.0013972919
-0.038947053 -0.101664476 0.075451754 0.051403366 0.015389294 0.10294345 -0.06490774 -0.09149396
0.05779227 -0.022531126 -0.04000474 -0.08366709 -0.04521204 0.033172302 -0.031531475 0.084653884
0.07017002 -0.044100672 -0.025494583 -0.047026824 0.043579586 0.017700752 -0.06347084 0.07050316
-0.019169394 0.009405057 -0.06612828 0.021724964 0.017741226 0.05162443 -0.06804043 0.062175907
-0.025374463 -0.10171476 -0.011784249 0.030807491 -0.0129369255 -0.01406412 -0.049802475 -0.011140024
0.029512767 0.031562164 0.06097102 0.07326304 0.037824962 -0.004653601 -0.058075342 -0.019874347
-0.030626345 0.012185766 -0.059301525 -0.13659917 0.029843304 0.07162828 0.07404042 -0.007848861
00000000: e91f 36bd 0dc0 16bd c52b efbd 118e a7bd
00000010: 44b1 103d e9f1 b9bd d83a 22bc ef53 8fbd
00000020: d591 04bc 9ffd 033c 2e5e d53c 747c 2d3e
00000030: 33f3 82bd d140 c83d 2b24 1f3d e02a 963d
00000040: 7ea5 6e3d 8735 ff3d 3e05 c43d 5e15 473d
00000050: c59d c53d f3dc ff3d 30a5 c23d c255 2b3e
00000060: 3582 aabc cfd5 a33c 6a34 70bd 0542 51bd
00000070: 85e5 ce3d 2199 303c 78b1 153d a0f0 b23c
00000080: 90c5 7d3d e120 8cbb c232 933d 602a 5f3c
00000090: 0239 023d faa4 44bd 2cab 4fbd 8620 e7bd
000000a0: a5c9 91bd 12c6 613d 2b00 b3bd 7eb2 ef3d
000000b0: a2dc b9bb 8867 8ebd 67ca 08bd cb41 ab3d
000000c0: 2b44 84bd 48ac bc3c 993e 6539 9530 a03d
000000d0: 3337 47bc 8ef8 06bd ee44 193d c552 b53b
000000e0: a1b6 cabc adea bc3c 6366 65bd 0dc4 b6bc
000000f0: 4a58 a63d 6aba e0bc 0a62 43bd 7880 9cbd
00000100: fade 123d 5e2c dc3d 4973 9ebd ab46 1a3e
00000110: 11ef b83c 1398 71bd 54c1 d63c e18b 153b
00000120: 1c77 7fbd 094f 6cbd 9d6a b53d 0f4e ac3c
00000130: 2385 083d b0c8 5bbb d645 7bbd 2e31 683d
00000140: 806f 3c3d 69ed 68bc 9323 203d 77e5 4fbd
00000150: 794d b13b 469a 803b 8af2 bb3c aa25 813d
00000160: e713 e53c c036 48bd a7ad e63d 4fc0 2e3c
00000170: 1f61 5b3d 0d64 8f3c 88f7 94bd 11fe 003e
00000180: d450 38bd 72ff 44bc b43e 0d3c 4f8c cebd
00000190: d725 3fbd b026 af3d 3a09 ec3c 3bfe 883d
000001a0: 1ec4 fbbc d56d bd3c 0b1a f9bc d249 2a3c
000001b0: 05fa 11bc 8681 f73d 6dee 06bd b999 9fbd
000001c0: 90f1 283d be5d 9ebd 4b22 ab3d 0254 943c
000001d0: 84c9 a7bd d39e bd3d ba08 513e a02e adbd
000001e0: fed5 e93d 6a05 c0bd e686 71bc 655c 773d
000001f0: 396a 75bd c31d ed3c de0f 07bd f823 033e
00000200: 6246 8c3b 5649 3f3b f159 53bd b21b 37bc
00000210: 4742 933d 0853 91bd b920 2cbd c469 fcbc
00000220: 2bb2 92bd ef34 773d 78ff 8f3d c685 d43d
00000230: 955c 34ba 991d d43d 56f9 463d 9a1f 82bd
00000240: 6105 c43c 2bc8 5c3c 5a09 873a 73cc b93d
00000250: f02f 8bbd 6996 01bd 8dcc ebbd 73aa 4abc
00000260: 6518 3b3b 38ee afbd 446f 523d 1dc5 2ebe
00000270: c175 a4bd 3308 583d 45cf c4bd a83a ebbd
00000280: d8db 1dbe bbb4 173d 666f 7ebd 6de1 ddbd
00000290: 9491 65bc 192b ee3c 26b6 063c a17b 16be
000002a0: 7ef2 ad3c c814 853d 6cb0 55bd 37da 1c3d
000002b0: 4cc3 e0bc 1edb 5a3d 5251 103e a249 c4bc
000002c0: 7dfb 89bd 48ac 9ebc 4645 213e 3abb b33d
000002d0: e863 8a3d 907c 33bd 280c c13d 2341 78bc
000002e0: 0a70 403b 0a7f 8c3d 5147 54bd 883e 103d
000002f0: 501a 8cbd 333c 893d cb43 a73d f9c2 003e
00000300: bd27 f53c 3840 c3bc 3d43 c6bc 74fc 0a3e
00000310: 1b2d e6bc 9ba3 043e 87a1 e9bc 5625 b7ba
00000320: f286 1fbd 7735 d0bd 7386 9a3d 568c 523d
00000330: 6123 7c3c 04d4 d23d 59ee 84bd 2f61 bbbd
00000340: 96b7 6c3d 3293 b8bc 03dc 23bd a759 abbd
00000350: 4330 39bd aedf 073d 2627 01bd 045f ad3d
00000360: 4db5 8f3d e8a2 34bd 04da d0bc 339f 40bd
00000370: 8280 323d 2b01 913c 00fd 81bd f663 903d
00000380: 2209 9dbc ab17 1a3c 436e 87bd 8df8 b13c
00000390: 0c56 913c 2374 533d c858 8bbd 2aac 7e3d
000003a0: 1bde cfbc d44f d0bd b912 41bc fe5f fc3c
000003b0: 66f5 53bc 326d 66bc aefd 4bbd a684 36bc
000003c0: c2c4 f13c 5447 013d c0bc 793d ef0a 963d
000003d0: 59ee 1a3d 3c7d 98bb 69e0 6dbd 87cf a2bc
000003e0: 1ae4 fabc cfa6 473c 28e6 72bd a7e0 0bbe
000003f0: f279 f43c d9b1 923d 81a2 973d 8298 00bc

lstm.weight_hh_l0 f4 [400, 100]
-0.14590001 0.036776535 0.022145817 0.03605424 0.068965174 0.08531908 0.071264245 0.10016215
0.025593204 0.15104264 0.060378578 0.023068804 -0.075750664 0.08974428 -0.12480948 0.070045725
0.10927434 0.016035058 -0.038450144 -0.04497351 0.03825699 -0.054617096 -0.047609 -0.05912194
0.05621032 -0.047125656 -0.072790205 -0.027089326 -0.062674865 -0.16063957 0.029417217 -0.13989171
0.050178234 0.030740097 -0.069661975 0.19876428 -0.07859149 -0.1378214 -0.025403721 -0.040352557
0.05180616 -0.026969291 -0.0962423 0.014834321 0.10451362 -0.105974175 0.064073294 -0.030772552
-0.03303132 -0.097739816 0.07022176 0.06965387 0.025979744 -0.12673217 -0.06691421 0.0031107438
0.05335861 -0.104529984 0.09661019 -0.019242797 0.0043694535 -0.03916108 -0.00128159 0.11244373
0.0734321 -0.13156214 -0.013666991 -0.053416245 -0.035876647 -0.08149687 -0.08110519 0.18437149
-0.04333327 0.003590117 -0.08141719 0.022860942 0.024404563 -0.09495273 -0.13199018 -0.0056768027
0.0039601484 0.0987304 0.019285122 0.040234048 0.07062644 0.061202105 0.0610279 -0.015259731
-0.0007864763 0.0134857865 0.08583919 0.015292666 -0.02256286 -0.033771664 0.013097692 -0.024456706
0.12473205 0.069036014 0.043829143 0.07924276 -0.123891816 -0.033899244 0.07724618 -0.08954863
0.07498982 0.10229417 -0.1545705 0.032514986 -0.045434445 0.109977394 0.12285382 0.08028662
-0.31344873 0.08243763 -0.022849757 -0.04245662 -0.04343193 0.060512654 -0.13712876 0.038008403
0.12824571 0.005404499 -0.060097247 0.09383647 -0.08536009 -0.039135348 0.05258374 0.081941985
0.052937068 -0.1864276 0.03486997 -0.15283725 0.09605473 0.020740937 -0.08163833 0.20833594
-0.11301504 0.027688064 -0.0640923 0.03677035 -0.02790014 -0.049635105 -0.09792853 -0.054731585
-0.01978847 0.07497986 0.036461707 0.010936111 0.032602284 -0.030280013 0.14457227 0.028822497
-0.028195465 -0.091165684 -0.09518846 0.12812476 0.046824057 -0.06068021 0.005951536 0.041150417
0.08480038 0.111986205 -0.0048548994 0.0701915 0.102930635 -0.23897749 0.12254634 -0.04137637
0.048566505 -0.10589067 -0.063225694 0.15453932 0.043455176 0.15919705 -0.019527387 -0.019968571
0.035366263 -0.002318602 -0.11845692 0.14055865 0.0032434275 -0.027243055 0.016982343 0.034982465
0.07634951 0.09972249 -0.015461804 -0.040750634 -0.047565285 0.020810118 -0.0070054075 0.012761426
-0.06748249 0.116446935 0.12579 0.04776153 0.18398282 -0.073060796 0.05059625 -0.09203239
-0.12091335 -0.007842554 0.1089432 -0.013641522 -0.016771628 0.07498896 -0.056191977 0.0776911
0.014385222 -0.033522267 -0.0009491252 -0.025423454 0.09529624 0.028220745 0.041584633 -0.028940914
0.07461021 -0.052876335 0.054421894 0.10732309 0.08316675 -0.038131583 0.07821753 0.07941523
0.008693453 -0.05771114 -0.06732149 -0.05750543 -0.011831459 -0.114057034 0.06293004 0.056734357
0.01432261 -0.079648614 -0.030992962 0.048295554 -0.09061178 0.117919184 -0.06591177 -0.006321823
0.10146682 0.048240058 -0.115869075 0.097249396 0.09346478 0.015559789 0.11103128 0.03750659
-0.07279418 -0.07630193 0.001999087 -0.059392214 -0.015158397 -0.052303504 -0.017161988 0.0015318891
00000000: d066 15be fea2 163d 256b b53c 9cad 133d
00000010: 9d3d 8d3d c5bb ae3d fdf2 913d d021 cd3d
00000020: d7a8 d13c ecaa 1a3e 874f 773d cafa bc3c
00000030: 2a23 9bbd d9cb b73d 1d9c ffbd 2274 8f3d
00000040: 3acb df3d f45b 833c e67d 1dbd 2536 38bd
00000050: 5db3 1c3d 2db6 5fbd a801 43bd d929 72bd
00000060: cb3c 663d d506 41bd 0813 95bd 6fea ddbc
00000070: ae5b 80bd b37e 24be 60fc f03c c63f 0fbe
00000080: b187 4d3d a8d2 fb3c f0aa 8ebd dd88 4b3e
00000090: 93f4 a0bd 0e21 0dbe 771b d0bc b948 25bd
000000a0: b232 543d b4ee dcbc af1a c5bd a70b 733c
000000b0: 3d0b d63d fd08 d9bd dc38 833d b816 fcbc
000000c0: d94b 07bd d02b c8bd 6dd0 8f3d b0a6 8e3d
000000d0: 79d3 d43c 14c6 01be 510a 89bd 9fdd 4b3b
000000e0: 8f8e 5a3d d113 d6bd 90db c53d 12a3 9dbc
000000f0: a22d 8f3b 5e67 20bd 06fb a7ba e648 e63d
00000100: 9263 963d 3ab8 06be 84eb 5fbc feca 5abd
00000110: 64f3 12bd d5e7 a6bd 7a1a a6bd e1cb 3c3e
00000120: 3a7e 31bd 2b48 6b3b 0ebe a6bd df46 bb3c
00000130: 14ec c73c 9476 c2bd 6f28 07be 7904 babb
00000140: 22c4 813b 2a33 ca3d d5fb 9d3c 75cc 243d
00000150: 98a4 903d 0faf 7a3d 64f8 793d f303 7abc
00000160: 882b 4eba 7df3 5c3c 75cc af3d 178e 7a3c
00000170: bfd5 b8bc 2854 0abd b497 563c 6e59 c8bc
00000180: 8473 ff3d c162 8d3d 3086 333d 074a a23d
00000190: feba fdbd efd9 0abd 3f33 9e3d 4665 b7bd
000001a0: 4394 993d 9b7f d13d bb47 1ebe 6f2e 053d
000001b0: 7819 3abd d43b e13d c99a fb3d 506d a43d
000001c0: 5a7c a0be 0fd5 a83d 6a2f bbbc fee6 2dbd
000001d0: aee5 31bd 1edc 773d 7b6b 0cbe b3ae 1b3d
000001e0: d852 033e 3918 b13b 8828 76bd 562d c03d
000001f0: 45d1 aebd 634c 20bd 0c62 573d 33d1 a73d
00000200: 8ad4 583d e0e6 3ebe d0d3 0e3d 5e81 1cbe
00000210: 58b8 c43d e6e8 a93c ff31 a7bd 0456 553e
00000220: 6e74 e7bd 14d2 e23c d342 83bd 829c 163d
00000230: d68e e4bc 2e4e 4bbd c18e c8bd 3a2e 60bd
00000240: 6e1b a2bc 0a8f 993d df58 153d 602d 333c
00000250: f989 053d ca0d f8bc c10a 143e 281d ec3c
00000260: 2dfa e6bc 13b5 babd 2bf2 c2bd 2333 033e
00000270: 95ca 3f3d d08b 78bd 1a05 c33b 578d 283d
00000280: d2ab ad3d 0659 e53d d915 9fbb 90c0 8f3d
00000290: 4ccd d23d 84b6 74be 93f9 fa3d 457a 29bd
000002a0: aced 463d 35dd d8bd 797c 81bd 8e3f 1e3e
000002b0: 0efe 313d 8d04 233e e6f7 9fbc 2195 a3bc
000002c0: 37dc 103d b0f3 17bb 8b99 f2bd 9bee 0f3e
000002d0: af8f 543b d42c dfbc 8e1e 8b3c c649 0f3d
000002e0: 225d 9c3d 4e3b cc3d 8253 7dbc 23ea 26bd
000002f0: d1d3 42bd fb79 aa3c 9e8d e5bb 4d15 513c
00000300: 4234 8abd bb7b ee3d 18cf 003e 98a1 433d
00000310: fe65 3c3e e6a0 95bd 033e 4f3d 7a7b bcbd
00000320: 6ba1 f7bd 0e7e 00bc 9d1d df3d b180 5fbc
00000330: a764 89bc d093 993d 8f29 66bd 831c 9f3d
00000340: ffaf 6b3c a54e 09bd b7ce 78ba d944 d0bc
00000350: ad2a c33d 312f e73c a654 2a3d 7f15 edbc
00000360: 3dcd 983d db94 58bd 7ee9 5e3d 35cc db3d
00000370: 5453 aa3d dd2f 1cbd 8330 a03d 74a4 a23d
00000380: fc6e 0e3c 8462 6cbd d9df 89bd d08a 6bbd
00000390: bcd8 41bc bc96 e9bd 77e1 803d 4962 683d
000003a0: 61a9 6a3c d01e a3bd f4e4 fdbc 8fd1 453d
000003b0: ab92 b9bd 9d7f f13d c0fc 86bd 4c27 cfbb
000003c0: d6cd cf3d 5e97 453d c44c edbd b12a c73d
000003d0: 766a bf3d 7cee 7e3c 5e64 e33d 83a0 193d
000003e0: 1d15 95bd 3044 9cbd 1d03 033b 4045 73bd
000003f0: ed5a 78bc 333c 56bd 4c97 8cbc abc9 c83a

lstm.bias_ih_l0 f4 [400]
0.08701167 0.029268797 0.061338007 0.046089336 -0.0029838681 0.012854891 0.052610774 0.11479624
-0.044259556 -0.063509986 -0.013805457 -0.0018868861 0.072304726 -0.025255121 -0.03487472 -0.062965736
0.15865037 0.031627934 0.022835543 -0.08488309 0.016613418 -0.07995121 0.10935736 0.043892812
0.033726197 0.0054943874 0.090316705 0.021606533 -0.062220033 0.11222114 -0.041121364 0.0702514
0.02502635 0.049752194 -0.048912738 -0.0039525516 0.04978457 0.006590912 0.05725032 0.031398155
0.06154618 0.10889202 0.03819764 0.09486477 0.027588824 -0.019626511 -0.09394165 -0.009931962
-0.011330105 -0.0005168561 0.0096164 -0.030374603 -0.05662435 -0.009346733 0.08574762 -0.0160567
0.051960103 0.06862223 0.00059680303 0.021645002 0.017313808 0.08408995 0.0529551 0.19608657
0.05955546 0.17015626 0.13018863 0.052688416 0.08651787 -0.08909462 -0.037139982 0.14046904
-0.028204106 -0.013856525 -0.020877302 -0.03519753 0.021265442 0.050890613 0.061191637 0.08421147
0.060762696 0.081725515 -0.056959383 -0.058763467 -0.04739361 0.02237355 -0.017437369 0.10964894
-0.0847632 0.09893396 0.010813682 0.0613726 -0.07505697 -0.063379325 -0.04226095 -0.019847991
-0.081384145 0.029638812 -0.014114345 0.03307 -0.0021264204 0.066688925 0.029232845 -0.04016837
-0.07585209 -0.013390183 -0.023498053 0.088871025 0.03402193 0.07580998 0.005045353 0.061313055
0.06527248 -0.004986539 -0.032847613 0.09046867 0.15453297 0.018867478 0.04755648 0.02293246
-0.007756395 -0.01396525 0.0009943806 -0.052350897 0.047949467 0.115034856 0.082174264 0.11138676
0.06517903 0.03781919 -0.046832863 -0.010027119 0.081307605 0.058169905 -0.028781712 0.104169816
0.025528241 0.021072464 0.1030028 -0.044862848 -0.004326485 0.14978574 -0.038588855 0.07321612
-0.037878234 0.017394338 0.08319473 0.10141474 -0.0337933 0.033940595 -0.044998813 0.014374794
0.05712722 0.11631364 -0.07003422 0.10120457 -0.01019272 0.053696398 -0.09686356 0.0875242
0.053658582 0.056352902 0.11844582 0.02301311 0.06627749 0.12858593 0.036142193 -0.023781786
0.028582139 -0.026199363 0.08738582 -0.015753813 0.08216144 0.053236675 0.04206449 0.07657555
-0.086577676 0.051314864 -0.050673805 -0.028490536 -0.08831131 -0.04153383 -0.07223712 0.0079422
-0.088064484 0.13318087 -0.021243718 -0.008356623 -0.073964156 0.046050202 0.0028293377 -0.031542584
-0.07276492 -0.0094980495 0.0048435726 -0.058835726 0.009622061 0.10748954 0.042033076 -0.08163786
-0.0112616755 0.0537324 0.05773462 -0.0736604 -0.057116464 0.051584005 -0.09212474 0.06008313
-0.072345056 0.043766476 -0.05864492 0.04014181 0.0011752963 0.07033054 0.06976016 -0.0052277273
-0.0786599 0.06361356 -0.070427746 0.089446686 0.026022313 0.043496 -0.091634296 -0.090065405
0.022198223 0.043357518 -0.07908325 -0.059492372 -0.0851623 -0.07588095 0.039015934 -0.034862664
-0.033807084 -0.056598935 0.005409155 0.013248827 -0.0006497451 -0.069085285 -0.062358 0.08504521
0.040691696 0.060743064 0.07961069 -0.10107628 -0.02257317 0.0358295 0.035094243 0.07523702
0.10100686 -0.103718564 0.037752017 -0.10025308 -0.0067198407 0.062090557 -0.05646709 0.06670452
00000000: 2d33 b23d 1ec5 ef3c 903d 7b3d 2cc8 3c3d
00000010: 008d 43bb 529d 523c 657e 573d 4b1a eb3d
00000020: 8249 35bd 8611 82bd 4930 62bc 6451 f7ba
00000030: 8014 943d d4e3 cebc cbd8 0ebd 2ef4 80bd
00000040: 3e75 223e 4b8c 013d 9b11 bb3c 2fd7 adbd
00000050: dd18 883c 76bd a3bd c0f6 df3d f3c8 333d
00000060: 7b24 0a3d 430a b43b f7f7 b83d 2f00 b13c
00000070: 6fda 7ebd 32d4 e53d e06e 28bd f7df 8f3d
00000080: 0f04 cd3c f5c8 4b3d b958 48bd 6884 81bb
00000090: e8ea 4b3d 94f8 d73b 507f 6a3d 5a9b 003d
000000a0: d917 7c3d c802 df3d 2175 1c3d 7648 c23d
000000b0: f501 e23c c7c7 a0bc 7b64 c0bd abb9 22bc
000000c0: e8a1 39bc a07d 07ba 1b8e 1d3c 29d4 f8bc
000000d0: efee 67bd 0a23 19bc 739c af3d 5789 83bc
000000e0: 1ed4 543d d089 8c3d c672 1c3a dc50 b13c
000000f0: b0d5 8d3c 5a37 ac3d 72e7 583d ebca 483e
00000100: 6df0 733d 713d 2e3e 2b50 053e cfcf 573d
00000110: 4830 b13d 3d77 b6bd 1820 18bd 1ed7 0f3e
00000120: 4c0c e7bc 7a06 63bc e006 abbc 492b 10bd
00000130: dd34 ae3c ad72 503d 15a4 7a3d 1077 ac3d
00000140: 4ee2 783d b55f a73d 3e4e 69bd f6b1 70bd
00000150: cd1f 42bd bc48 b73c d0d8 8ebc a08f e03d
00000160: 5498 adbd e39d ca3d df2b 313c d661 7b3d
00000170: 78b7 99bd 05cd 81bd d119 2dbd 4198 a2bc
00000180: bbac a6bd 18cd f23c db3f 67bc 6974 073d
00000190: 6a5b 0bbb 3494 883d b879 ef3c 9787 24bd
000001a0: 5758 9bbd 8062 5bbc fd7e c0bc 0302 b63d
000001b0: 945a 0b3d 4342 9b3d 7d53 a53b 6623 7b3d
000001c0: 94ad 853d 1f66 a3bb 388b 06bd a347 b93d
000001d0: e43d 1e3e f88f 9a3c 95ca 423d dbdc bb3c
000001e0: 5b29 febb 81ce 64bc e055 823a e56d 56bd
000001f0: a966 443d 6597 eb3d fb4a a83d be1e e43d
00000200: 957c 853d 4ce8 1a3d d1d3 3fbd c948 24bc
00000210: 9a84 a63d 9143 6e3d a0c7 ebbc fc56 d53d
00000220: 9a20 d13c 29a0 ac3c 22f3 d23d 1bc2 37bd
00000230: 30c5 8dbb 6f61 193e 590f 1ebd 55f2 953d
00000240: 3526 1bbd 927e 8e3c 0062 aa3d 88b2 cf3d
00000250: d86a 0abd 4b05 0b3d ad50 38bd 4284 6b3c
00000260: 3bfe 693d d835 ee3d 1a6e 8fbd 5744 cf3d
00000270: 5eff 26bc c1f0 5b3d 6760 c6bd e33f b33d
00000280: 1ac9 5b3d 4dd2 663d b993 f23d fd85 bc3c
00000290: 7ebc 873d 08ac 033e d609 143d 05d2 c2bc
000002a0: 1725 ea3c 0ca0 d6bc 56f7 b23d 240e 81bc
000002b0: 4244 a83d b30e 5a3d d14b 2c3d a4d3 9c3d
000002c0: a34f b1bd 892f 523d 568f 4fbd fc64 e9bc
000002d0: 8fdc b4bd 611f 2abd 0ef1 93bd 0020 023c
000002e0: 275b b4bd 9160 083e 4e07 aebc 38ea 08bc
000002f0: 857a 97bd 239f 3c3d 696c 393b cc32 01bd
00000300: c605 95bd b59d 1bbc d5b6 9e3b bbfd 70bd
00000310: d9a5 1d3c 7a23 dc3d e02a 2c3d c031 a7bd
00000320: e482 38bc 8116 5c3d 237b 6c3d 44db 96bd
00000330: f4f2 69bd c049 533d e5ab bcbd ba19 763d
00000340: a529 94bd 7a44 333d a835 70bd bd6b 243d
00000350: 660c 9a3a 7509 903d 6ade 8e3d 5b4d abbb
00000360: 7118 a1bd d347 823d 6c3c 90bd d32f b73d
00000370: bf2c d53c dd28 323d c3aa bbbd 3674 b8bd
00000380: 0cd9 b53c a797 313d 66f6 a1bd 46ae 73bd
00000390: 9269 aebd 7967 9bbd 2ccf 1f3d 27cc 0ebd
000003a0: 4c79 0abd 49d4 67bd 483f b13b 9c11 593c
000003b0: a853 2aba 967c 8dbd 1a6b 7fbd 2f2c ae3d
000003c0: 56ac 263d b8cd 783d ee0a a33d 1501 cfbd
000003d0: 5eeb b8bc f4c1 123d fbbe 0f3d de15 9a3d
000003e0: afdc ce3d 666a d4bd dca1 1a3d 7d51 cdbd
000003f0: 1c32 dcbb ab52 7e3d 094a 67bd 619c 883d

lstm.bias_hh_l0 f4 [400]
0.0395467 0.0049035405 0.03335489 0.09344907 -0.09023479 0.022677433 0.00037284032 -0.036425233
-0.046921473 0.026375908 0.0014931157 -0.0492581 -0.023778489 0.053314403 0.10305551 0.10368918
0.12767005 0.02589135 0.06358224 -0.022924786 0.041705966 0.049602326 -0.08034012 0.001192051
-0.007954986 0.07739966 -0.08649946 0.06706221 0.10658825 0.07330124 0.0038041542 -0.03948761
0.08902489 0.035612203 -0.05405819 0.086083695 -0.037973754 0.01234176 0.010346209 -0.062410288
0.086069174 -0.026218204 -0.043048985 -0.06350125 -0.061206337 0.08012516 -0.09471872 0.0976481
0.038461793 -0.0038079345 -0.051830314 0.08439744 0.051119726 0.053326573 0.08793438 -0.026936028
-0.029235218 0.07483001 -0.016050216 -0.011442765 -0.01035424 -0.005696903 -0.013902697 0.09938554
0.024139768 0.1946887 0.028385311 0.0933505 0.011165645 0.00247691 -0.04362628 -0.00027324993
-0.056154426 0.03519482 -0.034311134 -0.07735804 0.032710258 0.0988438 0.030403059 -0.079991564
-0.004594177 0.058420233 -0.046611883 -0.08693925 -0.074455075 0.034830187 -0.06503535 0.07446605
0.048728783 0.109276466 0.01706752 0.09643408 0.0342022 -0.0022911774 0.02439849 -0.036766525
-0.052676395 0.061968453 -0.048581723 -0.08987989 0.034054305 -0.0076094726 0.010166405 0.057838503
0.09002135 0.032596707 -0.01315507 0.02838173 -0.064419486 -0.05397359 -0.028980827 -0.035556227
-0.017364755 0.015045737 0.096879125 0.036487762 0.023822622 -0.060513448 0.06378883 0.05901309
0.12620828 0.019628458 0.108847156 0.1320305 -0.05779406 0.10097676 -0.022712052 0.11813584
-0.044789053 0.057873227 -0.06380744 0.028736118 -0.07984096 0.1065825 -0.07518186 -0.07126479
0.07863525 0.1322381 -0.010809135 -0.02966638 -0.08752337 0.02460726 -0.06394435 0.076556794
0.083017275 0.0640422 0.039864223 0.06537169 -0.08875473 -0.0009695396 0.038874645 -0.073712766
0.10139755 -0.054890163 0.035460193 0.11555339 -0.020678023 0.019025257 0.07445712 0.09129744
0.13066748 -0.027252628 0.03792399 0.113199696 -0.031588044 0.090425424 -0.02887111 0.06925963
-0.027642928 0.05393024 0.057663742 0.10161621 0.0066376794 0.09470649 0.056601353 0.04352235
0.11266223 0.09754733 0.017468281 -0.060578078 0.052708108 0.10039914 -0.06455912 -0.07816443
-0.02299571 -0.020417381 -0.08577393 -0.043600705 0.11746513 -0.006151683 -0.054487962 0.11944158
0.08617963 0.08697662 -0.033518374 0.055917304 0.058152627 -0.014723608 -0.07411447 -0.029848393
-0.02781949 0.07271875 -0.022800157 -0.09281543 0.09885059 0.005701283 -0.044937342 -0.05078879
-0.072527595 0.07711334 -0.019581977 0.072660044 -0.00521279 -0.032843247 -0.06523044 -0.08253523
0.024684172 0.005656047 0.059692584 0.033611152 0.07308681 0.09267212 0.07765984 0.05498832
0.09474663 -0.03834371 0.048617877 0.044128567 -0.080094814 -0.04284589 0.08952419 -0.07995878
0.07476572 -0.039072562 0.073548414 0.053222615 -0.095916316 0.046489082 -0.01888369 -0.009634298
0.08321049 0.049100235 -0.06506021 0.031877987 0.038926184 -0.08991674 0.085646756 -0.04358501
0.067805074 -0.06019465 -0.080077685 -0.06724427 0.006185144 0.015654879 -0.004178929 0.013182078
00000000: b8fb 213d e1ad a03b 239f 083d 3a62 bf3d
00000010: 05cd b8bd 06c6 b93c c879 c339 a032 15bd
00000020: bb30 40bd 4a12 d83c a6b4 c33a ddc2 49bd
00000030: 1bcb c2bc 3460 5a3d c40e d33d fe5a d43d
00000040: f0bb 023e 191a d43c 6837 823d c3cc bbbc
00000050: e0d3 2a3d cf2b 4b3d 5c89 a4bd 983e 9c3a
00000060: a155 02bc b783 9e3d a126 b1bd e957 893d
00000070: f14a da3d f61e 963d 1e4f 793b c3bd 21bd
00000080: ae52 b63d 1ade 113d 1f6c 5dbd a64c b03d
00000090: 5e8a 1bbd 1835 4a3c 2583 293c eea1 7fbd
000000a0: 0945 b03d 8fc7 d6bc 2254 30bd f20c 82bd
000000b0: 7fb3 7abd a918 a43d e3fb c1bd bafb c73d
000000c0: 1d8a 1d3d 8a8e 79bb 064c 54bd 91d8 ac3d
000000d0: eb62 513d f76c 5a3d f116 b43d f2a8 dcbc
000000e0: b27e efbc 7a40 993d be7b 83bc 6f7a 3bbc
000000f0: d5a4 29bc 16ad babb 23c8 63bc a58a cb3d
00000100: c3c0 c53c 795c 473e 5088 e83c 8c2e bf3d
00000110: 1cf0 363c a753 223b 78b1 32bd fc42 8fb9
00000120: 2f02 66bd 7228 103d d589 0cbd e46d 9ebd
00000130: 31fb 053d 9e6e ca3d d60f f93c 9ed2 a3bd
00000140: c08a 96bb 0e4a 6f3d 1aec 3ebd 350d b2bd
00000150: e77b 98bd 19aa 0e3d 4131 85bd a881 983d
00000160: d597 473d 57cc df3d 2fd1 8b3c 3b7f c53d
00000170: 9b17 0c3d 9427 16bb 58df c73c 7f98 16bd
00000180: 34c3 57bd a2d2 7d3d a1fd 46bd f312 b8bd
00000190: 877c 0b3d e258 f9bb fe90 263c 11e8 6c3d
000001a0: 1d5d b83d 2084 053d 5d88 57bc cd80 e83c
000001b0: 5dee 83bd 6913 5dbd 3369 edbc 68a3 11bd
000001c0: 8840 8ebc 6582 763c 9068 c63d 3174 153d
000001d0: a927 c33c f3dc 77bd b8a3 823d b6b7 713d
000001e0: be3c 013e dccb a03c 42eb de3d 0133 073e
000001f0: 77b9 6cbd e7cc ce3d a00e babc 34f1 f13d
00000200: ba74 37bd 7a0c 6d3d 7aad 82bd 0268 eb3c
00000210: a883 a3bd ed47 da3d f2f8 99bd 46f3 91bd
00000220: 850b a13d 6d69 073e cc18 31bc e806 f3bc
00000230: 743f b3bd 2a95 c93c 41f5 82bd cfc9 9c3d
00000240: f604 aa3d 8f28 833d ab48 233d 98e1 853d
00000250: 0ac5 b5bd b328 7eba 053b 1f3d b8f6 96bd
00000260: 85a9 cf3d 82d4 60bd b53e 113d 41a7 ec3d
00000270: f564 a9bc dbda 9b3c f97c 983d 27fa ba3d
00000280: b2cd 053e e740 dfbc 3056 1b3d 3ed5 e73d
00000290: 7762 01bd f730 b93d 1b83 ecbc fed7 8d3d
000002a0: 6c73 e2bc f5e5 5c3d d130 6c3d 291c d03d
000002b0: e480 d93b 7af5 c13d d2d6 673d 7e44 323d
000002c0: 75bb e63d e5c6 c73d a419 8f3c b820 78bd
000002d0: 75e4 573d 109e cd3d 9237 84bd ac14 a0bd
000002e0: 8061 bcbc 5a42 a7bc 3eaa afbd a796 32bd
000002f0: 8f91 f03d 0f94 c9bb c52e 5fbd c99d f43d
00000300: f27e b03d cc20 b23d 904a 09bd 8b09 653d
00000310: 7331 6e3d 4a3b 71bc 54c9 97bd 9e84 f4bc
00000320: b3e5 e3bc 91ed 943d 65c7 babc 0416 bebd
00000330: 2e72 ca3d d4d1 ba3b 3810 38bd e807 50bd
00000340: 5989 94bd 99ed 9d3d 626a a0bc cace 943d
00000350: 0dd0 aabb a486 06bd 8997 85bd 3b08 a9bd
00000360: 7636 ca3c 5c56 b93b 3680 743d d9ab 093d
00000370: 8aae 953d e1ca bd3d 1f0c 9f3d 6f3b 613d
00000380: 850a c23d 4b0e 1dbd 8a23 473d 28c0 343d
00000390: c008 a4bd 2c7f 2fbd 7558 b73d 6ec1 a3bd
000003a0: c51e 993d 8d0a 20bd 8da0 963d f5ff 593d
000003b0: c66f c4bd 566b 3e3d f8b1 9abc 2dd9 1dbc
000003c0: 436a aa3d 541d 493d 4a3e 85bd 7e92 023d
000003d0: 1071 1f3d 4526 b8bd 9167 af3d 3286 32bd
000003e0: 63dd 8a3d aa8e 76bd c5ff a3bd 5db7 89bd
000003f0: c0ac ca3b a93e 803c 66ef 88bb a4f9 573c

lstm.weight_ih_l1 f4 [400, 100]
-0.050321236 0.02081199 0.12244597 -0.045916375 -0.06992251 -0.0061802967 -0.090977736 0.099250175
0.07110344 0.12311259 -0.097426414 -0.0042157182 -0.02108104 -0.067383975 0.02838801 0.012322367
-0.07991709 0.07665644 -0.08665111 -0.0092264395 0.0035572355 0.0074053947 -0.028977314 0.09014708
-0.04758934 -0.08229482 -0.030742617 0.046618275 -0.055221226 -0.059410516 0.012850512 0.024660764
-0.009887786 -0.060963128 -0.05253885 0.09596604 0.02275035 0.037344743 0.08742915 -0.015547072
-0.0031282476 0.04588894 -0.0838764 0.046868958 0.09622582 -0.013882325 0.08010963 0.005105662
0.034361724 -0.026685812 0.034327134 0.08270699 -0.091111444 -0.10408777 0.06621454 0.016990803
0.022832368 -0.11513572 -0.056752354 -0.027014196 -0.020688362 -0.09513752 -0.026358254 -0.13396733
-0.0070151393 0.032465987 0.06904736 -0.0008851128 -0.08673691 -0.0403828 -0.09972022 0.04838193
0.0118427025 0.112738565 0.03158101 -0.100761496 -0.036407076 -0.04421621 -0.008784107 0.018067766
-0.041300885 -0.007899756 0.045199193 0.023981962 0.07294838 -0.046334542 -0.05592103 -0.058070958
0.04357675 -0.02063695 0.092908405 0.08650489 -0.076902315 0.102945745 -0.036289606 -0.076492876
0.04169016 0.0032900558 -0.026186582 -0.10971882 -0.12389297 -0.07852443 0.076652296 0.08486052
-0.04532046 0.0352606 -0.011348895 0.045544162 0.11105092 0.020674469 -0.042971775 0.095482
-0.011781282 -0.0067380634 0.0664577 0.024827419 0.06363757 0.036782023 0.06590669 0.015419455
-0.04754162 -0.056816474 -0.02478622 -0.11489319 -0.00016056435 -0.11581546 0.01205151 -0.05687237
0.016662452 0.07975269 -0.03463261 0.0029938486 -0.09455231 0.055429652 0.10473018 -0.036623955
0.10461687 -0.07593094 -0.10941076 0.045543924 0.061335728 0.095693484 -0.055264402 -0.08118114
0.00024234543 0.102297455 -0.006154209 0.006285853 -0.07048808 -0.011894372 -0.11419688 0.08069203
0.11478076 -0.028048608 0.012739061 -0.09937311 -0.031919748 0.15936045 -0.05114156 0.01142076
0.09493935 0.0361426 -0.12618907 -0.05065355 0.07456468 -0.073836684 -0.0036757088 -0.016326748
-0.10861866 0.018328888 0.01732046 -0.024135312 0.062126767 -0.1379545 -0.0024683236 0.028098766
-0.018624958 0.040652465 0.026439292 0.03329498 0.04612644 0.034213856 0.014103768 -0.044108823
-0.08757118 -0.011759055 -0.031244887 -0.062411346 -0.053680837 0.06860808 -0.07939199 -0.012046153
0.10867029 -0.103259645 -0.025567876 -0.08846428 -0.084614374 0.07918793 -0.11891819 0.10768774
-0.010882377 0.07637469 -0.014474931 0.042935766 -0.062990785 -0.008506943 0.06347606 0.07987187
0.050526984 0.122848995 0.0108944755 0.10534488 0.00799243 0.055377375 -0.024985153 0.018733364
-0.07150253 0.087657824 0.045379277 0.02607783 0.07980469 0.02419974 -0.07780381 0.032552127
0.0460855 0.07964263 0.05047097 -0.08397272 -0.0953209 0.032031905 0.04083981 -0.08330297
0.08287795 0.051653188 0.0263194 -0.007939038 0.016075911 -0.0019084656 0.013989041 0.037146047
0.06253832 0.073641 0.079829134 0.015239318 0.009838616 0.07035542 -0.121472076 0.0074464814
0.011758916 -0.0655151 0.02978013 -0.06690929 -0.04661348 0.050747085 -0.06403065 0.042245075
00000000: a41d 4ebd e87d aa3c f4c4 fa3d cf12 3cbd
00000010: 8833 8fbd 1684 cabb 8952 babd ad43 cb3d
00000020: ae9e 913d 7422 fc3d 8087 c7bd 0224 8abb
00000030: 25b2 acbc 9c00 8abd f98d e83c c1e3 493c
00000040: 92ab a3bd 0dfe 9c3d 2376 b1bd 7e2a 17bc
00000050: 8220 693b f4a8 f23b d561 edbc 089f b83d
00000060: 0aed 42bd 308a a8bd f1d7 fbbc cef2 3e3d
00000070: a72f 62bd 7158 73bd f48a 523c 5f05 ca3c
00000080: 6100 22bc 79b4 79bd fa32 57bd d889 c43d
00000090: f15e ba3c cdf6 183d 0e0e b33d 25b9 7ebc
000000a0: 4903 4dbb 0bf6 3b3d 64c7 abbd aaf9 3f3d
000000b0: 0b12 c53d b172 63bc 8510 a43d 664d a73b
000000c0: e1be 0c3d 349c dabc 9c9a 0c3d 4862 a93d
000000d0: a398 babd f82b d5bd 7d9b 873d 4c30 8b3c
000000e0: f20a bb3c 47cc ebbd 2875 68bd e04c ddbc
000000f0: a47a a9bc 76d7 c2bd 44ed d7bc bb2e 09be
00000100: 41df e5bb 0efb 043d b468 8d3d ea06 68ba
00000110: 1fa3 b1bd 6f68 25bd 1d3a ccbd 212c 463d
00000120: e507 423c 7ae3 e63d 175b 013d 0b5c cebd
00000130: 961f 15bd 0e1c 35bd 37eb 0fbc da02 943c
00000140: 1e2b 29bd fa6d 01bc ca22 393d d275 c43c
00000150: f665 953d 4ac9 3dbd 730d 65bd d0db 6dbd
00000160: 897d 323d d20e a9bc c346 be3d 7a29 b13d
00000170: f67e 9dbd 38d5 d23d 69a4 14bd 4ca8 9cbd
00000180: 4dc3 2a3d fa9d 573b 3e85 d6bc 43b4 e0bd
00000190: 99bb fdbd 6bd1 a0bd e1fb 9c3d 5acb ad3d
000001a0: f2a1 39bd 6b6d 103d b7f0 39bc 848c 3a3d
000001b0: aa6e e33d 815d a93c 2c03 30bd 118c c33d
000001c0: 4706 41bc f9ca dcbb fa1a 883d df62 cb3c
000001d0: 6a54 823d bfa8 163d 16fa 863d e2a1 7c3c
000001e0: 00bb 42bd 64b8 68bd 790c cbbc 1f4d ebbd
000001f0: 2a5d 28b9 a830 edbd b273 453c 01f3 68bd
00000200: b27f 883c 6155 a33d ecda 0dbd 7234 443b
00000210: a4a4 c1bd 340a 633d c77c d63d 0003 16bd
00000220: 5f41 d63d ae81 9bbd c012 e0bd 448c 3a3d
00000230: 2c3b 7b3d f2fa c33d ed5c 62bd 4c42 a6bd
00000240: 1b1e 7e39 5481 d13d 3fa9 c9bb 8ff9 cd3b
00000250: 0e5c 90bd 9de0 42bc 0ee0 e9bd dd41 a53d
00000260: 2d12 eb3d 32c6 e5bc 7fb7 503c 2184 cbbd
00000270: 48be 02bd 632f 233e d079 51bd 241e 3b3c
00000280: 906f c23d 430a 143d b537 01be 197a 4fbd
00000290: 5eb5 983d b037 97bd 29e4 70bb acbf 85bc
000002a0: 7673 debd 7726 963c a3e3 8d3c 6bb7 c5bc
000002b0: a378 7e3d f243 0dbe 99c3 21bb 622f e63c
000002c0: 5e93 98bc 3383 263d 3797 d83c 5160 083d
000002d0: 14ef 3c3d d423 0c3d 7e13 673c 74ab 34bd
000002e0: 8558 b3bd 0da9 40bc 47f5 ffbc 0aa3 7fbd
000002f0: 70e0 5bbd 6582 8c3d 4598 a2bd 3a5d 45bc
00000300: 878e de3d cb79 d3bd b973 d1bc c32c b5bd
00000310: 4d4a adbd 482d a23d 618b f3bd 648b dc3d
00000320: ff4b 32bc 556a 9c3d 4328 6dbc 6add 2f3d
00000330: 5001 81bd b460 0bbc bdff 813d dd93 a33d
00000340: 62f5 4e3d 4198 fb3d be7e 323c 0ebf d73d
00000350: aef2 023c 63d3 623d aaad ccbc b676 993c
00000360: eb6f 92bd f285 b33d 9fdf 393d 2ca1 d53c
00000370: a470 a33d 883e c63c 9b57 9fbd 6155 053d
00000380: 26c4 3c3d ad1b a33d a6ba 4e3d e4f9 abbd
00000390: 9b37 c3bd e333 033d a547 273d bf9a aabd
000003a0: eabb a93d 4b92 533d c89b d73c bd12 02bc
000003b0: a1b1 833c 7b25 faba 4a32 653c 7426 183d
000003c0: 1714 803d 18d1 963d 757d a33d 55ae 793c
000003d0: 2532 213c 8116 903d 5ac6 f8bd 9d01 f43b
000003e0: 78a8 403c c82c 86bd 76f5 f33c bd07 89bd
000003f0: c7ed 3ebd 2ddc 4f3d 8022 83bd 2c09 2d3d

lstm.weight_hh_l1 f4 [400, 100]
0.07489768 0.07640474 0.06827327 -0.091734074 0.09715026 -0.089596845 -0.01009853 -0.08600224
0.027812155 -0.021265838 -0.038226858 -0.032775953 -0.08264313 0.07580603 -0.08955627 -0.0010120403
-0.06425158 -0.06296175 -0.0129126655 -0.009005406 0.052010998 -0.1867523 0.04719437 -0.049515348
-0.085792825 -0.082921214 -0.06996796 0.064270884 -0.022907212 0.054264233 0.091994435 0.07699011
-0.034250222 0.0777592 -0.06722139 -0.07059893 0.028889338 0.0027944816 -0.017267907 0.022700936
-0.06439459 -0.084700644 0.06460468 0.047610972 -0.101270154 -0.0090353135 -0.038325936 0.12769045
-0.061490905 -0.0058922386 0.07999491 -0.06667554 -0.09870799 -0.059075423 -0.030304378 0.08517713
-0.067132905 -0.015844494 0.09329002 0.07390467 0.04411252 0.10282228 -0.069064125 -0.0398935
0.012031492 0.083726354 -0.08804598 -0.0076062665 0.05885643 -0.010523134 -0.041310996 0.083599456
-0.015490249 -0.08246485 -0.07129345 -0.088697925 0.022954369 0.044823274 -0.05494867 0.07497499
0.031260125 -0.07453443 -0.046184037 0.041061673 -0.0032277638 -0.04533934 0.09501865 0.00055042224
0.04492953 0.09261877 -0.02848376 0.033435874 0.027789203 -0.036046393 0.08189548 0.05671044
0.012478481 -0.005597248 -0.061572485 0.102588914 0.04159172 0.0042238026 0.043014962 0.026120065
0.0015288906 -0.10734591 0.0045811874 -0.06835487 -0.0054769977 -0.052906662 0.0067791366 0.0015704407
0.00939395 -0.018284554 0.062493004 -0.0058798064 -0.007105672 0.01277078 0.055633403 0.006553253
0.073172696 0.033410165 0.01059677 -0.018558979 -0.1004523 -0.019584827 -0.07558925 0.024155213
0.06304801 -0.057423707 -0.049662743 -0.092530444 -0.11099272 0.10188837 0.013218621 0.048713215
0.12567514 -0.0711786 -0.062325507 0.06451212 0.013133928 -0.060327444 0.04387364 -0.07847112
0.15079212 0.113243 0.045719016 -0.08699061 -0.07468224 -0.061151356 0.011043244 -0.03717144
0.11293003 -0.047542743 -0.023952875 -0.058390714 -0.007933329 -0.053865444 0.11334065 0.09727947
-0.010557727 -0.05853082 0.07308125 0.0745677 -0.062371336 0.0071254955 0.09070382 0.06795306
-0.05685273 0.036537793 0.040084776 0.05713928 0.0015207893 -0.026688552 -0.03327996 0.0969999
-0.033957426 -0.11359676 0.040040553 0.009343262 0.020781387 0.07764534 -0.0069559263 -0.04858469
-0.019050805 -0.052727006 0.092630975 0.002676443 0.02333178 0.03372255 -0.016980622 -0.07813063
-0.027780304 0.0840248 0.0256106 -0.034925133 0.045268558 -0.07439577 -0.05609701 0.053772893
-0.058531154 0.013555527 -0.081026845 0.06453942 0.102423064 0.059305716 -0.08035623 0.05141849
0.037503313 0.07765109 0.04673769 0.09653107 -0.0112752775 -0.07441692 0.035931244 0.0005947187
0.014327102 -0.03162941 0.03013985 -0.062160317 0.0205121 -0.06690904 -0.043208633 -0.011738025
-0.010780342 -0.06453142 0.054550998 -0.10234594 0.06911347 -0.0979566 -0.024474856 0.078998916
-0.086471446 0.02616172 0.12845966 0.080606736 0.021082224 0.04394961 -0.07572235 0.07868748
0.056935653 -0.08759515 0.0035777346 0.063211195 -0.13520369 -0.08516031 0.032477934 0.04595737
-0.09985426 -0.037203014 -0.09705297 -0.07669929 -0.06488792 -0.01475269 -0.0037706352 -0.073621765
00000000: f463 993d 177a 9c3d dbd2 8b3d 13df bbbd
00000010: b7f6 c63d 8d7e b7bd 4e74 25bc f121 b0bd
00000020: 51d6 e33c b235 aebc c493 1cbd 1440 06bd
00000030: cd40 a9bd 3140 9b3d 4769 b7bd 70a6 84ba
00000040: 5596 83bd 17f2 80bd a58f 53bc 698b 13bc
00000050: 7c09 553d ff3b 3fbe e24e 413d 9bd0 4abd
00000060: 26b4 afbd 99d2 a9bd 5d4b 8fbd 74a0 833d
00000070: e8a7 bbbc 2c44 5e3d 9467 bc3d feac 9d3d
00000080: f649 0cbd 3740 9f3d 5eab 89bd 2c96 90bd
00000090: 55a9 ec3c 9f23 373b 6d75 8dbc 50f7 b93c
000000a0: 50e1 83bd 8877 adbd 754f 843d b903 433d
000000b0: ba66 cfbd da08 14bc a8fb 1cbd 49c1 023e
000000c0: e3dd 7bbd ae13 c1bb 5fd4 a33d 2f8d 88bd
000000d0: 6a27 cabd 12f9 71bd e340 f8bc 5971 ae3d
000000e0: fa7c 89bd 50cc 81bc d70e bf3d 555b 973d
000000f0: 54af 343d 7d94 d23d 7e71 8dbd 5e67 23bd
00000100: bc1f 453c b978 ab3d 7351 b4bd fd3d f9bb
00000110: 7113 713d 3969 2cbc b835 29bd 3136 ab3d
00000120: d0ca 7dbc 55e3 a8bd 4d02 92bd 42a7 b5bd
00000130: cd0a bc3c 9c98 373d db11 61bd 7d8c 993d
00000140: 9e0a 003d 82a5 98bd 792b 3dbd 4930 283d
00000150: e488 53bb beb5 39bd 2399 c23d 364a 103a
00000160: 0708 383d e9ae bd3d c656 e9bc 0ef4 083d
00000170: 2fa6 e33c 62a5 13bd d1b8 a73d 3549 683d
00000180: 8b72 4c3c 1f69 b7bb 6e33 7cbd 231a d23d
00000190: 145c 2a3d d367 8a3b 7530 303d bff9 d53c
000001a0: 0e65 c83a 2cd8 dbbd c91d 963b a3fd 8bbd
000001b0: 6378 b3bb a8b4 58bd 8523 de3b 3fd7 cd3a
000001c0: 15e9 193c 7dc9 95bc aaf8 7f3d 64ab c0bb
000001d0: b2d6 e8bb 893c 513c dadf 633d acbc d63b
000001e0: 91db 953d 19d9 083d 139e 2d3c 0009 98bc
000001f0: efb9 cdbd 5c70 a0bc 89ce 9abd 27e1 c53c
00000200: 511f 813d 1f35 6bbd 296b 4bbd 9a80 bdbd
00000210: 2750 e3bd daaa d03d ea92 583c 8287 473d
00000220: fcb0 003e 16c6 91bd 0849 7fbd ee1e 843d
00000230: b02f 573c e919 77bd d9b4 333d 77b5 a0bd
00000240: 4069 1a3e f2eb e73d dd43 3b3d 2228 b2bd
00000250: 01f3 98bd d879 7abd b9ee 343c 1441 18bd
00000260: dc47 e73d 2ebc 42bd d238 c4bc 1a2b 6fbd
00000270: cbfa 01bc 03a2 5cbd 251f e83d 753a c73d
00000280: 51fa 2cbc 03be 6fbd 9fab 953d f3b6 983d
00000290: 1679 7fbd fd7c e93b edc2 b93d f92a 8b3d
000002a0: 69de 68bd a7a8 153d ef2f 243d e10a 6a3d
000002b0: 3955 c73a f3a1 dabc 9150 08bd e2a7 c63d
000002c0: f116 0bbd 6ba5 e8bd 9001 243d 7b14 193c
000002d0: ba3d aa3c 8504 9f3d 8aee e3bb bd00 47bd
000002e0: 6f10 9cbc 46f8 57bd 4fb5 bd3d 4367 2f3b
000002f0: 4a22 bf3c a820 0a3d f21a 8bbc f402 a0bd
00000300: 8593 e3bc 3215 ac3d 52cd d13c a80d 0fbd
00000310: 866b 393d cf5c 98bd fac5 65bd f740 5c3d
00000320: 5dbe 6fbd 0018 5e3c 67f1 a5bd 3e2d 843d
00000330: 2fc3 d13d 8dea 723d cf91 a4bd 329c 523d
00000340: 139d 193d 8907 9f3d 0570 3f3d 15b2 c53d
00000350: f1bb 38bc e667 98bd a42c 133d e5e6 1b3a
00000360: 39bc 6a3c d78d 01bd d9e7 f63c d19b 7ebd
00000370: fe08 a83c 9b07 89bd 89fb 30bd d850 40bc
00000380: 08a0 30bc 0d29 84bd de70 5f3d c09a d1bd
00000390: 5d8b 8d3d 789d c8bd 7e7f c8bc 2fca a13d
000003a0: f117 b1bd 1a51 d63c ee8a 033e 2515 a53d
000003b0: a1b4 ac3c 8204 343d 5214 9bbd e726 a13d
000003c0: 5c35 693d 1665 b3bd 6d78 6a3b df74 813d
000003d0: d672 0abe 8768 aebd 9507 053d cc3d 3c3d
000003e0: 6480 ccbd 3062 18bd b5c3 c6bd 8414 9dbd
000003f0: f5e3 84bd 44b5 71bc c31c 77bb 02c7 96bd

lstm.bias_ih_l1 f4 [400]
0.07194861 -0.047863424 0.04312301 0.095848076 -0.0792996 0.034387473 0.0552331 0.008428474
0.074147105 0.04603034 -0.07356309 0.067813404 0.10081918 0.049217906 0.099669434 0.09108118
-0.026177818 -0.05485361 0.03325351 -0.061533768 0.088273264 0.088431515 -0.022472203 -0.046944916
-0.010348247 -0.067892104 -0.07815992 -0.061648704 0.061532997 -0.10062105 -0.059355635 0.050075125
-0.07012305 0.03424766 0.08356631 -0.03242827 -0.08872666 0.057779748 0.01902103 0.014912835
-0.0078069274 -0.04437534 -0.030695448 -0.062025633 -0.061370403 -0.057214744 -0.0667053 -0.04966548
-0.07155532 0.07914961 -0.08335542 0.06697265 -0.037702896 0.023169493 0.10751965 -0.089117795
0.103722304 0.10914071 0.003990466 -0.028845998 -0.054814983 -0.035729185 -0.08351681 0.043588825
-0.086416565 -0.016290791 0.05891156 -0.0843327 0.03728057 0.026323054 0.094494045 0.026011463
0.07080277 0.0956495 -0.006215519 -0.013555654 0.016786663 -0.022384517 0.052315366 -0.014814213
-0.096202105 0.079689376 0.0127525125 -0.0004146965 0.0044977823 0.0771701 0.104243346 -0.0030007362
0.01908702 -0.051325604 -0.025845272 0.055947494 -0.08851357 0.0685199 0.07077501 0.08295925
0.055242453 0.06063295 -0.02278725 0.08095481 0.06534607 0.0412823 0.043177065 -0.06330151
-0.048892368 0.05934743 -0.071792535 -0.050117925 0.013522668 -0.019648716 0.0019159565 -0.04574411
0.04461161 -0.08184636 0.031121954 -0.04863389 0.01830838 0.07831692 -0.103003316 0.08174329
-0.06331232 0.051465936 0.096575886 0.08627435 -0.021364162 -0.038945083 -0.003355422 -0.053486202
0.04436692 -0.10182529 -0.0018356922 -0.05033061 0.00027550478 -0.011539453 0.077482514 0.054908045
0.004685491 -0.021813583 -0.073124 0.07686349 0.03120637 0.06670663 -0.0883207 0.0037771123
0.041892968 -0.051374 0.08583977 0.16044286 0.04494439 -0.06989527 0.08849312 -0.00050282094
-0.066479936 0.07261582 -0.043013617 -0.019822441 -0.06970467 -0.03392542 -0.0705512 -0.0984834
0.06522772 0.06731598 -0.0620365 -0.003246377 -0.07015858 0.022815393 0.036151294 -0.008393844
-0.0270417 0.014988675 0.033493955 0.083386354 0.007681499 -0.023818282 0.044840105 0.074526526
0.09094564 0.08350364 0.009322974 0.08584446 0.06653153 0.024673458 -0.086135656 -0.06790537
0.06409916 0.086748615 0.0135269025 -0.024159415 0.011659165 0.08352739 0.10141775 -0.016199928
-0.075638704 -0.0609904 -0.016732344 0.07843845 0.04525506 -0.05667169 0.029708624 0.008985504
0.087352596 -0.069306426 -0.05336437 0.060067996 -0.0062555387 0.11435223 0.046436515 -0.00881399
0.028198645 0.044335466 -0.000455369 -0.075617075 -0.0956241 -0.057330016 0.08775177 -0.03590095
0.097531945 -0.010006311 0.053032454 0.08672981 -0.07634341 0.026045779 -0.08518628 -0.060133763
0.07589736 0.019247362 0.053664815 -0.11441392 -0.043501712 -0.03168811 0.101702005 0.0045548547
-0.068281345 -0.077883184 -0.0044567534 0.0035564823 0.015404688 0.09442816 -0.09044724 -0.0019410067
0.08703708 -0.06324913 0.044167977 -0.004774894 0.062463313 -0.032630127 -0.045234237 0.08482029
0.030712575 0.105639726 -0.082797915 0.07330089 -0.047362603 0.08032558 -0.08821225 0.024433604
00000000: cb59 933d 700c 44bd c1a1 303d ff4b c43d
00000010: d467 a2bd e1d9 0c3d 1a3c 623d 9517 0a3c
00000020: 70da 973d 4f8a 3c3d 3fa8 96bd c1e1 8a3d
00000030: 497a ce3d b798 493d 7d1f cc3d c588 ba3d
00000040: dd72 d6bc 2eae 60bd d534 083d d50a 7cbd
00000050: 9dc8 b43d 951b b53d a017 b8bc 5049 40bd
00000060: b28b 29bc 040b 8bbd 4f12 a0bd 5a83 7cbd
00000070: 060a 7c3d 6912 cebd e51e 73bd 931b 4d3d
00000080: ac9c 8fbd 4647 0c3d d024 ab3d 81d3 04bd
00000090: 53b6 b5bd 75aa 6c3d fed1 9b3c f754 743c
000000a0: 41d1 ffbb ebc2 35bd 0575 fbbc 970e 7ebd
000000b0: 885f 7bbd 025a 6abd ca9c 88bd 086e 4bbd
000000c0: 988b 92bd 3119 a23d 3fb6 aabd f528 893d
000000d0: 5a6e 1abd f3cd bd3c 4333 dc3d 6483 b6bd
000000e0: 5c6c d43d 2a85 df3d 74c2 823b 714e ecbc
000000f0: ad85 60bd c458 12bd dc0a abbd 328a 323d
00000100: 2bfb b0bd 4474 85bc 3f4d 713d 9fb6 acbd
00000110: 83b3 183d 72a3 d73c 1886 c13d fe15 d53c
00000120: 0b01 913d e3e3 c33d 8dab cbbb 8918 5ebc
00000130: 2f84 893c bc5f b7bc a348 563d 50b7 72bc
00000140: 9c05 c5bd 2f34 a33d eaef 503c 9f6b d9b9
00000150: 2262 933b 5b0b 9e3d 897d d53d 00a8 44bb
00000160: 625c 9c3c cc3a 52bd 77b9 d3bc 3329 653d
00000170: 9a46 b5bd 2954 8c3d 7df2 903d 8ae6 a93d
00000180: e945 623d 425a 783d 54ac babc a3cb a53d
00000190: 29d4 853d a117 293d 6fda 303d 39a4 81bd
000001a0: 5d43 48bd 4a16 733d f707 93bd 7448 4dbd
000001b0: 2e8e 5d3c 58f6 a0bc d520 fb3a 2d5e 3bbd
000001c0: aaba 363d 109f a7bd 78f3 fe3c 5434 47bd
000001d0: 75fb 953c 9f64 a03d 67f3 d2bd 0769 a73d
000001e0: e4a9 81bd f2cd 523d 94c9 c53d 9bb0 b03d
000001f0: e503 afbc e184 1fbd a4e6 5bbb 5914 5bbd
00000200: 16ba 353d c789 d0bd 9c9b f0ba 7827 4ebd
00000210: a071 9039 f90f 3dbc 27af 9e3d 42e7 603d
00000220: bf88 993b 66b2 b2bc 09c2 95bd 9b6a 9d3d
00000230: 80a4 ff3c 7c9d 883d 7ce1 b4bd 6e89 773b
00000240: f697 2b3d 8b6d 52bd c3cc af3d 224b 243e
00000250: 9c17 383d 4025 8fbd e23b b53d becf 03ba
00000260: a226 88bd 9ab7 943d 0c2f 30bd ac62 a2bc
00000270: 52c1 8ebd 62f5 0abd 267d 90bd aab1 c9bd
00000280: 1c96 853d f6dc 893d fc19 7ebd 2bc1 54bb
00000290: 4daf 8fbd 59e7 ba3c 6113 143d 5586 09bc
000002a0: 8e86 ddbc 0f93 753c f530 093d 77c6 aa3d
000002b0: 15b5 fb3b 8f1e c3bc 42aa 373d 5da1 983d
000002c0: b541 ba3d f503 ab3d 63bf 183c 38cf af3d
000002d0: af41 883d fe1f ca3c e467 b0bd f811 8bbd
000002e0: 6c46 833d 42a9 b13d f19f 5d3c f7e9 c5bc
000002f0: 1506 3f3c 6910 ab3d 1cb4 cf3d b6b5 84bc
00000300: 77e8 9abd 12d1 79bd 4512 89bc 57a4 a03d
00000310: 5f5d 393d 9320 68bd 805f f33c ef37 133c
00000320: ebe5 b23d 87f0 8dbd 9994 5abd dc09 763d
00000330: 43fb ccbb 8131 ea3d 3734 3e3d 8e68 10bc
00000340: d800 e73c 1b99 353d 98be eeb9 20dd 9abd
00000350: 91d6 c3bd e1d2 6abd 33b7 b33d e00c 13bd
00000360: d4be c73d 83f1 23bc 8f38 593d 669f b13d
00000370: ef59 9cbd f55d d53c 2576 aebd d24e 76bd
00000380: 1370 9b3d a5ac 9d3c a3cf 5b3d d851 eabd
00000390: da2e 32bd 64cb 01bd 2449 d03d e440 953b
000003a0: 17d7 8bbd 3881 9fbd f509 92bb df13 693b
000003b0: f263 7c3c 8d63 c13d 673c b9bd 6169 feba
000003c0: 7f40 b23d c388 81bd 7be9 343d b776 9cbb
000003d0: 88d9 7f3d 2ba7 05bd 8947 39bd 43b6 ad3d
000003e0: f098 fb3c a459 d83d f491 a9bd c71e 963d
000003f0: 4aff 41bd bd81 a43d a0a8 b4bd fb28 c83c
