BikeSharingPrediction-main/models/lstm_short_term_90d_run3.pt (torch, 546325 bytes, 10 tensors)

lstm.weight_ih_l0 f4 [400, 12]
000000 2a 1a 0c bc 19 ef 9a 3d 42 20 9e bd 80 83 cf bd
       -0.00855116 0.075651355 -0.077209964 -0.101325035
000010 23 60 e4 3d 42 2d 9c bc ca e1 33 bb 62 a4 a5 bc
       0.11151149 -0.01906455 -0.0027447813 -0.020219985
000020 1a 3a f6 bd 7b 2f 7c 3c 25 ac 36 3d a8 f5 a9 3d
       -0.12022801 0.01539218 0.044597764 0.08298808
000030 59 e2 bf 3c 0d 9a 38 3d b7 b0 c8 3d 57 d5 02 3d
       0.02342336 0.04506879 0.09799331 0.031941738
000040 59 3e c6 3d b7 4d 09 3d 53 00 a7 3d 79 9c 0c 3d
       0.096798606 0.03352138 0.08154359 0.03432891
000050 23 da ac bc ab a5 64 bd 75 8a a9 bd 86 2b 06 bd
       -0.02110011 -0.055822056 -0.08278362 -0.03275635
000060 5f 45 0d 3e b8 5d e1 3d 7f 24 0c 3e 92 17 be bb
       0.13795994 0.110042036 0.13685797 -0.0058011496
000070 a8 34 4f bd 2d e8 cc 3d 45 e5 42 3d 45 fb e5 bc
       -0.050587326 0.100052215 0.04758193 -0.028073916
000080 45 0d 10 bd 22 97 b1 3d 38 60 ee 3c d2 8c a5 3d
       -0.035168905 0.086714044 0.029098615 0.080835
000090 8c b6 6f 3d 35 35 13 b9 92 09 1b bb 63 61 54 3d
       0.0585237 -0.00014038834 -0.0023656827 0.051850688
0000a0 6f bb b0 3d a3 23 17 bd 62 88 6a 3d 3a d7 d9 3d
       0.086295 -0.03689922 0.05725897 0.10636754
0000b0 9a 04 ae 3d b7 dd a5 bd 0d b3 6b bd 57 6c 0c bc
       0.084969714 -0.080989294 -0.057543803 -0.008570752
0000c0 9b 78 51 3d e3 b8 b8 3d ae a9 81 3d 35 f7 01 3e
       0.05114041 0.09019639 0.06331192 0.12691958
0000d0 bc 2c d5 3d c8 91 26 3d 95 98 3b 3d 57 d8 8e bb
       0.10408923 0.04066637 0.04579981 -0.004359286
0000e0 06 0c 03 3e 3b c6 e9 3d c8 db 17 be 64 bc 47 3d
       0.12797555 0.114147626 -0.14829934 0.048763648
0000f0 6f 51 96 3d 89 2e 9c bb c6 20 ad bc 51 8d c0 bc
       0.07339751 -0.0047662896 -0.021133792 -0.023504885
000100 8f 4d 47 bc 96 4a 9a 3d 05 15 d2 bc 11 05 b0 bc
       -0.0121644875 0.075337574 -0.025644789 -0.02148679
000110 79 ed 59 3d e8 3a 5d 3d f4 fc 77 bc c4 fe ad bd
       0.053204987 0.054011256 -0.015135992 -0.08495858
000120 58 a2 c8 bd 04 1b 90 bc 8e 0d ad 3c 22 13 2c 3d
       -0.097965896 -0.017591007 0.021124627 0.042010434
000130 2c 1a 9f bd 53 b2 96 3d 78 d6 60 bd e8 f7 5f 3d
       -0.07768664 0.073582314 -0.054892033 0.05467978
000140 dd ab a0 bd 2c c9 6b 3d 80 2a 19 bd 7c f5 ec bc
       -0.0784528 0.0575649 -0.037394047 -0.02892565
000150 12 c5 b8 3d 7a c7 f9 3d 44 66 e8 3d 18 fe 6a 3d
       0.09021963 0.1219625 0.113476306 0.05737123
000160 cb a8 49 bd f7 09 02 3e e4 9c 9b bd 5d 07 ca 3d
       -0.04923324 0.12699114 -0.07598284 0.09864686
000170 cf bf 08 3d bd b8 b1 bd 0d 2e 1d bd 39 d5 a8 3d
       0.033386048 -0.08677814 -0.038373996 0.08243794
000180 a7 4e be 3c 6b 04 ae 3c 95 49 8e 3d ef 0c 84 bd
       0.023230864 0.021242341 0.069476284 -0.064477794
000190 33 94 83 3c 57 60 93 bd 76 6d 8d 3d 65 58 aa bd
       0.016061878 -0.0719611 0.06905644 -0.08317641
0001a0 da 6f 98 3d 13 8c 97 3c 8d 0c 71 bb ee 56 76 3d
       0.07443209 0.01849941 -0.0036781162 0.060141496
0001b0 9e ca a3 3c 34 f6 af bd 03 0f 96 bd f5 49 f6 3b
       0.019994076 -0.085918814 -0.07327082 0.0075161406
0001c0 55 c6 e8 bc 74 63 f4 bc 6c 78 fd bd 22 44 99 37
       -0.028414885 -0.02983258 -0.12376484 1.8270748e-05
0001d0 e8 50 ed bd a8 50 4d bd 71 5d 04 3d 15 c0 fe bd
       -0.11587697 -0.050125748 0.032315675 -0.124389805
0001e0 0c db d1 bc 5b f5 4f 3d 91 5b b0 3d f1 1a 9f 3d
       -0.025617145 0.0507711 0.08611215 0.077688105
0001f0 f7 cb 00 3c df 72 52 3d 62 db 10 bd b6 64 17 bd
       0.007861129 0.05137908 -0.03536547 -0.03696128
000200 b5 eb d8 bd 9d fb 43 3d c2 df 19 bd 9a 5e 1d bd
       -0.105918325 0.04784738 -0.037566908 -0.038420297
000210 50 2c 0d bd cf 96 ca 3d d8 4f ad bd 02 9d b6 3c
       -0.034466088 0.09892046 -0.084624946 0.022291664
000220 32 b7 0a 3e 10 52 c0 3d 4a ea a9 3d e1 e9 2e 3d
       0.13546446 0.09390652 0.0829664 0.042703513
000230 f4 08 e2 bc 50 18 20 3d f3 08 bb 3d 50 e0 46 3e
       -0.02759216 0.039085686 0.09132566 0.19421506
000240 18 3b 20 3c c0 fb 17 3c 81 0b 85 3d 9c 1f ca bd
       0.009779714 0.0092763305 0.06496335 -0.0986931
000250 1c 55 9f bd d3 61 98 3d 5f a0 d8 3c a0 4f 7f 3d
       -0.07779905 0.074405335 0.026443658 0.062331796
000260 11 4f 4d bd 1c c0 e2 3c 96 45 60 bd 8f f3 99 3d
       -0.05012423 0.027679496 -0.054753862 0.07517158
000270 77 f5 d8 bd cc d8 23 bd bb 9d b6 3d 18 01 f6 3d
       -0.10593694 -0.040001675 0.089168034 0.12011927
000280 b2 3c 0b 3d 85 51 bb 3d 8b 75 80 3d 53 d0 3a bd
       0.03399343 0.09146408 0.062724195 -0.04560883
000290 44 42 c0 bd f8 39 c4 bd dc ec 2f 3d 10 52 27 be
       -0.09387639 -0.09581369 0.042950496 -0.16339898
0002a0 29 75 a2 3c 98 64 b0 3d c6 31 bf 39 2a e6 d5 3d
       0.019831257 0.08612937 0.00036467443 0.10444291
0002b0 e7 a5 a9 bd 03 8e ca 3c fa b9 8a bd 26 5f 90 3d
       -0.082835965 0.02472592 -0.067737535 0.07049398
0002c0 fb 10 1c bd 76 68 49 3d 71 be 80 3c 8c 66 e7 3c
       -0.03810213 0.049171887 0.01571581 0.02824714
0002d0 b7 f9 af 3d 85 cf 83 3b 78 f1 97 3d 6a 70 95 bd
       0.08592551 0.004022541 0.074191034 -0.07296832
0002e0 19 fd bb bd ce fa b1 bd 84 70 88 3c 24 e4 b9 bd
       -0.09179134 -0.08690415 0.016655214 -0.090767175
0002f0 5c e5 d6 bd 89 37 00 3c 97 bd bd 3d eb f2 6f 3d
       -0.104929656 0.007825741 0.09264677 0.058581274
000300 c4 8b ed 3c 6b 31 9f bd af 4b 86 3d c6 16 17 bd
       0.02899731 -0.077730976 0.06557404 -0.036886953
000310 60 6d 33 bd 0a ae 81 bd 29 1b 8d 3b f1 92 be 3d
       -0.04380548 -0.063320234 0.0043062163 0.093053706
000320 44 3e 3c 3d b8 26 bf bd c2 79 a6 bd 9f 55 93 bc
       0.04595782 -0.09333557 -0.08128692 -0.017985163
000330 c3 ef 5f 3d 63 27 d6 bc 03 cc 83 3c a6 4c 4f 3c
       0.054672014 -0.026141828 0.016088491 0.012652552
000340 c1 54 81 bd fd 25 e0 3d 6d 92 94 bd 0b 36 a9 3c
       -0.06314994 0.10944746 -0.07254491 0.020655653
000350 f7 63 0c be 61 ef 54 3b 49 7f 8a bd f5 56 ab 3d
       -0.13710009 0.0032491314 -0.06762559 0.08366195
000360 1a ec 92 3d df 86 68 bd f7 68 85 3d 58 49 89 bd
       0.07173939 -0.056769248 0.06514161 -0.06703442
000370 72 01 67 3d 6f 57 b4 3d 4e 08 b5 3d 1c 74 e5 bb
       0.056397863 0.08805739 0.088394746 -0.0070023667
000380 f3 e5 8a 3d cc cc c9 3d 8d 09 ed 3c a5 53 bc bc
       0.067821406 0.09853515 0.028935218 -0.022989104
000390 c2 51 ed 3d 07 87 12 3d 63 f1 3e 3c bc 12 90 bd
       0.1158786 0.035773303 0.011654231 -0.07034823
0003a0 d2 06 c5 bd bd 00 82 bc 07 29 3d bc d0 76 fe bc
       -0.096204415 -0.015869493 -0.011545426 -0.031062514
0003b0 50 37 52 3d 5a 64 be bc 57 26 f9 bc 36 ac 86 bd
       0.05132228 -0.02324121 -0.03041379 -0.065758154
0003c0 15 7b b2 bc 26 75 62 bd 92 b2 5a 3d ac 4e 72 bd
       -0.021787206 -0.055287503 0.053392954 -0.05915706
0003d0 c2 97 a5 bd 52 0e 01 bd c5 4a c3 3d e8 72 8d bd
       -0.08085586 -0.031507798 0.095357455 -0.06906682
0003e0 72 20 6a 3d 6f a8 8c bc c9 00 08 bc 4f 74 1b 3d
       0.05715985 -0.01717016 -0.008300968 0.037952717
0003f0 d8 96 d1 3d 73 06 ad 3d 54 01 a0 bc 35 c6 28 3c
       0.10233849 0.08448496 -0.019531883 0.0103011625

lstm.weight_hh_l0 f4 [400, 100]
000000 37 ba a2 bd 1b 3c ac 3d af 3d 0a ba 3a 88 27 3d
       -0.07945674 0.08409902 -0.0005273474 0.0409014
000010 0b 58 3e bd df bc 57 3c e8 ed 1b 3d 2e 66 bc bc
       -0.046470683 0.013167589 0.038068682 -0.022997942
000020 e1 16 80 bd 86 8b 8e bd a5 f6 bb bd b4 ba 4e bd
       -0.06254364 -0.06960206 -0.09177903 -0.050471023
000030 0e ac 80 3d 41 bd 29 3d 5f 88 cb bd 54 d5 5f bd
       0.06282817 0.041440252 -0.0993812 -0.054646805
000040 b8 db a2 3d 40 e6 ce 3d 7f 39 c3 bd 8e 12 c8 3d
       0.07952064 0.101025105 -0.09532451 0.09769164
000050 71 86 4b bd c7 2a 2c bb ef f2 af 3b c6 47 14 bd
       -0.04968876 -0.0026270614 0.005369536 -0.03620126
000060 b8 02 75 bd 24 78 64 bd 47 a4 33 bb f7 62 8d 3d
       -0.059817046 -0.055778638 -0.002741115 0.06903642
000070 05 91 bd bc 39 86 42 bd 6a ec 7d bd 0e e6 27 3c
       -0.02314044 -0.047491286 -0.06199304 0.01024772
000080 1d 81 db bc 36 61 78 3d fe 69 7d 3d 82 b8 41 bd
       -0.026794964 0.060639583 0.06186866 -0.0472951
000090 6d 7b 9c bc 2a 9f ad 3d 45 8d 7f 3d e7 54 fc bd
       -0.019101823 0.08477624 0.062390584 -0.12320881
0000a0 4d 21 a5 bd 2e cd 0c bc 76 10 c5 3d bc d7 cf 3d
       -0.08062992 -0.0085938405 0.0962228 0.1014857
0000b0 fa 08 2f bd c8 85 c2 bd 72 b8 88 bd bd 12 c5 3c
       -0.04273317 -0.09498173 -0.06675805 0.024056787
0000c0 73 a8 bb bd 7e ba 7b 3d 65 da dc bc ba be b3 bd
       -0.091629885 0.06145715 -0.026959607 -0.087766126
0000d0 9d ff 80 bc a0 26 17 bd a3 a3 ce 3d a1 12 b6 bc
       -0.015746886 -0.03690207 0.10089805 -0.02222568
0000e0 00 f5 26 bb 4d eb 59 3d e2 dc a3 3c 4d 3d 98 bd
       -0.0025475621 0.053202916 0.020002786 -0.07433567
0000f0 68 4d 05 bd f7 53 ad 3d 8e db 40 bd ad e8 a8 3c
       -0.032544523 0.08463281 -0.047084384 0.020618761
000100 8c 2b 36 3c ca 53 3b 3c bd 50 f7 bc 73 c9 bf 3a
       0.011118781 0.011433551 -0.030189866 0.001463218
000110 85 d7 b5 3c 6c 26 2b bc 8e be b4 3d 6c 93 86 bc
       0.022197494 -0.010446172 0.08825408 -0.016427718
000120 1f fb b9 3c 66 63 17 bd 71 91 b3 bd 1e e6 a0 bb
       0.022702752 -0.036960028 -0.08767975 -0.0049102446
000130 05 15 5a 3d 8d 1e e0 3c 18 b0 a9 bd a1 eb 00 3c
       0.053242702 0.027358318 -0.0828554 0.007868678
000140 b8 ab 92 bd 36 1a 85 bd 74 86 c2 3d b8 f8 b0 bc
       -0.07161659 -0.0649914 0.09498301 -0.021602973
000150 c4 46 6c bd b5 21 60 bd 27 63 2f 3b 23 cc 52 bd
       -0.057684675 -0.054719646 0.002676198 -0.05146421
000160 74 51 84 3b 9b 14 56 3d b7 54 c8 3c 23 20 b6 bd
       0.0040380303 0.052265745 0.024454458 -0.08892848
000170 d7 c2 58 ba 19 0d 42 3d 25 6e 99 bd ea 13 c3 3d
       -0.00082687795 0.047375772 -0.074917115 0.09525283
000180 0e d4 dd bc 79 cc bd b9 c2 c0 ad 3d c9 b8 7d bd
       -0.027078655 -0.00036201233 0.08484031 -0.061943803
000190 c3 5f 89 3d 67 ad 70 bd fd 9e ca 3c f5 d9 b9 3c
       0.06707718 -0.05875912 0.024734015 0.022686938
0001a0 d5 73 80 bd 82 69 0b 3d fd 2f 85 3d ab 9a bd 3d
       -0.06272093 0.034036167 0.06503294 0.09258016
0001b0 ae 93 b1 bd 59 82 55 3d 91 4c 18 bd b8 a2 34 bd
       -0.08670746 0.052126262 -0.037182394 -0.044100493
0001c0 01 32 83 bc b2 f7 b7 3d a7 a7 1b bc 97 30 4c bc
       -0.016015055 0.08982791 -0.009500421 -0.012462757
0001d0 ae 6b e5 3c 48 99 80 3d 94 e3 b2 3d 26 28 ab bd
       0.028005447 0.06279236 0.08734813 -0.08357267
0001e0 84 d2 02 3d 5f 61 5b 3d 65 ea b8 bd ac ca 78 3b
       0.031939045 0.053559657 -0.09029082 0.0037962599
0001f0 a2 5f b6 bd 7c 9e b1 3d 55 23 30 3e b7 69 32 3d
       -0.08904959 0.086728066 0.17200978 0.04355785
000200 9a e6 cc bd 3b 75 c1 bd e8 14 21 3e a4 bf 96 3b
       -0.10004921 -0.09446188 0.15730631 0.004600482
000210 37 43 02 bc f5 ec 9c 39 54 67 61 bb 0c 54 26 3b
       -0.007950596 0.00029931185 -0.0034393864 0.0025379686
000220 92 fa 28 be 1b d7 53 bc 5a 08 fd 3d f2 16 d5 3d
       -0.16501835 -0.012929703 0.123551086 0.10404767
000230 0f 7f e6 bd cd f2 5c bd e4 51 80 bd 63 5c 03 bc
       -0.11254703 -0.05394249 -0.062656194 -0.008017632
000240 c2 b8 95 bd 53 c6 ba 3d 86 37 df 3d a4 58 91 bd
       -0.073106304 0.091198586 0.10899262 -0.07096985
000250 c1 14 ad 3d fd 7b 1a 3d 31 f9 2a 3d f7 d2 2f bc
       0.08451224 0.0377159 0.041741554 -0.01073145
000260 e0 74 01 3d bb 91 1c bd fa 56 3c 3c 07 cd 9a 3c
       0.0316056 -0.038224917 0.011495346 0.018896593
000270 37 30 18 bd e6 1d 14 3d fa b3 a3 3d 9e d8 cf 3c
       -0.037155356 0.036161326 0.07993312 0.025371846
000280 e9 dc 7f 3d 13 28 12 bd b5 23 33 bd 89 86 8b 3d
       0.062466536 -0.03568275 -0.043735225 0.0681277
000290 8f 86 b3 bd 75 f7 9c bb 04 14 0d 3d 1f 49 dd bd
       -0.087658994 -0.0047902414 0.034442917 -0.10804962
0002a0 0a d6 38 3d 3e fc d6 3d e5 92 78 bd 36 25 ec 3d
       0.045126 0.1049733 -0.060686965 0.11530535
0002b0 c8 a5 9a bc 1b d8 9b bd 55 f9 15 bb ca 8e e0 bd
       -0.018877879 -0.07609578 -0.002288421 -0.10964735
0002c0 29 6f ab bd 51 a9 22 bc 37 ad e0 bd 91 b9 e9 bc
       -0.083708115 -0.0099280635 -0.10970538 -0.028530868
0002d0 4a 77 35 3d 77 2f 16 be f1 5b 15 bd 0a d0 a9 bc
       0.044303216 -0.14666544 -0.036464635 -0.020729084
0002e0 1c 54 ad 3d 43 45 bb 3d 03 4d ec bc f1 e7 b0 3c
       0.08463308 0.0914407 -0.028845316 0.021594973
0002f0 03 dc 9e 3c 04 8f 13 bd 5b 7a d1 bd 6b dc 53 bc
       0.01939202 -0.036025062 -0.102284156 -0.01293097
000300 ee c4 b3 3d 49 8d ad bb 43 45 35 3e 3f 17 b2 bc
       0.08777796 -0.0052963835 0.17702202 -0.0217396
000310 08 9b a2 bd 04 dc 95 bc 0d 5f 7f 3d de 92 5c bd
       -0.07939726 -0.018293388 0.062346507 -0.053851
000320 f4 c3 76 bd 2b 05 54 3d e0 b8 ed 3d a0 ed 63 bd
       -0.06024547 0.05176274 0.11607528 -0.05564654
000330 70 51 34 be 4b 3a 2b 3e de 11 e5 bd a4 2c d5 3d
       -0.17609191 0.16721456 -0.111850485 0.10408905
000340 cc f9 cc 3d 08 a1 8c bd 5b 40 7a bd 2f 66 c5 bc
       0.100085825 -0.06866652 -0.06109653 -0.024096576
000350 f0 f8 aa bd 80 23 a5 3d 80 05 89 3d b3 20 ec 3c
       -0.08348262 0.08063412 0.06690502 0.028824186
000360 17 91 1d 3e c3 5c db 3d 6d eb 12 3e 66 2c f4 3d
       0.15387379 0.10711052 0.1434762 0.11922531
000370 e4 26 0d 3d 11 2d 0a bc 7e 8d d5 3d 88 ea 23 3e
       0.034460917 -0.008433596 0.10427378 0.16007435
000380 2a 51 7b bc 42 2e 60 bd f3 f9 39 3a c9 93 99 3c
       -0.015339175 -0.054731615 0.0007094435 0.018747227
000390 80 df e2 bd b9 f3 8f 3d 4e bf 22 be 03 3e b7 bc
       -0.110777855 0.07028908 -0.1589329 -0.022368437
0003a0 21 d6 ff 3b 4d 0c 23 bd 1b ec 09 3e ce 78 3c 3d
       0.0078075086 -0.039806653 0.13468973 0.046013646
0003b0 f5 7b 12 3e 1c 66 ff 3c 17 77 fa bd 94 50 a8 bb
       0.14305098 0.03117662 -0.12229746 -0.005136559
0003c0 6b f8 97 3c 43 8c 4c bb 17 c2 15 3e 62 7b f3 bc
       0.018551072 -0.0031211532 0.1462482 -0.02972192
0003d0 93 1f e5 3d a4 b5 6d bc 52 7c 9d bc 4a df e7 3d
       0.11187663 -0.0145086385 -0.01922432 0.11321886
0003e0 0c fb 0b bc 53 14 6b bd db d9 a9 3c 6f a9 85 bc
       -0.008543741 -0.05739243 0.020733764 -0.016316144
0003f0 d0 dd c7 bc 3c da df 3d 52 ed 14 3e 4a 03 17 be
       -0.02439776 0.10930297 0.14543656 -0.14747348

lstm.bias_ih_l0 f4 [400]
000000 4b bf 9f bc 3f 9f bb bc a4 b0 e0 3d 64 17 f9 bb
       -0.019500395 -0.022903083 0.109711915 -0.0076016653
000010 a6 5a 3f 3d 06 00 dc 3d eb 0d ae 3d a3 9c 25 3d
       0.04671731 0.10742192 0.084987484 0.040432584
000020 3a b6 88 3d 57 51 25 bc 1a df af bc 0a 16 09 3d
       0.06675382 -0.010090194 -0.021468688 0.033468284
000030 09 10 eb 3c 80 e8 56 3d 62 ad 3c bd 81 b8 75 3d
       0.02869417 0.052467823 -0.04606379 0.05999041
000040 a6 e1 69 3d 0e 9e 2c bd 02 db 4e 3d 85 75 24 3d
       0.05709996 -0.04214292 0.05050183 0.040151138
000050 22 08 9f bd bd 92 c4 3c 82 f1 75 3d 8c d8 19 bd
       -0.07765223 0.023995752 0.060044773 -0.03756003
000060 54 12 9d 3d ec 3a 4b bd ea 79 b1 3d 6b a0 b1 3d
       0.076695114 -0.04961674 0.086658314 0.086731754
000070 e7 58 c7 3d 22 3c 65 3d 9b aa c9 3c bf 07 08 bc
       0.09733754 0.05596555 0.024617484 -0.008302628
000080 67 48 55 bd a3 ab 04 3c 82 be 82 3d 58 17 a7 3d
       -0.052071 0.008097562 0.06383993 0.08158749
000090 e4 f2 14 3d 22 6d 44 3d e3 2c 4c 3d a9 37 45 3d
       0.03636445 0.04795564 0.049847495 0.048148785
0000a0 7b 50 a6 bc 97 67 fe 3c e7 31 ad bd 19 89 34 bc
       -0.020302048 0.031055255 -0.08456784 -0.011019015
0000b0 d1 50 18 bd 10 10 04 3d 30 9f 3e bd 79 dc de 3d
       -0.037186448 0.03224188 -0.04653853 0.108818956
0000c0 21 9f 52 3d 85 69 96 3c cc 14 75 bd da 44 5e 3d
       0.05142129 0.018360863 -0.059834287 0.05426488
0000d0 fc e2 38 3d e2 15 a0 bc 17 90 57 3d b6 88 8e bd
       0.045138344 -0.019541685 0.05262765 -0.06959669
0000e0 55 44 52 3d 5f df 07 3d b8 c5 4e 3d b2 58 e9 3d
       0.051334698 0.033172008 0.050481528 0.113938704
0000f0 c6 57 80 bd 15 7e b7 3d 02 ee 82 3c bc 2d 2b bd
       -0.062667415 0.08959595 0.015982632 -0.041791663
000100 ec cd 74 3d 4a 14 d2 3d 18 19 f5 bc 4e d1 dd 3c
       0.059766695 0.10257776 -0.029919192 0.027077343
000110 34 d8 ad bb dc f6 39 bd fd 9b 68 bd 46 0f cc 3c
       -0.0053053144 -0.04540144 -0.056789387 0.024909627
000120 8a c0 15 3d 25 b5 b1 3d 4e b3 64 3c b8 42 0a bd
       0.036560573 0.08677129 0.013958765 -0.033755034
000130 7d ba c9 3d 33 db 86 bc 37 7f 9f 3d 8c eb 00 3d
       0.09850023 -0.016461944 0.07787936 0.031474635
000140 83 6a 9d 3d ca fe 13 3c de c1 64 bd 6c 94 36 3d
       0.07686331 0.009032914 -0.05584895 0.04457514
000150 bd c1 48 3c e5 d8 af bd 75 d9 99 bd be b9 9d 3d
       0.012253222 -0.08586291 -0.0751218 0.07701443
000160 e9 8c d2 3c 39 47 bf 3d 5e 04 a2 bd 21 b9 0d 3d
       0.025701957 0.093397565 -0.07910989 0.03460038
000170 73 35 c1 bc 5a 10 f3 39 b7 88 90 bd f7 68 e0 3d
       -0.023585057 0.00046360755 -0.07057326 0.109575205
000180 68 e2 2c bd fd c9 73 bd 07 48 88 bd 11 88 21 3d
       -0.042208105 -0.059518803 -0.06654363 0.039436404
000190 e9 05 c6 3d 2b ff 32 bc 58 7d a6 bc 9d f0 24 bd
       0.09669096 -0.010925095 -0.02032344 -0.04026853
0001a0 82 2b 0e bd 49 92 8b 3c a2 b8 ad 3d 16 05 f8 3d
       -0.03470946 0.017037528 0.084824815 0.12110345
0001b0 a9 d2 80 3d 39 66 8e 3d a2 af 84 3d 35 88 36 3d
       0.0629018 0.06953091 0.06478812 0.04456349
0001c0 3f a0 c6 3b bb 50 c8 3c e0 51 89 3d b6 1b 91 3d
       0.0060615833 0.024452558 0.067050695 0.070853636
0001d0 fb 39 0e 3d c6 be b0 bb eb 7b 0a 3c 19 a1 0f 3c
       0.034723263 -0.0053938357 0.008452396 0.008766436
0001e0 3e 39 4d 3d 7a 5d db 3c 80 0c c5 3d 8f f9 a0 bd
       0.05010342 0.026777972 0.09621525 -0.078600995
0001f0 ce 4f b0 bd 48 50 eb 3d a7 55 dc 3c 0c 7d a8 3d
       -0.086089715 0.11489922 0.026896311 0.08226976
000200 a6 35 32 3c bf f8 28 3d 5a 42 a5 bc 95 97 3d 3d
       0.010877049 0.041252848 -0.02017324 0.046287138
000210 33 5c 97 3d 4c eb 5e 3d b3 91 e4 3d 80 6f 8b 3d
       0.073906325 0.054423615 0.111606024 0.06808376
000220 89 50 d9 3d 58 64 92 bd b9 09 9f 3c cb d8 00 3e
       0.10611064 -0.07148045 0.019413816 0.125827
000230 67 05 c9 3d e7 25 61 3d fa 0d d0 3d 79 19 2e bd
       0.098154835 0.054967787 0.10158916 -0.04250476
000240 7c e0 cd bc 5b f8 99 bd e8 f7 e2 bb 83 45 53 3d
       -0.025131457 -0.07518073 -0.0069265254 0.051579963
000250 d7 83 a9 bd 55 39 fb 3c 8e bd ec bc 3c 21 c8 3c
       -0.082770996 0.030666986 -0.02889898 0.02442991
000260 24 ea 19 bc cb 80 c1 3d b6 d8 74 bc 94 d3 85 3d
       -0.009394202 0.094483934 -0.014944246 0.06534496
000270 2b 2c 89 bd 7a aa 6c bc 00 db b3 bd 6e fa 5a 3d
       -0.066978775 -0.014444942 -0.08782005 0.053461485
000280 16 c8 fe bc 86 2f 59 bd 62 aa 5b bd b9 d6 88 3c
       -0.031101268 -0.053023838 -0.053629287 0.01670395
000290 7c 1c ad bc 13 16 ab 3d 38 ed 36 bc 63 8c af bd
       -0.021131746 0.0835382 -0.011164956 -0.085716985
0002a0 7e 5e d3 ba 61 f6 d8 3b 68 d8 bc 3c 30 a9 1b 3e
       -0.0016126183 0.0066211675 0.02305241 0.15201259
0002b0 2c b8 81 bd 32 90 a3 3c 65 80 52 3c 96 60 63 bd
       -0.06333956 0.019966219 0.012847994 -0.055512033
0002c0 76 b1 84 3d bb cd dc bc 37 4a 68 3d 6d a8 88 3d
       0.064791605 -0.026953569 0.0567114 0.0667275
0002d0 08 36 e3 bc e7 07 a4 3c c3 ce 91 bd 68 7f a0 3d
       -0.027735725 0.0200233 -0.07119515 0.07836801
0002e0 72 5c bc 3c a2 8b 40 bd ca 24 16 bd 85 20 13 bd
       0.0229933 -0.047008164 -0.03665618 -0.035919685
0002f0 13 93 7f 3d e1 8a 99 bd 7a b7 b3 3d 38 fd e8 3c
       0.06239612 -0.07497192 0.0877523 0.028441057
000300 54 34 6c bd b0 e7 87 3d 78 e0 1f bd 83 05 31 bc
       -0.05766709 0.06635988 -0.03903243 -0.010804537
000310 22 68 01 3e 6e 9a d6 bc 93 97 03 3d 92 e5 98 3d
       0.1263738 -0.026196685 0.032126974 0.07465662
000320 60 20 ba 3c 9a 28 4a 3d 34 bb 8d 3b 8e ac 98 bc
       0.022720516 0.049355127 0.004325295 -0.018636968
000330 d7 8e de bc 2d 89 17 bd e0 db 68 bd 95 bc 64 3d
       -0.02716772 -0.036996055 -0.056850314 0.05584391
000340 38 41 83 3d ef 34 19 bc ed 19 1e bd 1d d2 94 3d
       0.06408924 -0.009350999 -0.038598944 0.072666384
000350 59 46 a8 bd 41 d5 09 3d 0e 40 0f 3d 1e 32 e3 bd
       -0.08216543 0.03365064 0.034973197 -0.110935435
000360 a8 39 b0 3d 5e c7 4e bc 24 fa a2 3d 81 09 df 3c
       0.08604747 -0.012620775 0.07957867 0.027226212
000370 16 ec a1 bd b7 92 c9 bc fa eb 4b bb 96 7f a8 3d
       -0.07906358 -0.024606092 -0.0031115995 0.0822746
000380 f9 3f 55 bd ec 52 45 3d 7f 78 84 3d 8d d0 e8 3b
       -0.052062962 0.048174784 0.06468295 0.0071049393
000390 29 91 cf bd 11 44 5d 3d db bc 7f bd 96 b1 ba bc
       -0.10135109 0.05401999 -0.062435966 -0.022789758
0003a0 8f 64 7b 3b 3c 23 8f bd fd 62 42 bd 45 25 b6 bd
       0.0038359498 -0.06989142 -0.047457684 -0.08893827
0003b0 7f 98 b0 3d 8d 0b 84 3d 54 1a c1 3d 49 dc 9a bd
       0.08622836 0.06447516 0.0942885 -0.07561547
0003c0 ea 9d 40 bd b8 04 60 3d 8a 4e c8 3d ac f6 86 3d
       -0.0470256 0.054692 0.09780605 0.06590018
0003d0 55 f2 bd 3d 2d a0 b5 3d e1 5c b9 3d 66 f8 ae 3d
       0.09274737 0.08868442 0.09050918 0.08543472
0003e0 33 82 97 3d 6d 11 cf bc 3e 48 9a 3c 1f c4 d7 bd
       0.073978804 -0.025276864 0.018833276 -0.10535454
0003f0 1c 21 07 bd 7e 27 d1 3d 9e 46 0e 3c 57 58 b0 3d
       -0.03299056 0.10212611 0.008683829 0.086105995

lstm.bias_hh_l0 f4 [400]
000000 68 22 d1 3d ad 6b 17 bd a6 f9 05 3d f7 76 95 bc
       0.102116406 -0.036967922 0.032708786 -0.018245203
000010 e6 b5 bf 3d ec c1 2c bd 33 24 b0 3d a4 2b f3 3d
       0.09360866 -0.042177126 0.086006545 0.11873558
000020 66 d2 f9 3d 75 a0 2d 3c b7 43 8d 3d f9 40 81 3d
       0.121983334 0.010597338 0.06897681 0.06311221
000030 e1 5f 9d bd c8 e9 33 bd 0e aa cf 3d 8e a2 c0 3b
       -0.07684303 -0.043924123 0.10139857 0.005878753
000040 70 49 cb 3d 03 55 71 3c 64 bb aa bd ca 47 92 3d
       0.099261165 0.014729741 -0.08336523 0.07142599
000050 42 48 b0 3d c7 be 9b 3d a8 45 58 bd e5 de 85 bc
       0.08607532 0.07604747 -0.052800804 -0.016341636
000060 17 54 a2 bd ac b4 2e 3d 68 bd 30 3b 33 77 89 bd
       -0.07926195 0.04265277 0.0026968364 -0.067121886
000070 3e 8c 4e 3d 10 b8 5a bd 17 be 96 3d 6d ef 07 3d
       0.050426714 -0.053398192 0.073604755 0.03318732
000080 dc d7 ef bb 72 66 7f 3d 84 8a 9e bd bc b2 be bc
       -0.0073194336 0.06235356 -0.077412635 -0.023278587
000090 ac 77 cb 3d 94 8d 08 3d 4f ea 79 3d 3c 59 e7 3d
       0.09934935 0.033338144 0.06101447 0.11296317
0000a0 9b 7b 9e bc fe 90 97 bd e2 df 7d bc f6 ec 96 bd
       -0.019346049 -0.07400702 -0.015495272 -0.073694155
0000b0 d3 3f 04 bd 2d 1d ac 3d a7 cf bb bd 8b c6 df bc
       -0.03228743 0.08404002 -0.09170466 -0.027316352
0000c0 d1 6b a8 bd 3c e0 a9 bd 9e 9f bc bc 18 6b b0 3d
       -0.08223689 -0.082947224 -0.02302533 0.086141765
0000d0 70 62 38 bd ed 46 86 bd a7 7a ab 3d b0 0b ad bd
       -0.045015752 -0.06556497 0.083730035 -0.08449495
0000e0 af d3 a6 3d e8 34 78 bc 6d 80 24 3c 4d 3f 5f bd
       0.08145844 -0.015149333 0.010040385 -0.054503728
0000f0 06 2b 25 3d bd 06 b5 3d 3f c1 63 bd c8 1c 33 3d
       0.040324233 0.08839176 -0.055604216 0.04372862
000100 ba 04 68 bc 73 2a 7f bd 50 fb 9c bd a2 89 c1 ba
       -0.014161283 -0.062296342 -0.076651216 -0.0014765749
000110 0e 42 30 bd 1d ea ec 3c b7 1e 77 bd ce 56 2c bd
       -0.043031745 0.028920228 -0.060332026 -0.04207497
000120 28 36 aa bc 99 c3 49 bd eb 19 bf 3d 15 db b4 3d
       -0.020777777 -0.049258802 0.09331115 0.08830849
000130 86 bb 14 3d 99 15 a4 bb 8d 5f ae 3d 57 d1 a5 3d
       0.03631165 -0.0050074575 0.085143186 0.08096569
000140 60 cc e4 3c 86 6f 17 3d 3e 1f a4 3c 5b 52 8c 3d
       0.027929485 0.03697159 0.020034429 0.068516456
000150 fe be 45 b9 41 ba 85 3c 7a 90 bd bc 5f cd 6e 3d
       -0.00018858534 0.016324164 -0.02314018 0.058301326
000160 02 f0 85 bd 79 7a d5 3d 28 d4 c9 bc 3f e7 24 bd
       -0.065399185 0.104237504 -0.024637297 -0.040259596
000170 ef c6 cd 3d f0 7c 96 3d ed 76 4f 3c df a0 03 bd
       0.10047709 0.07348049 0.012662631 -0.03213584
000180 d0 de e9 bc d3 03 03 3c 29 8a db 3d 99 fc e4 3d
       -0.028548628 0.007996517 0.10719711 0.11180992
000190 58 0e 12 3d da 10 ca bc 51 13 c9 3d 39 87 19 3d
       0.03565821 -0.024666239 0.098181374 0.037482474
0001a0 bb 23 0b 3e 87 dd a5 bd e8 32 f7 3c 5a 8c 03 3e
       0.13587849 -0.080988936 0.030175641 0.12846509
0001b0 f3 a8 5e 3d 5e 83 6f bd fb bd 26 3e dd 18 86 bc
       0.05436034 -0.05847489 0.1628341 -0.016369278
0001c0 0a 84 fd 3c ef 7a d7 3d f6 7d ab 3d 3e fa be 3d
       0.03094675 0.105214946 0.083736345 0.09325074
0001d0 da 57 6c 3d 19 71 35 3d c8 d1 25 3d a0 89 ae 3d
       0.05770097 0.04429731 0.040483266 0.08522344
0001e0 f5 44 8a bc db 0b 5c 3d 2a 25 f2 bc 82 dd cd 3d
       -0.016878584 0.053722244 -0.029558737 0.10052015
0001f0 5f dc 91 3b ea fb e8 3d e4 b5 e6 3d e5 ae 6f bd
       0.004451319 0.11376174 0.11265162 -0.0585164
000200 9d 08 3a 3d 43 ee 4d 3d 19 98 97 bd 0b 09 0d 3e
       0.04541837 0.050276052 -0.07402057 0.13772981
000210 da 9f 64 3d 16 cc 74 3d e3 9c a0 3d 46 0c a2 3d
       0.05581651 0.059764944 0.07842424 0.07912497
000220 6b d9 ec 3d f5 de 71 3b 50 62 08 3d b1 55 46 3d
       0.11564907 0.0036906574 0.033296883 0.048421565
000230 06 e4 82 3d b8 bb d3 3d 6d 70 90 bd 8f 0a 3e 3d
       0.06391148 0.10338539 -0.070526935 0.04639679
000240 bd 59 82 3d 3d 54 a8 bd a1 5a 19 bd 27 3f 60 3d
       0.063647725 -0.08219192 -0.037439946 0.054747727
000250 32 35 38 bc 21 f4 9e 3c 2e 5c 0c 3d 73 93 2b bd
       -0.0112431515 0.01940352 0.034267597 -0.041888665
000260 c8 f7 19 3c 4f 81 44 3d 4f 9f 87 bd 10 62 4c bd
       0.009397455 0.04797488 -0.066221826 -0.049898207
000270 ab e1 d4 3d 85 9f 80 bd 14 ac ae bd 3d 76 90 bc
       0.10394605 -0.06280426 -0.08528915 -0.017634505
000280 08 42 b2 bb 9d cf ac bd a7 42 ca bd 30 4e c2 3d
       -0.0054400004 -0.084380366 -0.09875994 0.09487569
000290 5c c7 9c 3d 47 68 29 bd 56 69 b8 bc a0 16 3c 3d
       0.07655212 -0.041359212 -0.022511166 0.045920014
0002a0 e7 07 c2 bd 8b 57 bb 3d 1d 01 84 bd 82 8e 38 3e
       -0.094741635 0.09147557 -0.06445525 0.18023112
0002b0 12 16 8a 3d 08 b2 22 bd 6d 50 55 bd 2e 2d ff 3c
       0.06742491 -0.039720565 -0.052078653 0.031149473
0002c0 fe 5c 88 bc f3 7f 0f ba 0e 90 81 3a 8f 56 2d 3e
       -0.016645905 -0.0005474083 0.0009884851 0.1692755
0002d0 fd 6c 74 bd 57 03 97 3d bc c8 3f bd b9 7d 54 bd
       -0.05967425 0.07373684 -0.046822295 -0.05187771
0002e0 41 07 8a 3d 8a a4 a4 bd d8 5f ee 3c 12 6a 9a 3a
       0.06739665 -0.08039196 0.029098436 0.0011780879
0002f0 10 f8 84 bd b5 1a d4 3b 2a be 80 3d 6c b1 76 3d
       -0.06492627 0.0064729103 0.06286271 0.060227796
000300 4c af 9c 3d b9 db 81 3c be fd 3a 3d bf 88 04 bd
       0.07650623 0.015851842 0.045652144 -0.032356974
000310 5f 12 16 3e 7f c6 0e 3d 51 a1 99 bd b2 41 c8 3d
       0.14655446 0.03485727 -0.07501472 0.097781554
000320 3c 98 14 3d 80 f9 96 bd 7b 0a 56 3d c3 83 85 bd
       0.036277995 -0.07371807 0.05225609 -0.06519272
000330 70 a6 77 bd 57 3e 45 bd 16 3a 7f 3d 4a bb f7 3d
       -0.06046146 -0.048155155 0.062311254 0.120962694
000340 25 a2 90 bc 09 78 b9 3c fc 89 04 bd d0 5e 10 bd
       -0.017655442 0.022640245 -0.032358155 -0.03524667
000350 2d 53 04 bd a5 5b 90 bc c2 28 95 bd e5 c3 42 bd
       -0.032305885 -0.017621825 -0.072831646 -0.0475501
000360 a5 31 8c bc 8a c7 bd bc 5d f3 cf bc b0 64 2a 3d
       -0.017113516 -0.023166437 -0.0253846 0.04159993
000370 84 de b3 3d 91 25 96 3d 05 cc 46 bd e2 c9 e2 3c
       0.08782676 0.07331384 -0.048534412 0.027684156
000380 1b 07 0f bd 9d c8 d5 bc 48 31 a1 bc 1b 8f 0d 3d
       -0.034918886 -0.026096636 -0.01967682 0.034560304
000390 37 6f 8f bd 42 de 82 3d 2e c4 9a 3d 3a 4c a7 bc
       -0.070036344 0.063900486 0.075569496 -0.02042209
0003a0 e1 6c 8a 3d 08 85 ac bd e4 38 82 bc 84 10 21 3c
       0.06759048 -0.08423811 -0.015896268 0.009830598
0003b0 85 a2 05 bd 08 1e 9f bd 0a 78 99 bd 35 0a a4 bd
       -0.032625694 -0.077694 -0.07493599 -0.08009759
0003c0 4e fa c7 3d a4 68 83 bd fc 4e d3 3d 41 2e 63 bc
       0.09764539 -0.06416443 0.103177994 -0.013866008
0003d0 d8 bf f8 3c 01 d2 a2 3d a9 77 45 bc 68 48 9f 3d
       0.030364916 0.07950211 -0.012052455 0.07777482
0003e0 93 cd 9f 3d 7f da f4 bc 1d d1 25 bc aa a2 b2 bd
       0.07802882 -0.029889343 -0.010120657 -0.08722432
0003f0 3e 9e 42 3d c8 ac 93 bd 18 e4 93 3d 2d e0 ab bd
       0.047514193 -0.0721069 0.0722124 -0.083923675

lstm.weight_ih_l1 f4 [400, 100]
000000 a2 ef 83 bc 8c 5c b6 3d 7a 1d a0 3d d2 d0 6a 3d
       -0.016105477 0.08904371 0.07818122 0.057328053
000010 11 12 ee 3d 0e 0a 67 3d 8e 4f ce 3d 15 71 e3 bd
       0.1162454 0.056406073 0.100737676 -0.11105553
000020 10 53 05 be cb b4 74 3c 77 6f 6b bd e4 ff 96 bd
       -0.13019967 0.0149356825 -0.057479348 -0.07373026
000030 4d b2 6e bc 9a fe 52 bd d0 b4 2e 3d e7 0d d2 3c
       -0.014568877 -0.05151234 0.042652905 0.025641395
000040 b8 9c fe bd 18 63 20 3c 7b 87 7e 3d 70 7f 84 3d
       -0.124322355 0.009789251 0.062140923 0.06469619
000050 05 d7 5b 3d 55 52 09 bd 4e ac 17 bd 4b 07 85 3d
       0.053671855 -0.033525784 -0.037029557 0.06495532
000060 5f 42 7c 3d a2 0c bd 3d 13 05 67 bd db 24 81 3c
       0.061586734 0.09230925 -0.056401324 0.015764644
000070 c0 0e 22 bd 32 50 8d 3d 44 78 b5 bd 94 ea d6 bc
       -0.039564848 0.06900062 -0.088608295 -0.026234902
000080 55 8f e9 bd dd 36 79 3c 12 ef 9a bc 6c 71 5b 3d
       -0.114042915 0.015210834 -0.018912826 0.053574964
000090 9f 8c c7 bd c0 42 ba 3d 75 5b 8d bd ef 54 83 3d
       -0.09743618 0.09094763 -0.0690221 0.06412684
0000a0 58 55 30 bd 61 b7 66 bd 5e 8d 8e 3d d2 16 99 bc
       -0.04305014 -0.056327228 0.069605574 -0.01868764
0000b0 c5 0b a8 bd 58 07 74 bd 2e 8e 3d 3d 05 71 b3 bd
       -0.0820537 -0.059577316 0.04627817 -0.08761791
0000c0 71 e8 22 bc 47 e8 87 bd ef db 94 bd 93 58 97 bd
       -0.009943114 -0.066361 -0.072685115 -0.07389941
0000d0 73 b6 89 3d f6 c4 c6 3d 88 30 50 bd fa f3 c0 3d
       0.067242526 0.09705536 -0.050827533 0.09421535
0000e0 ca e9 bb bc 10 98 b2 3d bf a6 a9 3d cf 2a bc bc
       -0.022938628 0.0872041 0.082837574 -0.022969631
0000f0 ca 4c 60 3d 16 76 b1 bb fb 03 99 3d 04 ec d1 3c
       0.05476073 -0.0054156883 0.07471462 0.025625236
000100 f0 f0 a3 bd 14 64 13 3d 18 9f a1 bd fe 32 b7 3b
       -0.080049396 0.035984114 -0.07891673 0.0055907955
000110 17 e8 28 bd 89 df 99 3d 1b 6c 1e bd 05 e0 d6 3d
       -0.041236963 0.07513339 -0.038677316 0.10491947
000120 22 7d e1 3d 20 2b cd 3c 20 de 6b bd 9f 78 55 3d
       0.11010195 0.025044978 -0.05758488 0.052116986
000130 e8 52 31 bc c9 8d 67 bd a5 24 b6 bd 9b c9 ce bd
       -0.010822989 -0.0565317 -0.08893708 -0.10097047
000140 2b ee 6c 3d d7 25 a2 bd 4a 5f ef bd 1d 7f b8 3d
       0.057844322 -0.079173736 -0.11688097 0.0900862
000150 5c ca 36 3d 82 4e 12 bc a5 47 5b 3d 1b 05 26 bc
       0.04462658 -0.0089298505 0.053535122 -0.010133053
000160 f6 bc 24 bd 2b e3 88 3d ec 6c e8 bb cd f9 a3 bd
       -0.04021927 0.06683954 -0.0070930626 -0.0800663
000170 55 7b 19 3d ba 47 d9 bc d6 a3 9b ba 22 ae 7e bc
       0.037471134 -0.02652346 -0.0011874388 -0.015544446
000180 33 61 f0 3d f7 e4 69 3d 93 e3 16 3d 02 80 bd 3a
       0.11737289 0.057103124 0.036838125 0.0014457705
000190 66 0f a9 bc 15 90 2e 3c 75 9d 8d 3b 12 dc f8 bc
       -0.020637225 0.010654469 0.004321749 -0.030378375
0001a0 2f e4 40 3d c4 65 3c bd 21 4d aa bc b1 08 83 3c
       0.047092613 -0.04599549 -0.020788731 0.015995355
0001b0 11 ca b3 3b 13 e4 95 3c db a1 17 3e c0 97 3b bc
       0.0054867347 0.01829723 0.14807837 -0.011449754
0001c0 89 f6 20 bc 05 9e b6 bd 91 eb b3 bb 27 9c 27 3d
       -0.009824404 -0.089168586 -0.005490728 0.040920403
0001d0 14 23 c0 bd de 34 a0 bd 77 5f 99 3d 8d f1 11 bc
       -0.093816906 -0.078225836 0.074889116 -0.008907688
0001e0 66 36 1c 3d 32 ce 9f 3d 4f 87 8d bd 42 b6 ae bd
       0.038137816 0.078030005 -0.06910574 -0.08530857
0001f0 f8 d8 b2 3d 72 c2 85 bd b3 88 9f bc ef 42 2b bd
       0.0873279 -0.06531228 -0.019474363 -0.04181188
000200 4a 0f 97 3d 8a 32 55 3d 55 ea 05 3d f1 5e 51 3d
       0.07375963 0.05205015 0.03269418 0.051115934
000210 6a 51 d9 3d 8c e0 bb 3d 07 2e 12 3d b5 9e 26 3d
       0.106112316 0.09173688 0.035688426 0.0406787
000220 9a d8 7d 3d 54 45 28 3d 89 f1 b9 3c aa f4 c4 3c
       0.061974145 0.04108174 0.02269818 0.024042446
000230 c2 b7 64 3d d2 a2 b8 bd 9d 80 bb 3c 9b 1d fb 3c
       0.055839308 -0.090154305 0.022888476 0.030653765
000240 7a f2 aa 3c fb aa a2 3c e8 53 95 3d 4d f7 18 bd
       0.020867575 0.01985692 0.072913945 -0.03734522
000250 64 36 5e 3d d5 4f a1 bc f2 dd 8b bd 53 01 24 bd
       0.05425109 -0.019691387 -0.06829442 -0.040040325
000260 cf e5 d9 3d 8a d5 89 bc e4 ac b7 bd 69 24 7e bc
       0.10639536 -0.016825456 -0.08968523 -0.015511611
000270 5e ae 6b 3c d6 b6 fc bc c3 83 69 3d 24 20 6b 3d
       0.014384834 -0.030848902 0.057010423 0.0574037
000280 e1 f3 a2 3d 25 c8 3f 3d 04 29 1d 3d 7a ab 57 bc
       0.079566725 0.046821732 0.038369194 -0.013163442
000290 61 dd c6 3c 43 ab 3a bb c3 d3 0f 3d 84 5c 3d bc
       0.024275484 -0.0028483428 0.03511406 -0.011557702
0002a0 9c d7 29 bd 59 c1 81 bd 7d 56 88 3d 69 53 59 bc
       -0.041465387 -0.06335706 0.06657121 -0.013264515
0002b0 dd 27 27 3d f8 d3 a0 bd 01 60 97 bd a6 34 3b 3d
       0.0408095 -0.0785293 -0.07391358 0.045704506
0002c0 17 23 c2 3b a0 aa da bd f0 f4 91 3d 5c f3 8b 3c
       0.005924593 -0.106770754 0.07126796 0.017083816
0002d0 d3 63 d9 3c 7d d1 05 3d 17 a2 68 bd 99 d4 0e bd
       0.026536858 0.032670487 -0.056795206 -0.034870718
0002e0 90 43 10 ba bb 96 dc 3d 55 e3 fa bb 76 80 db 3c
       -0.00055032317 0.10770937 -0.0076564946 0.026794653
0002f0 d7 89 d1 b9 fd d5 d9 bd fd 3a 09 3d c9 08 32 3c
       -0.00039966285 -0.10636518 0.03350352 0.010866352
000300 22 e5 30 bd fd 9c 90 bd d0 73 95 bb 27 b2 b9 bd
       -0.043187268 -0.07061193 -0.004560925 -0.09067183
000310 fa c3 c8 bd 2e af 8a 3d 9c 2d 88 3d 1f 4a bb bd
       -0.098030046 0.06771694 0.06649324 -0.09144997
000320 7a 11 ef bc 0f 8a 7e 3d d8 66 d1 bc ed 17 ad bd
       -0.029183138 0.06214338 -0.025561735 -0.08451829
000330 90 e8 1b be d3 67 df bd db 3a a5 bd 1e 2e 73 3d
       -0.15225434 -0.10908475 -0.080678664 0.059370153
000340 40 ab 61 3d 8d e6 a9 bc f2 6d e0 bb a9 b3 51 3d
       0.055094957 -0.020739818 -0.006849044 0.051196728
000350 ea d0 ea bd 29 94 9e bb 54 36 12 3c 65 cc e0 bd
       -0.114656284 -0.0048394394 0.008924086 -0.10976485
000360 1d f9 4a 3d 9d de ae bd 83 4b 42 3d 07 78 9c bc
       0.04955398 -0.08538554 0.047435295 -0.019100202
000370 bd ae 48 3d 7d e0 44 3d f2 71 88 3c 5d bf 47 bd
       0.04899477 0.04806565 0.016655896 -0.048766483
000380 e0 51 69 3d 85 dc 10 bd f0 cd f2 bc 86 23 ae bd
       0.056962848 -0.035366554 -0.029639214 -0.08502869
000390 a2 1a e2 bd 22 7b f2 bc ca e1 59 bd 9c 6a 84 3b
       -0.11040236 -0.02959973 -0.053193845 0.004041029
0003a0 c4 fc 9b 3d 9d bf 12 bd d0 32 f8 bc c3 8d d5 3d
       0.076165706 -0.035827268 -0.030297667 0.104274295
0003b0 7c 16 e8 bc 3c b7 ca bd ee 4b 62 ba 6f 95 91 3c
       -0.028331034 -0.098982304 -0.000863253 0.01777145
0003c0 69 14 0a 3d 86 1e 49 bd b5 d2 b8 3d 2c 5b e5 3d
       0.03371087 -0.049101375 0.09024564 0.1119903
0003d0 39 ee d2 3d 65 64 c7 3d e7 55 0f 3d 3a 6c 77 bd
       0.102993436 0.097359456 0.034994032 -0.060405947
0003e0 f5 11 23 bd 48 6c 9e 3d bc 2e a4 bc d0 ba 9a bc
       -0.039812047 0.07735497 -0.020041816 -0.018887907
0003f0 d7 48 82 3d 03 ab 0d 3c bb b7 a1 3d 43 34 c5 bd
       0.06361549 0.008646729 0.07896372 -0.09629109

lstm.weight_hh_l1 f4 [400, 100]
000000 f6 5a 5a 3b c4 41 2d 3d 33 57 bb bd ea 4d 63 3c
       0.0033318377 0.042299047 -0.09147491 0.013873557
000010 26 b1 b9 3d 51 aa b7 bc ce f1 3f bd 0e 31 b1 3d
       0.090669915 -0.02242008 -0.046861462 0.086519346
000020 0c 2f 77 bd 2d 49 d8 bd 53 b1 0d bd db bc 71 bd
       -0.0603476 -0.10560832 -0.034592938 -0.059017997
000030 23 84 ba 3c db e4 89 3b 63 f9 91 bd 5c d2 b3 bd
       0.022768086 0.00420819 -0.07127645 -0.08780357
000040 85 15 a3 3d 69 69 2a 3d 0a 24 35 3b 59 6b a4 bd
       0.07963089 0.041604433 0.002763989 -0.080282874
000050 04 15 b1 3d ad d0 b2 bd 3f cb f2 3c b8 37 a3 3c
       0.086465865 -0.08731208 0.02963793 0.01992403
000060 25 f8 48 bd 1a 03 8b 3d 54 6b d8 bd 90 f7 34 3d
       -0.049064774 0.06787701 -0.10567346 0.044181406
000070 f3 08 8d bc 2c e7 2e bd 14 64 bc bc e0 54 c9 bc
       -0.017216181 -0.04270093 -0.02299694 -0.024576604
000080 e2 ca 93 3c 5a 5e 07 3d f9 39 bf 3d 4b 05 27 3d
       0.018041078 0.033048965 0.09337229 0.040776532
000090 3a 0b b9 ba 20 40 92 bd a9 8f d4 bd 8e 9d 59 3d
       -0.0014117726 -0.07141137 -0.103789635 0.05312877
0000a0 c5 78 df bc 81 4d 86 bc cf 80 4c bc e9 b5 62 bd
       -0.027279267 -0.016394379 -0.012481882 -0.055349264
0000b0 b0 82 98 bd 9c 06 c6 bd 5d 08 d5 bd 51 e5 9e 3c
       -0.07446802 -0.096692294 -0.10401986 0.019396456
0000c0 bb 40 dd bc bd a3 c4 bd 96 7a 9e 3d da 9b 7d bb
       -0.027008405 -0.09601543 0.07738225 -0.003869763
0000d0 8c 76 f8 3c 3c d4 70 3c 38 f5 91 3d 98 f1 a0 3c
       0.030329965 0.014699038 0.0712685 0.01964645
0000e0 d4 c8 2f bd 19 a5 91 3c d7 76 b9 3c 72 c7 c0 3d
       -0.042916134 0.01777892 0.022639675 0.09413041
0000f0 61 ff 83 bd a7 f7 93 3d f3 e7 e0 bb b8 90 97 bd
       -0.06445194 0.0722497 -0.006863588 -0.0740065
000100 20 4d 29 bd 37 72 92 bd e4 95 35 bd c3 37 09 3d
       -0.041333318 -0.07150691 -0.0443324 0.033500444
000110 37 9d 9e 3d 21 e4 bb bd b1 fb 74 3d d0 90 68 bd
       0.0774483 -0.091743715 0.059810344 -0.05677873
000120 57 61 02 3d 36 ba 42 3d b7 22 3f 3d 07 a5 64 3d
       0.03183111 0.047540866 0.046663966 0.055821445
000130 3a 3a cb 3d 51 b7 62 bd d7 ce 78 3d dc 5c 48 bd
       0.09923215 -0.055350605 0.060744133 -0.048916683
000140 4d 1c 2b 3d b8 24 2d 3d 4d 8f c9 3d 48 17 6d bd
       0.041775037 0.042271346 0.098417856 -0.05788353
000150 d9 c3 2a bc be 13 c6 3c 4a 8e c4 bd af 2d da bd
       -0.01042267 0.024179336 -0.09597452 -0.10653245
000160 98 0e 9a bd ee 78 a1 3c 17 69 e9 bd 2b 79 f2 3c
       -0.07522315 0.019710984 -0.113969974 0.029598793
000170 dc bc 1f bd 63 ce 87 bd 8c b5 e7 bb 0d 9e 96 bd
       -0.03899847 -0.06631162 -0.0070712026 -0.073543645
000180 dd 67 0c 3d 55 fa 2f 3d c9 19 1a 3c 4c ee b8 bc
       0.03427874 0.042963345 0.009405562 -0.022574566
000190 7f 04 ec 3c c4 ba 6e bd 90 86 75 3d 9b 89 fc 3b
       0.028810738 -0.058283582 0.059942782 0.0077068335
0001a0 56 9e 93 bd 07 84 8e 3d f5 3f 93 3d b4 10 1e 3d
       -0.072079346 0.06958776 0.07189933 0.038590148
0001b0 9e 74 bc bd d4 80 13 bd 5c 7d 29 bd 41 3e 88 bb
       -0.092019305 -0.036011532 -0.041379318 -0.004157812
0001c0 80 e3 35 bc 6a 13 c4 3d d3 5c c9 bd e4 cd 99 3c
       -0.0111016035 0.095740154 -0.09832158 0.018774934
0001d0 a8 2e 2b 3d db 32 6b 3d 9a 77 09 3d 87 e1 f4 3c
       0.04179254 0.057421546 0.033561327 0.029892696
0001e0 51 58 8e 3d b2 3c 3d bc 6b e0 89 3c 61 bc 99 bd
       0.06950439 -0.011550115 0.016830644 -0.075066335
0001f0 69 f4 d4 bd 11 be 65 3c ba bc b9 bc ff 70 57 3d
       -0.1039818 0.014022366 -0.022673 0.052597996
000200 b0 f3 01 bc 97 9c 75 3d 35 2f 14 3d 7b c4 77 3d
       -0.007931635 0.05996379 0.036177833 0.060490113
000210 67 af ab 3c 7f d7 df 3d 27 5c 5f 3d 89 5f 19 bd
       0.020957662 0.109297745 0.054531243 -0.037444625
000220 97 4c 8a bd be 74 1f 3b df 14 6c 3d b9 60 a2 3c
       -0.067528896 0.0024331058 0.05763709 0.019821512
000230 5b 67 4e 3d 38 7e bf bd c1 cd 24 bd 3c 04 1b 3c
       0.050391536 -0.09350246 -0.040235285 0.009461459
000240 5b c2 a2 bd f2 c1 b6 bd 04 bb e8 bd 07 53 1a 3d
       -0.079472266 -0.08923711 -0.113637954 0.037676837
000250 82 73 91 3d 1a 2e 0c 3d f3 cf a9 3c f3 d9 47 bd
       0.071021095 0.034223653 0.02072904 -0.048791837
000260 26 52 a9 bd 73 ba 8e 3c 43 e5 bc 3c 91 90 26 bb
       -0.08267622 0.01742289 0.02305854 -0.0025415758
000270 2e ef b7 3c af fb 97 bd 04 7e ad bd 6c 0b 2b bd
       0.022452917 -0.07421052 -0.08471301 -0.04175894
000280 85 e9 30 bd 24 9e 5d 3c 3e 0d d9 bc f2 2a 4e bd
       -0.04319145 0.013526473 -0.026495572 -0.050333925
000290 d5 c7 0f 3d 5c db 51 3d 3c e4 01 3d 6d d6 ce 3d
       0.035102684 0.051234588 0.031711802 0.10099492
0002a0 be c7 86 3d d0 96 33 bd 00 ab bd bb 1a 0d a2 bd
       0.065810665 -0.043844998 -0.005788207 -0.07912655
0002b0 9c fb fd bc f6 73 93 bd d7 57 1f 3b 4c 12 71 bd
       -0.031003766 -0.07199852 0.0024313831 -0.05885534
0002c0 f1 10 d7 3d 64 13 b7 3d 9d ad 15 bd 0a c3 70 3d
       0.10501278 0.08939245 -0.036542524 0.058779754
0002d0 c6 57 89 bd c0 40 b8 3d 22 d8 b5 3d 5d bb 88 3d
       -0.067061946 0.08996725 0.08879115 0.06676362
0002e0 64 87 ca 3d ca 47 8c bc d3 87 92 bd 2a 4a 81 3d
       0.09889105 -0.017124075 -0.07154813 0.06312974
0002f0 9d 60 2e 3d a5 e3 6a 3c 6c ab 9b bd 88 b6 67 3b
       0.042572606 0.014336501 -0.076010555 0.00353566
000300 0b ed b2 bd f2 1d 4e bd ee 9a 5a bd f8 80 b6 bc
       -0.087366186 -0.050321527 -0.05337041 -0.022278294
000310 f2 eb 0d bd 06 1c aa 3d 5c 77 9e bd 95 00 af 3b
       -0.034648843 0.08306126 -0.0773761 0.0053406456
000320 4a 56 be 3d 20 3f a5 3d 4d 24 b4 bd b9 4e 03 3d
       0.09293802 0.08068681 -0.08795986 0.032057498
000330 af de 43 3d 49 82 80 bd f6 0c 42 3d fb c2 84 bd
       0.04781979 -0.0627485 0.04737564 -0.06482502
000340 f4 c3 9f bd 7c b6 e7 3c f3 34 a7 3c 75 97 98 bd
       -0.07801047 0.028285258 0.02041099 -0.07450763
000350 ac 16 b3 bc 1c 45 39 bd 8b 4c 90 3c a7 ef a0 bc
       -0.021861397 -0.045231923 0.017614624 -0.019645525
000360 cd 22 c6 bc 97 ac 61 3d 1e ad ad bd 41 ea 5c bd
       -0.024186516 0.055096235 -0.08480285 -0.05393434
000370 cd 48 52 3d 90 86 8c 3d 3d 13 33 bc e7 d7 73 bd
       0.05133896 0.06861603 -0.01092988 -0.059532072
000380 7c bd 36 bd 10 7c 66 bd 05 de 0b 3d 0c 85 f0 3c
       -0.0446143 -0.05627066 0.03414728 0.029360317
000390 8e 77 5d bd ac 62 68 3d 63 3d c4 bc f1 7f 86 bd
       -0.054069094 0.056734726 -0.023955053 -0.06567372
0003a0 92 58 50 bd 64 a0 47 bc f0 a3 33 bd 68 72 1e bd
       -0.050865717 -0.012184236 -0.043857515 -0.038683325
0003b0 43 4f 1a bd 93 a7 b4 bd a1 d4 70 bd 0e 2c 73 3d
       -0.037673246 -0.08821025 -0.05879653 0.059368186
0003c0 37 90 2a bc 0b 92 b7 bb 90 22 33 bd c3 60 6f 3d
       -0.01041036 -0.0056021265 -0.043734133 0.05844189
0003d0 92 41 f3 3b 09 f6 22 bd 6e b0 33 3d 04 92 d2 3d
       0.007423588 -0.03978542 0.04386943 0.102817565
0003e0 c4 c0 b0 3c 26 1f 33 3d 2f 36 67 3d 2a 42 91 3d
       0.021576293 0.043730877 0.056448158 0.07092698
0003f0 70 f4 89 bd fd 8f aa 3d 33 92 80 bc 54 94 01 be
       -0.06736076 0.08328245 -0.015694713 -0.12654239

lstm.bias_ih_l1 f4 [400]
000000 9b 7d 77 bd 44 b0 5f bd 10 f8 57 bc b6 3f 2c 3d
       -0.06042252 -0.05461146 -0.013181701 0.042052947
000010 ec 39 12 bd 66 5a c3 3d 4f f4 7c bc c5 df 02 3e
       -0.03569977 0.095387265 -0.015439107 0.12780674
000020 35 67 c8 bd a1 4a aa 3d 08 3b 1e 3a 2d c0 98 bd
       -0.0978531 0.083150156 0.0006036018 -0.074585296
000030 c5 80 d0 3d 95 40 ad bd 85 e2 3c bd 3d de 0a bd
       0.10180811 -0.08459584 -0.046114463 -0.03390335
000040 7d ea 32 bd 72 55 b6 3c 3d e6 74 3c a4 9c 94 bb
       -0.043680657 0.02225754 0.014947471 -0.0045352746
000050 af 3f 84 bd d0 d6 73 3d 26 fc ac bd 94 3a 3e bd
       -0.06457459 0.059531033 -0.08446531 -0.046442583
000060 a5 30 62 3c 9e b5 8a 3d 6b f5 68 bb 76 4e 2e bd
       0.013805543 0.06772922 -0.003554667 -0.042555295
000070 0d 53 19 3d 1d 22 31 bc 16 8d 21 bd f7 6c df 3d
       0.03743272 -0.010811356 -0.03944119 0.10909455
000080 1f 26 97 bd 66 7f bc bb d2 39 91 3d 95 79 ab bd
       -0.07380318 -0.0057524918 0.070911065 -0.08372799
000090 c4 e2 55 bd 51 c5 c7 3c a4 8d b1 3d 42 0d 97 bd
       -0.052218214 0.02438608 0.08669594 -0.073755756
0000a0 32 56 9b bd 24 39 8b bc 8e c9 9b 3d c5 44 3f bd
       -0.075848 -0.01699502 0.07606803 -0.046696443
0000b0 b0 d9 f2 bc f8 26 b0 3d ec 7f 8b 3c 62 88 b5 3c
       -0.029644817 0.08601183 0.017028771 0.022159759
0000c0 05 d7 0e bd e4 41 37 bd df 22 39 3c 17 35 7c bc
       -0.034873027 -0.044740573 0.011299818 -0.015393517
0000d0 43 d8 73 bc fa c7 12 3c 4f 80 a1 bd 37 3b 42 bd
       -0.014883104 0.008958811 -0.07885801 -0.047419753
0000e0 17 9b d1 3c c9 fe 1d bc 8d f0 90 bb 3b 24 cd 3d
       0.025586648 -0.009643265 -0.004423207 0.10016676
0000f0 35 79 73 3d db e8 5c bd 21 43 87 3d 49 d4 8d 3d
       0.059441764 -0.053933006 0.06604601 0.06925256
000100 4e f9 9c bd 85 72 05 3d bf 7e 82 bc 41 a5 d5 bd
       -0.076647386 0.032579917 -0.015929578 -0.1043191
000110 df 02 bc bc f8 30 be bc ee f3 0d 3d 0b 16 c5 3d
       -0.022950588 -0.02321671 0.034656458 0.09623345
000120 6d a4 66 bd 7d a2 8f 3b ff 50 3b 3d 6c a6 c0 bd
       -0.056309152 0.004383384 0.04573154 -0.094067425
000130 ff ff c8 bd 9d e7 dd 3c e4 69 ab 3d d4 93 c6 bd
       -0.098144524 0.02708798 0.083698064 -0.09696165
000140 45 b5 c0 bd 3f 36 73 3c d3 7d 90 bd d2 de 3c bd
       -0.094095744 0.014844476 -0.07055249 -0.046110936
000150 cd 7b 69 bd ee e2 6b 3d 51 8d 24 3c 5a b2 7f 3d
       -0.05700283 0.057589464 0.010043458 0.06242595
000160 3f 26 89 bd c2 cb 4c ba 95 d9 54 bd 05 fd 73 bd
       -0.06696748 -0.00078123447 -0.051965315 -0.05956747
000170 92 57 c9 bd 14 b8 7a bd a3 95 3b 3d a0 62 8a 3c
       -0.09831156 -0.061210707 0.045797 0.016892731
000180 fd 8c d9 3d c2 9c 76 bd 82 33 97 bd 80 54 10 bc
       0.106225945 -0.06020809 -0.07382871 -0.008809209
000190 0e df 7e bd d0 42 9f bd f6 eb d9 bc da 66 8d bd
       -0.06222444 -0.07776415 -0.026601773 -0.06904383
0001a0 b0 c6 1a 3d 0f b5 9e 3c b2 85 01 bb 21 49 ef 3d
       0.03778714 0.019373445 -0.0019763527 0.1168387
0001b0 cc 0b fe 3b ae ef 8f bc df 65 dc 3d 0e 2c 4b bd
       0.007752871 -0.017570343 0.10761618 -0.04960256
0001c0 29 7c 7e 3d 32 2e 3b 3d 0f d5 1f bd 4e 67 48 3d
       0.062130127 0.045698352 -0.039021548 0.048926644
0001d0 48 f4 d9 3c 71 9a 06 3d 76 6d 37 3d e5 15 81 bc
       0.02660574 0.03286213 0.044782124 -0.01575751
0001e0 fe 87 bb bc a0 f9 b9 bd ef 70 4e 3d 9e 5d 02 bd
       -0.022891995 -0.09080815 0.05040067 -0.03182756
0001f0 92 d8 85 bd f1 92 7c bd f0 5b d1 bd 0a 18 96 bd
       -0.06535448 -0.06166357 -0.10222614 -0.07328804
000200 c4 ae de bc cf ad 6c bc c1 06 78 3d 4a 65 8d bd
       -0.027182944 -0.014445736 0.060553316 -0.06904085
000210 8f 79 38 bd 72 a8 67 bd b5 98 89 3d 59 9c 9b bd
       -0.045037802 -0.056557126 0.0671858 -0.0759818
000220 2c 9d 21 bd 80 bf b7 bd 5a 9b b0 3d 93 4b 3c 3c
       -0.03945653 -0.089720726 0.08623381 0.011492628
000230 f3 99 6a bd a7 60 2d bd 60 a5 77 bb 36 a7 a4 bd
       -0.057275724 -0.042328503 -0.003778778 -0.080397055
000240 a9 8f 80 bd 85 80 5f 3a 7d 68 68 ba 79 ba 99 3d
       -0.06277401 0.0008525926 -0.00088656676 0.0750627
000250 be 9b 27 bd 6e 0c 61 3d 8b 64 26 bd 45 53 4f 3d
       -0.04092001 0.054943494 -0.04062323 0.05061652
000260 11 78 5f 3d db 84 b6 3d 47 14 b3 3d f6 31 81 3d
       0.054557864 0.08912059 0.08744102 0.063083574
000270 5e 9b 0b 3d 58 f1 33 bd d0 cc c1 3c 61 3d 39 3c
       0.034083717 -0.043931335 0.023657233 0.011306138
000280 7d c2 5c 3d ab f4 9c 3b 55 28 82 bd a0 43 82 3c
       0.053896416 0.004789909 -0.06355349 0.015901387
000290 a8 08 85 3d 8a 7a 50 3d 86 b6 9b bd 1f 6e 91 3d
       0.06495792 0.050898112 -0.07603173 0.07101082
0002a0 9a d3 10 bd 28 30 df 3d 70 20 03 bd 07 79 9c 3d
       -0.03535805 0.10897857 -0.032013357 0.07640272
0002b0 e5 bf 89 3c bb 18 1b 3d 16 1c ae bd 12 0a 1c bc
       0.016815135 0.03786538 -0.08501451 -0.009523885
0002c0 61 95 8c bc be 5c b9 bc 20 9a 58 3c a3 18 27 bd
       -0.017161073 -0.02262723 0.01322034 -0.04079498
0002d0 c0 23 0d 3d 83 71 cf 3d 6e d7 e8 3d 74 8d 8a 3d
       0.034457922 0.101290725 0.11369215 0.06765261
0002e0 1d 29 08 bc 3e 24 3f 3d 95 83 ca 3d 6b 98 6d 3d
       -0.008310583 0.046665423 0.098883785 0.058006685
0002f0 20 00 ae bd cc 46 b3 bd c8 d8 a2 bd 47 b6 5c bd
       -0.084961176 -0.08753738 -0.07951504 -0.05388477
000300 50 78 cc bd a2 49 37 3d 75 54 4e 3d e2 2a d1 bd
       -0.09983885 0.044747956 0.050373513 -0.10213257
000310 83 4e d0 3d 11 04 43 3d 71 b0 f2 3d d9 f8 54 bd
       0.10171225 0.0476113 0.1185006 -0.051995132
000320 95 39 75 3c dc e9 f6 bc 86 4f d3 3d 09 6a 5e bc
       0.014967342 -0.03014081 0.10317902 -0.013575085
000330 48 fb 9c 3c 90 ba eb bc cf 67 ec bd 57 bc 93 3d
       0.019162789 -0.028775483 -0.115432374 0.07213657
000340 05 25 c5 bc a1 84 68 3d d1 d3 b1 3d 2f 7f 9b 3d
       -0.024065504 0.05676711 0.08682979 0.07592618
000350 3b dc c5 bd 92 6c ab bd 08 6b cb 3d 98 7a 85 3d
       -0.09661146 -0.083703175 0.09932524 0.065175235
000360 43 2f b3 3d af 69 41 3c 07 ee c6 3d 32 28 d0 bd
       0.08749249 0.011804982 0.09713369 -0.10163917
000370 5e 72 37 bc 14 97 8f 3d 84 1e 61 3c 5b 22 de bc
       -0.011196701 0.07011238 0.013740186 -0.027115991
000380 db 24 e8 bc 7e 4a 6c bd b8 59 d8 3d 9c d5 09 bd
       -0.028337887 -0.05768823 0.105639875 -0.03365098
000390 16 ba b7 3d e2 45 e3 bc c2 7d 41 3d e7 8b 62 3d
       0.0897104 -0.027743284 0.047239073 0.055309203
0003a0 41 ad 8a bb 1e 28 e6 bc 3d 27 ae 3d 6e 1b 71 bd
       -0.0042320793 -0.028095301 0.08503578 -0.05886405
0003b0 86 31 a3 bd 22 c9 c6 bc c8 41 d6 bb dd c5 e1 bd
       -0.0796843 -0.02426583 -0.0065386035 -0.110240676
0003c0 66 d1 8c bd a0 95 86 3d 6a ba f6 3b fe b0 a4 bd
       -0.06875877 0.065715075 0.0075295465 -0.08041571
0003d0 30 37 86 3d 36 1a 62 3d a4 92 00 bd 2c 19 14 bd
       0.06553495 0.055200778 -0.031389847 -0.03615682
0003e0 f3 c2 be 3c 96 f2 7c bd b1 c6 ac 3d a8 f0 a0 bd
       0.023286318 -0.061754785 0.08436335 -0.078584015
0003f0 08 04 90 bd 96 12 50 bb dc e5 a6 bd 50 85 cf bd
       -0.07032019 -0.003174936 -0.08149311 -0.10132849
