BikeSharingPrediction-main/models/lstm_short_term_90d_run1.pt (torch, 546325 bytes, 10 tensors)

lstm.weight_ih_l0 f4 [400, 12]
0.044207428 -0.053517476 -0.01433443 -0.009560701 -0.038555246 -0.033188887 -0.032136653 0.08253876
-0.055066414 -0.009862992 -0.03918395 0.008122622 0.043577574 0.02127073 0.117193006 0.016649999
0.09472132 0.074028574 0.019754285 -0.062424466 -0.00967881 0.06472624 0.016149204 0.07090985
0.13556457 0.07408493 0.11004894 -0.0890476 -0.021227242 -0.02159602 0.04680042 0.068981834
0.06840281 0.041595213 -0.14977877 0.014428483 0.12648673 -0.024595635 0.09843083 0.14140613
0.050753172 0.13946004 -0.011568406 0.07214642 0.11730803 0.17325509 -0.048548844 -0.018692296
0.099522784 0.037863735 -0.10167041 0.0017202657 -0.02479017 -0.03657106 0.0012803886 0.021977453
0.06508069 -0.028573383 -0.052993573 -0.013846979 -0.05146469 0.0635676 0.05025672 0.070025116
0.03864145 -0.039145436 -0.015696108 0.06398817 0.008727927 -0.06338504 0.060412444 0.090507306
-0.08844613 -0.049814362 0.027632851 -0.017975185 0.08518724 0.062632695 0.015720887 -0.03628148
-0.1052971 0.08087567 0.08700345 -0.030445926 0.049989242 -0.00867636 0.11981582 -0.10025955
0.0104465755 0.0588767 -0.012902159 0.14002743 -0.043973677 0.012575191 -0.030397927 0.043664087
-0.034034967 0.0702242 0.013263834 0.066088244 0.02565694 -0.082167566 0.08720494 -0.0009938827
-0.054964222 -0.005081004 -0.013527492 0.17994791 0.04648596 0.11532551 -0.08544366 -0.09268684
-0.07362111 0.010660637 0.032816447 0.05579723 -0.08421279 -0.083816245 0.049879447 -0.053250805
0.03522762 0.06774946 0.08980333 0.05681889 -0.07912593 0.015850594 -0.09980299 -0.011913221
-0.09230981 0.062694326 -0.09464701 -0.08146739 0.10700206 0.06527175 0.054624606 -0.047155682
-0.09149628 -0.07105068 -0.027232878 -0.00050663896 -0.0034713352 0.041349962 -0.04543906 0.023449147
0.090586506 0.13945784 -0.05157331 -0.0439923 0.10348695 0.06218993 -0.03972917 -0.028463809
-0.025646709 -0.11523722 -0.14092146 0.122527115 -0.0033661767 0.07016956 0.030623414 -0.111669935
0.05414519 -0.046412684 -0.028346477 0.008183101 0.043003846 -0.038607296 -0.07280922 0.10107396
0.080100015 -0.063530214 -0.04510603 -0.081781514 0.10430885 -0.103465274 0.08161362 0.06961767
-0.1032858 -0.017760122 -0.06781687 -0.07624705 -0.0011516542 0.047531944 0.04175726 -0.12474587
0.04897211 -0.062366106 -0.057783864 0.06469579 -0.016652953 0.05445989 -0.0021922204 0.034039564
-0.010301658 0.06605944 0.084271766 0.06491393 0.079455115 0.08222426 -0.12747523 0.09517627
0.06392015 -0.066258274 -0.05467045 -0.1841104 0.09532461 0.06897692 0.01717704 0.03186201
0.032914322 0.029329272 -0.045000967 0.05667285 0.0556177 0.063790075 -0.10167242 -0.008269323
-0.080087684 0.084514774 0.10586991 -0.036049243 0.06291908 0.020657219 -0.006114617 -0.04223103
-0.01727473 0.034522623 0.009187889 0.08653332 0.0565924 0.095265664 0.07364534 0.006793083
0.104133785 0.09762984 0.0933104 -0.028140161 0.079937644 -0.024342524 -0.033565927 -0.030664917
0.0145434 0.13924591 0.0863942 -0.009229104 0.031280078 0.117674746 0.046743535 0.09395227
-0.07166844 -0.033697903 -0.040203143 0.11362289 -0.08357862 -0.05726274 0.050822724 -0.04488184
00000000: d912 353d 2435 5bbd f5da 6abc 7da4 1cbc
00000010: 1bec 1dbd 12f1 07bd b9a1 03bd 150a a93d
00000020: 528d 61bd 6398 21bc 597f 20bd bf14 053c
00000030: 667e 323d f43f ae3c e302 f03d 9465 883c
00000040: 40fd c13d 4b9c 973d bdd3 a13c ccb0 7fbd
00000050: df93 1ebc 318f 843d 564b 843c 2f39 913d
00000060: 70d1 0a3e d7b9 973d 5761 e13d 975e b6bd
00000070: c1e4 adbc 23ea b0bc ccb1 3f3d 5946 8d3d
00000080: c616 8c3d be5f 2a3d 9b5f 19be 7265 6c3c
00000090: bd85 013e c97c c9bc 1a96 c93d c5cc 103e
000000a0: 8fe2 4f3d 9dce 0e3e 6989 3dbc 81c1 933d
000000b0: 313f f03d c869 313e 27db 46bd 9620 99bc
000000c0: 9ad2 cb3d 0117 1b3d 9338 d0bd 8a7a e13a
000000d0: c114 cbbc 89cb 15bd b6d2 a73a 0f0a b43c
000000e0: 0649 853d ba12 eabc ca0f 59bd 70de 62bc
000000f0: a4cc 52bd bb2f 823d fed9 4d3d 5469 8f3d
00000100: 7f46 1e3d f756 20bd 2095 80bc 3b0c 833d
00000110: 94ff 0e3c 04d0 81bd 0a73 773d e55b b93d
00000120: 3f23 b5bd 250a 4cbd 4a5e e23c b240 93bc
00000130: a676 ae3d 9245 803d 17c9 803c e49b 14bd
00000140: 02a6 d7bd 25a2 a53d dd2e b23d bc69 f9bc
00000150: 85c1 4c3d 4b27 0ebc ff61 f53d e154 cdbd
00000160: 1d28 2b3c b228 713d 9463 53bc 5a63 0f3e
00000170: be1d 34bd 2d08 4e3c 1305 f9bc 1dd9 323d
00000180: 4068 0bbd b5d1 8f3d 8d50 593c 4659 873d
00000190: 812e d23c 7847 a8bd 8198 b23d 2b45 82ba
000001a0: 2a22 61bd 8d7e a6bb 6aa2 5dbc 4444 383e
000001b0: 1068 3e3d c82f ec3d 16fd aebd 99d2 bdbd
000001c0: aac6 96bd f4a9 2e3c 8a6a 063d a38b 643d
000001d0: c177 acbd daa7 abbd 644e 4c3d 841d 5abd
000001e0: d64a 103d 3bc0 8a3d cfea b73d edba 683d
000001f0: c70c a2bd 1bd9 813c 8365 ccbd ac2f 43bc
00000200: ed0c bdbd e265 803d 4bd6 c1bd 60d8 a6bd
00000210: e523 db3d 32ad 853d 0dbe 5f3d 5126 41bd
00000220: 6762 bbbd 0583 91bd 7c17 dfbc f7cf 04ba
00000230: 577f 63bb 945e 293d 4f1e 3abd 6d18 c03c
00000240: 6b85 b93d 09ce 0e3e 893e 53bd 4531 34bd
00000250: f7f0 d33d deba 7e3d 0ebb 22bd ef2c e9bc
00000260: 0c19 d2bc 7e01 ecbd b74d 10be 7fef fa3d
00000270: 139b 5cbb 0fb5 8f3d f4dd fa3c 35b3 e4bd
00000280: 59c7 5d3d 3a1b 3ebd df36 e8bc 6a12 063c
00000290: cd24 303d af22 1ebd 001d 95bd ddff ce3d
000002a0: 7a0b a43d 211c 82bd 1ac1 38bd 117d a7bd
000002b0: e19f d53d 9ae5 d3bd 0b25 a73d b593 8e3d
000002c0: 8187 d3bd ad7d 91bc 92e3 8abd 6a27 9cbd
000002d0: 1af3 96ba dbb0 423d a909 2b3d c37a ffbd
000002e0: fb96 483d 9a73 7fbd c6ae 6cbd 3a7f 843d
000002f0: c66b 88bc 5511 5f3d 5bab 0fbb 126d 0b3d
00000300: 49c8 28bc 2c4a 873d ad96 ac3d 98f1 843d
00000310: 5db9 a23d 3165 a83d de88 02be c7eb c23d
00000320: 91e8 823d 6bb2 87bd 1fee 5fbd 7087 3cbe
00000330: 8d39 c33d c543 8d3d ddb6 8c3c bd81 023d
00000340: 2bd1 063d f143 f03c ef52 38bd ca21 683d
00000350: 63cf 633d 5fa4 823d a139 d0bd 0e7c 07bc
00000360: 0305 a4bd 1516 ad3d 53d2 d83d 5fa8 13bd
00000370: b8db 803d 5439 a93c 205d c8bb 72fa 2cbd
00000380: bc83 8dbc 9867 0d3d cd88 163c 6238 b13d
00000390: 6fcd 673d a51a c33d 5ed3 963d 8398 de3b
000003a0: 1844 d53d 27f2 c73d 8619 bf3d 3286 e6bc
000003b0: 59b6 a33d f969 c7bc 6d7c 09bd fe34 fbbc
000003c0: 7147 6e3c 7b96 0e3e 71ef b03d ab35 17bc
000003d0: 8a1f 003d 75ff f03d 2676 3f3d 0c6a c03d
000003e0: e7c6 92bd d006 0abd 0dac 24bd 1eb3 e83d
000003f0: 442b abbd 568c 6abd 7d2b 503d 05d6 37bd

lstm.weight_hh_l0 f4 [400, 100]
0.013916741 -0.068372615 -0.06427021 -0.033133883 -0.08637901 0.04472124 -0.076309405 0.093666606
0.092316635 0.009907478 0.051057316 -0.002925279 0.08104554 -0.054199826 -0.0371164 0.060399216
-0.010621878 0.03147104 0.0050125937 0.005578143 0.08919223 -0.052799188 -0.03713591 0.05272217
0.08222792 -0.018027449 -0.020646079 -0.04110133 -0.09415296 -0.0140919695 0.076069884 0.04053221
-0.028708484 0.033648897 -0.03321123 -0.054626122 0.052982423 0.051208246 -0.059536427 0.011054873
0.01657589 0.07427032 -0.046259772 0.04469211 0.029395021 -0.04590476 -0.04601878 -0.070265956
-0.009913993 -0.027732717 -0.0014609939 0.064787425 -0.0239076 -0.0039271857 -0.0827119 -0.009709267
-0.01256004 0.08564923 0.015778555 -0.08105298 -0.026647668 0.031483095 0.09234214 -0.012767445
0.028781528 -0.06317873 -0.078191265 0.060035996 -0.09459561 0.015890487 -0.026815824 -0.07525664
0.09101154 -0.09522887 0.023341399 -0.027172875 -0.009365798 0.09281406 0.032607026 0.01993796
-0.06746992 -0.014198867 0.050349865 0.033478644 0.0011122517 -0.07511281 -0.09012795 0.008852315
0.019470358 0.04313136 -0.041686557 0.046332583 0.028328924 0.06820279 0.073638335 0.006233345
0.030905629 0.03607933 -0.010501921 0.004045512 0.09643961 -0.033417936 0.008287233 0.059096854
0.010532429 -0.10465662 -0.07257211 0.05781656 0.054252516 -0.17845131 -0.016961664 -0.027651787
0.10364558 0.047936354 0.041667007 0.02616721 -0.011875731 -0.08457351 0.055507116 0.078735985
0.040107515 -0.032874763 0.07374129 0.086495 -0.03151209 -0.08685361 0.039381996 -0.08732956
-0.09288365 0.017710753 -0.0178349 0.080864385 0.02275993 -0.07260336 0.009554876 -0.03440751
0.08438011 -0.032036375 0.12084945 0.02844686 0.068952344 -0.00854239 0.0218864 0.020519689
-0.023993982 0.037611213 -0.0091588255 -0.073735476 0.029303286 0.046300676 -0.0537662 -0.07582223
0.041732244 0.0212873 0.079098046 -0.0544019 -0.0053159352 0.09130694 0.003610499 -0.056961495
-0.09184579 0.006131071 -0.03811287 0.052152056 0.034624055 -0.061933115 0.03137039 -0.10133359
-0.122571416 0.08879407 0.06270193 0.04155812 0.092831604 -0.006883522 -0.021098617 -0.08980909
-0.062175285 -0.011942285 -0.11073336 -0.05634671 -0.0136773335 0.10083127 -0.00052810484 0.02308524
0.026818931 -0.012781123 -0.023263901 0.032129835 0.011093446 0.10760803 0.02202042 -0.045709513
0.028915755 -0.0248747 -0.03847042 0.011758054 0.096469395 0.1222261 0.08336332 0.099623956
0.08486147 -0.031471737 0.031503763 0.05391078 0.02469591 0.068972446 0.04147767 0.060645588
0.091815144 0.108148836 -0.052450106 0.053551264 0.082947284 -0.06188282 -0.01440266 0.024449985
-0.058355946 -0.10947801 -0.062803924 0.021094792 0.06165323 0.02125897 0.021274036 -0.04709493
0.016954748 0.048119497 0.09063224 -0.048160437 -0.019740807 0.06111637 0.017434519 -0.048047148
0.036366504 0.02033353 0.015012947 0.051162086 -0.08175974 0.075885735 0.019288454 0.031995438
0.07329251 0.11587411 -0.0361136 -0.04172483 -0.07297756 -0.07329335 -0.043617394 -0.023560792
0.069724835 -0.006287297 0.028245218 0.027730895 0.048486613 -0.05882758 -0.060539458 -0.005419145
00000000: 0b03 643c f106 8cbd 1aa0 83bd 65b7 07bd
00000010: 7ae7 b0bd 9e2d 373d 1b48 9cbd 47d4 bf3d
00000020: 8110 bd3d f952 223c 7a21 513d 0ab6 3fbb
00000030: 34fb a53d a300 5ebd 5e07 18bd 2b65 773d
00000040: 6307 2ebc c7e7 003d af40 a43b dbc8 b63b
00000050: 6aaa b63d f643 58bd d31b 18bd 34f3 573d
00000060: 1d67 a83d 4dae 93bc f721 a9bc de59 28bd
00000070: 44d3 c0bd 01e2 66bc 87ca 9b3d 1a05 263d
00000080: 0e2e ebbc 6dd3 093d 8008 08bd a4bf 5fbd
00000090: 1904 593d bdbf 513d 78dc 73bd 7f1f 353c
000000a0: 29ca 873c 0a1b 983d e37a 3dbd 130f 373d
000000b0: d4cd f03c a106 3cbd 307e 3cbd 99e7 8fbd
000000c0: 4d6e 22bc b92f e3bc d27e bfba 45af 843d
000000d0: dfd9 c3bc 9faf 80bb db64 a9bd 9e13 1fbc
000000e0: a0c8 4dbc dd68 af3d 0742 813c 1bff a5bd
000000f0: 364c dabc 6bf4 003d e01d bd3d 8c2e 51bc
00000100: 3dc7 eb3c da63 81bd be22 a0bd 4ee8 753d
00000110: 58bb c1bd c42c 823c dcac dbbc 2720 9abd
00000120: 4264 ba3d 5b07 c3bd 7636 bf3c a699 debc
00000130: 0173 19bc 4c15 be3d f28e 053d ef54 a33c
00000140: ab2d 8abd 5da2 68bc a93b 4e3d e720 093d
00000150: f9c8 913a bfd4 99bd 0195 b8bd 4d09 113c
00000160: 4d80 9f3c 82aa 303d 86bf 2abd 3cc7 3d3d
00000170: 0f12 e83c e8ad 8b3d b2cf 963d 1641 cc3b
00000180: cd2d fd3c ebc7 133d 4010 2cbc 3790 843b
00000190: 2182 c53d 3fe1 08bd 2dc7 073c 8b0f 723d
000001a0: 3690 2c3c 3656 d6bd b0a0 94bd 0fd1 6c3d
000001b0: e337 5e3d f1bb 36be 30f3 8abc 0086 e2bc
000001c0: 2244 d43d e958 443d 06ab 2a3d 9e5c d63c
000001d0: 6d92 42bc e034 adbd 6e5b 633d 5540 a13d
000001e0: c747 243d b0a7 06bd ac05 973d 4a24 b13d
000001f0: d212 01bd 4ee0 b1bd 044f 213d d7d9 b2bd
00000200: c839 bebd 2416 913c 7f1a 92bc 3a9c a53d
00000210: 0873 ba3c 12b1 94bd 0e8c 1c3c e4ee 0cbd
00000220: 7bcf ac3d 9338 03bd eb7f f73d 6409 e93c
00000230: e336 8d3d 61f5 0bbc 1c4b b33c e818 a83c
00000240: 078f c4bc 370e 1a3d e60e 16bc a002 97bd
00000250: 720d f03c c7a5 3d3d f239 5cbd af48 9bbd
00000260: 6eef 2a3d b462 ae3c 28fe a13d 87d4 5ebd
00000270: 4c31 aebb 22ff ba3d 1f9e 6c3b 7550 69bd
00000280: a519 bcbd 27e7 c83b 3e1c 1cbd 659d 553d
00000290: f4d1 0d3d 94ad 7dbd 3d7e 003d fc87 cfbd
000002a0: b906 fbbd aad9 b53d df69 803d d938 2a3d
000002b0: 7f1e be3d 2b8f e1bb 02d7 acbc d4ed b7bd
000002c0: 83ab 7ebd 93a9 43bc 2cc8 e2bd cfcb 66bd
000002d0: e516 60bc a080 ce3d 8470 0aba 421d bd3c
000002e0: 60b3 db3c ea67 51bc f093 bebc 939a 033d
000002f0: 49c1 353c 9961 dc3d 2b64 b43c e639 3bbd
00000300: bce0 ec3c 07c6 cbbc 2993 1dbd daa4 403c
00000310: bf91 c53d ad51 fa3d 63ba aa3d a507 cc3d
00000320: dacb ad3d 82e8 00bd 170a 013d 8dd1 5c3d
00000330: 144f ca3c 6d41 8d3d 7de4 293d 8267 783d
00000340: 9409 bc3d 237d dd3d ecd5 56bd 9258 5b3d
00000350: 44e0 a93d d778 7dbd 22f9 6bbc 564b c83c
00000360: a506 6fbd 0236 e0bd 589f 80bd fcce ac3c
00000370: 1988 7c3d 4b27 ae3c e346 ae3c 9de6 40bd
00000380: afe4 8a3c f318 453d 659d b93d e143 45bd
00000390: 79b7 a1bc 2955 7a3d d6d2 8e3c 16cd 44bd
000003a0: 0bf5 143d 8192 a63c ddf8 753c 568f 513d
000003b0: a771 a7bd fb69 9b3d d202 9e3c a60d 033d
000003c0: 621a 963d 684f ed3d dbeb 13bd a8e7 2abd
000003d0: 4275 95bd d31a 96bd 27a8 32bd 9002 c1bc
000003e0: e5cb 8e3d ab05 cebb 8462 e73c e72b e33c
000003f0: e699 463d 30f5 70bd 39f8 77bd 1593 b1bb

lstm.bias_ih_l0 f4 [400]
0.005361224 0.092136584 0.09223111 0.15244144 0.015905907 -0.055789594 0.0074890307 0.05806612
0.12787268 -0.03774516 0.103494234 -0.027262097 0.1270411 -0.061306782 0.0011964027 -0.0076780817
0.10229821 0.034427494 -0.08921693 0.05587432 0.0670675 -0.051197283 0.0547579 -0.04796142
-0.07008918 -0.04953732 0.0021975362 -0.039462898 -0.04813873 -0.07997776 -0.048008785 0.011858518
0.061711185 0.002559907 -0.016553938 -0.092075855 -0.041904543 0.02679099 -0.06989702 0.023744518
-0.08026648 -0.079470955 -0.06619073 0.05013611 0.041756354 -0.04920527 0.07299847 -0.07751446
0.042840492 0.021424316 -0.04021639 0.056617405 0.10967131 0.054300275 -0.051837172 0.060978558
-0.07356449 -0.02058392 -0.004868223 0.07231082 0.025748348 0.0010429943 0.016859166 0.014382166
-0.027270187 -0.019647013 0.078453496 -0.07499374 0.022811476 -0.07213777 -0.0049802526 -0.055781618
-0.08214155 0.0111140935 -0.024625434 0.019578213 0.036041062 0.09682598 0.058660656 0.055084556
0.09303753 -0.019081237 0.07050192 0.06479855 -0.07182571 -0.04194419 -0.04084629 -0.040528737
0.061993476 -0.023973515 0.061498336 0.04649461 -0.07693609 0.092634544 -0.034435466 0.005594581
-0.0909869 0.022375831 -0.03813742 0.01298453 0.044340283 0.027615445 0.0737789 0.04380474
-0.046416175 0.011217316 -0.04989145 0.08496492 -0.019610347 0.041114226 0.07396649 0.00972195
0.012445856 0.017549334 -0.041506425 -0.024707835 -0.043092158 0.05870935 -0.058223087 0.045712173
0.0002683363 -0.062294178 0.093721434 0.011500716 -0.05467282 0.10600729 0.09188501 0.018440338
-0.0017137829 0.08337104 -0.058139555 0.10993465 0.039714906 -0.0427574 0.09846497 0.03206909
-0.09158696 0.07451698 0.078942224 -0.09311398 -0.053481244 0.022150021 -0.018312445 0.046095274
0.026409715 0.052806932 0.106854476 -0.06082008 0.060034372 0.052639913 2.755031e-05 -0.011206846
-0.007724816 0.06453135 0.103209294 -0.05172079 -0.043354087 0.039690122 0.1358396 -0.060067784
-0.04273972 0.06928006 0.053757213 -0.07885904 0.068335 0.018603075 0.065829314 -0.08651887
0.039125655 -0.07827799 -0.043791838 -0.0070010847 -0.006169093 -0.0550443 0.038788967 0.010110205
-0.025114378 -0.053713024 -0.04959188 0.049839865 0.12199663 0.07983719 -0.001284024 0.09045563
0.109889925 -0.045941606 -0.058134556 0.022337219 0.05545525 -0.07576433 -0.033239532 -0.05234056
0.038378347 -0.038122464 0.094845556 0.048584156 0.038771555 0.07841853 0.051257174 -0.028625349
0.08002739 -0.06339486 0.06793704 0.025783194 -0.09187346 -0.09589227 -0.07426493 0.042618915
0.07994691 -0.07964562 0.066112325 0.034581818 -0.0135282595 0.009923452 -0.086013444 -0.091218844
0.008370246 0.06088707 -0.054590702 -0.10231705 -0.03398805 0.04145747 0.04590573 0.041922525
0.09800482 0.014160615 0.045976248 0.005346979 0.037564043 0.040862 -0.055473465 -0.08746596
0.10208414 -0.018868135 -0.07000432 0.065271854 0.10278915 -0.10892909 0.081012696 -0.0076561808
-0.014878524 0.0011850565 0.08572268 -0.06574411 -0.06711329 0.08269721 -0.014253405 0.051743183
0.02639217 -0.036762316 -0.014653834 0.009474461 0.027376762 0.029769212 -0.084546134 -0.030273505
00000000: 35ad af3b 1bb2 bc3d aae3 bc3d 9c19 1c3e
00000010: 1b4d 823c a183 64bd 8b66 f53b bdd6 6d3d
00000020: 0ef1 023e ab9a 1abd c9f4 d33d c354 dfbc
00000030: 1017 023e d21c 7bbd 9dd0 9c3a 6b98 fbbb
00000040: b981 d13d d803 0d3d 5eb7 b6bd 79dc 643d
00000050: af5a 893d 3eb4 51bd d249 603d 3273 44bd
00000060: ea8a 8fbd a5e7 4abd 8a04 103b d9a3 21bd
00000070: 1e2d 45bd 61cb a3bd dca4 44bd 3b4a 423c
00000080: dec4 7c3d 1dc4 273b 209c 87bc 4492 bcbd
00000090: 19a4 2bbd c778 db3c 2b26 8fbd dd83 c23c
000000a0: c162 a4bd abc1 a2bd 018f 87bd 865b 4d3d
000000b0: b608 2b3d 778b 49bd 3980 953d e7bf 9ebd
000000c0: 8379 2f3d 0c82 af3c f1b9 24bd a7e7 673d
000000d0: 5a9b e03d f769 5e3d 3753 54bd a7c4 793d
000000e0: fba8 96bd 9c9f a8bc 9d85 9fbb b217 943d
000000f0: 33ee d23c 15b5 883a 3c1c 8a3c 2da3 6b3c
00000100: ba65 dfbc c6f2 a0bc 3aac a03d 5196 99bd
00000110: 22df ba3c f8bc 93bd 6331 a3bb 447b 64bd
00000120: d439 a8bd e317 363c 47bb c9bc 7d62 a03c
00000130: cb9f 133d b34c c63d 2846 703d 58a0 613d
00000140: 768a be3d 4150 9cbc 5063 903d 1ab5 843d
00000150: 5c19 93bd accd 2bbd 704e 27bd 7601 26bd
00000160: dfec 7d3d 1b64 c4bc aee5 7b3d 2271 3e3d
00000170: ab90 9dbd 2eb7 bd3d 340c 0dbd bf52 b73b
00000180: 5757 babd 854d b73c fc35 1cbd 11bd 543c
00000190: 289e 353d c939 e23c 6419 973d 996c 333d
000001a0: e31e 3ebd d5c8 373c fa5a 4cbd 1702 ae3d
000001b0: e1a5 a0bc 6467 283d be7b 973d d048 1f3c
000001c0: b4e9 4b3c 9fc3 8f3c a402 2abd 1668 cabc
000001d0: 6781 30bd 3779 703d 557b 6ebd b03c 3b3d
000001e0: 7daf 8c39 2e28 7fbd 06f1 bf3d 806d 3c3c
000001f0: 9bf0 5fbd 5a1a d93d 352e bc3d 3110 973c
00000200: 03a1 e0ba 70be aa3d be23 6ebd 6b25 e13d
00000210: 19ac 223d 6222 2fbd 01a8 c93d e15a 033d
00000220: f291 bbbd 5c9c 983d 76ac a13d 8bb2 bebd
00000230: 260f 5bbd f673 b53c fb03 96bc 66ce 3c3d
00000240: 3059 d83c 154c 583d 85d6 da3d 7a1e 79bd
00000250: 9ae6 753d f39c 573d d71b e737 eb9c 37bc
00000260: 7420 fdbb 0329 843d 655f d33d 2ed9 53bd
00000270: 0e94 31bd 1c92 223d 8919 0b3e a309 76bd
00000280: d80f 2fbd b4e2 8d3d 8630 5c3d d980 a1bd
00000290: 38f3 8b3d 7a65 983c 85d1 863d ce30 b1bd
000002a0: 3942 203d 3650 a0bd 125f 33bd 5b69 e5bb
000002b0: 1a26 cabb 2276 61bd 2ee1 1e3d 46a5 253c
000002c0: abbc cdbc 3002 5cbd db20 4bbd e324 4c3d
000002d0: 5fd9 f93d ae81 a33d b24c a8ba cd40 b93d
000002e0: f80d e13d 442d 3cbd 801e 6ebd 8bfc b63c
000002f0: 0b25 633d 542a 9bbd 2d26 08bd 0e63 56bd
00000300: 9d32 1d3d 4d26 1cbd 633e c23d 2e00 473d
00000310: ecce 1e3d e599 a03d 0bf3 513d b57f eabc
00000320: 66e5 a33d 2ad5 81bd 9322 8b3d 4737 d33c
00000330: 2728 bcbd 2b63 c4bd 3618 98bd 2c91 2e3d
00000340: 35bb a33d 3e1d a3bd e665 873d aaa5 0d3d
00000350: a2a5 5dbc f995 223c d127 b0bd f2d0 babd
00000360: 5b23 093c b864 793d 809a 5fbd 9a8b d1bd
00000370: 0e37 0bbd 4fcf 293d a607 3c3d f4b6 2b3d
00000380: c0b6 c83d ed01 683c 9751 3c3d b635 af3b
00000390: c1dc 193d ea5e 273d 2538 63bd 5a21 b3bd
000003a0: 7d11 d13d 5991 9abc 6d5e 8fbd 40ad 853d
000003b0: 1e83 d23d 3716 dfbd fce9 a53d b3e0 fabb
000003c0: 0dc5 73bc e653 9b3a 5f8f af3d d9a4 86bd
000003d0: b172 89bd 285d a93d 1d87 69bc a9f0 533d
000003e0: 6434 d83c 1594 16bd a216 70bc c53a 1b3c
000003f0: 3b45 e03c 90de f33c 8626 adbd 2400 f8bc

lstm.bias_hh_l0 f4 [400]
0.0775614 -0.035914287 0.031084085 0.1530739 -0.039701633 0.05143814 -0.02006654 -0.033265915
-0.03302221 -0.012925217 0.03710243 0.06269256 0.12034881 0.032782055 -0.03910155 -0.06938243
0.071579345 -0.07718713 0.022822684 0.11019686 0.04239333 -0.052328758 0.083073854 -0.07937384
-0.056099292 -0.051959004 -0.050957285 -0.016747018 -0.07272696 -0.028389303 -0.08726487 0.03510953
-0.073855914 -0.019596476 -0.057216894 0.034363084 -0.042955894 0.1081634 -0.06691859 -0.08978181
0.09868576 -0.059145283 -0.009428242 0.032837607 -0.034502402 -0.019026967 0.06745318 0.04620394
-0.08200138 -0.0021220131 -0.041129906 0.031205954 -0.04244743 -0.05377111 -0.0326767 -0.056551334
0.08547037 -0.080025375 -0.0022226004 0.018230356 0.034344587 -0.076639004 -0.061815627 -0.03713539
0.12113581 -0.0709501 0.057631765 0.018991476 0.012612975 0.0800744 0.10931583 -0.084859304
-0.03228961 -0.024500234 0.07651567 0.05015388 0.09294336 -0.004488117 -0.022430295 -0.02347902
0.07622756 0.056186017 0.1103445 0.09915002 0.013670705 0.045318812 0.05066608 0.02244289
-0.07707005 0.07135851 0.01654962 -0.043495707 0.08410547 0.058640897 0.0824274 -0.002828785
0.014317309 -0.04867503 -0.08022213 -0.095030874 0.08739074 0.10028176 0.10343833 0.1891056
0.017057782 0.06710387 -0.0049781897 0.021590795 0.01160756 0.062265586 0.040857024 -0.06858655
0.021223858 -0.03862945 -0.048420146 -0.07153468 0.055670608 0.083280325 0.093465015 0.113155104
-0.057477467 0.092491046 0.07459059 0.10379841 0.06893939 0.07578401 0.014214139 0.07320333
0.0051885466 -0.073681384 0.019719355 -0.030178482 -0.046425495 0.07632852 0.04410402 -0.06718221
0.07071278 -0.0061380006 0.09124215 -0.066959925 0.07596744 0.045157377 -0.00793425 -0.04243493
0.06778194 -0.040863864 -0.027857937 -0.035577014 -0.0747103 0.059409674 0.03074961 0.05569973
0.08612924 0.055961568 0.05925886 0.0020943426 0.0758332 -0.058351487 0.13716795 -0.019645039
-0.059882596 0.09558733 -0.017619144 -0.016669849 -0.013549158 0.040161446 0.118864276 0.06581806
0.08866315 0.061182912 0.09758953 -0.0069873603 -0.02111519 -0.11775917 0.040505297 -0.05619039
-0.04488548 0.11483 -0.030501455 0.084407665 0.0372788 0.031310383 0.12901779 0.11284021
0.07257768 -0.0037067058 0.01665571 0.043645885 0.08022927 0.014053245 -0.040689506 -0.03394956
0.10495571 -0.046841387 0.00754934 -0.0041271206 0.094268404 0.029578254 0.04688589 0.08396394
0.05312824 -0.02276809 -0.02371383 -0.047483634 0.04825025 -0.013295497 -0.008686467 -0.002721479
-0.01679337 0.07952979 -0.015594298 -0.08401767 0.05135845 -0.02427813 -0.08664825 -0.0772087
0.06448175 -0.053300846 -0.059710316 -0.07089837 0.050489 0.100941755 0.06640058 -0.06980838
0.0021897578 0.056576412 0.03778396 0.041613903 0.0885915 -0.028747773 -0.026155237 -0.050118323
0.058205973 -0.009992229 -0.08087211 0.098878406 -0.04578997 0.006424994 0.033977732 -0.006007647
-0.08520983 -0.024918698 -0.058053702 0.07958364 -0.026450424 -0.08801898 -0.07413554 0.041596178
-0.02826222 0.07953035 0.05580089 -0.022537613 0.08752396 -0.026638255 0.060463574 -0.03452769
00000000: 83d8 9e3d dc1a 13bd 0da4 fe3c 68bf 1c3e
00000010: 2e9e 22bd cdb0 523d 9662 a4bc d741 08bd
00000020: 4c42 07bd 4ac4 53bc b8f8 173d f564 803d
00000030: 7079 f63d 7a46 063d f228 20bd 6018 8ebd
00000040: 3198 923d 4914 9ebd a3f6 ba3c e4ae e13d
00000050: a1a4 2d3d ae56 56bd a022 aa3d c08e a2bd
00000060: 5fc8 65bd f7d2 54bd 96b8 50bd 0b31 89bc
00000070: dff1 94bd af90 e8bc edb7 b2bd 03cf 0f3d
00000080: c541 97bd ca88 a0bc 435c 6abd 4ec0 0c3d
00000090: 85f2 2fbd c684 dd3d 9d0c 89bd 87df b7bd
000000a0: c21b ca3d 5342 72bd ea78 1abc ba80 063d
000000b0: 6452 0dbd 71de 9bbc e524 8a3d 5840 3d3d
000000c0: 57f0 a7bd 7911 0bbb d577 28bd a1a3 ff3c
000000d0: 5bdd 2dbd 183f 5cbd 01d8 05bd 5fa2 67bd
000000e0: 170b af3d 58e4 a3bd 0ca9 11bb d457 953c
000000f0: e9ac 0c3d e9f4 9cbd 6232 7dbd 471b 18bd
00000100: 0d16 f83d 494e 91bd 490f 6c3d 0394 9b3c
00000110: a7a6 4e3c 0cfe a33d fae0 df3d b7ca adbd
00000120: 1c42 04bd b7b4 c8bc 3fb4 9c3d 286e 4d3d
00000130: 1759 be3d 0e11 93bb bdbf b7bc 1357 c0bc
00000140: 321d 9c3d 4f23 663d 4cfc e13d 2a0f cb3d
00000150: 18fb 5f3c 38a0 393d 3c87 4f3d 27da b73c
00000160: e7d6 9dbd 6924 923d 1293 873c 8e28 32bd
00000170: 7d3f ac3d 7031 703d b2cf a83d 2363 39bb
00000180: 2593 6a3c 785f 47bd 804b a4bd 8c9f c2bd
00000190: ebf9 b23d 8660 cd3d 7ad7 d33d e6a4 413e
000001a0: c3bc 8b3c c16d 893d 1520 a3bb 2edf b03c
000001b0: a32d 3e3c 330a 7f3d b259 273d 1b77 8cbd
000001c0: a8dd ad3c ea39 1ebd 3454 46bd c680 92bd
000001d0: dd06 643d e08e aa3d 966a bf3d ddbd e73d
000001e0: 7e6d 6bbd f26b bd3d f4c2 983d 4394 d43d
000001f0: 1830 8d3d a634 9b3d 6ce2 683c a1eb 953d
00000200: af04 aa3b 44e6 96bd 7c8a a13c dd38 f7bc
00000210: a928 3ebd 2152 9c3d 6ba6 343d d496 89bd
00000220: ddd1 903d 4821 c9bb 2add ba3d 4922 89bd
00000230: d194 9b3d f1f6 383d a8fe 01bc 40d0 2dbd
00000240: 42d1 8a3d de60 27bd 5436 e4bc 34b9 11bd
00000250: b701 99bd 8f57 733d 9be6 fb3c 6625 643d
00000260: 8764 b03d f537 653d 6bb9 723d 3d41 093b
00000270: 704e 9b3d f801 6fbd c175 0c3e a2ee a0bc
00000280: 7447 75bd 4ac3 c33d 0656 90bc 358f 88bc
00000290: 4afd 5dbc 5480 243d 1d6f f33d 9ecb 863d
000002a0: 0795 b53d ef9a 7a3d 05dd c73d 3af6 e4bb
000002b0: c3f9 acbc b82b f1bd e2e8 253d e527 66bd
000002c0: d6d9 37bd fe2b eb3d 30de f9bc eddd ac3d
000002d0: a8b1 183d 513f 003d 3d1d 043e c518 e73d
000002e0: 9ba3 943d 34ec 72bb 8e71 883c 07c6 323d
000002f0: 3e4f a43d 953f 663c 0aaa 26bd b20e 0bbd
00000300: 05f3 d63d c1dc 3fbd 7460 f73b cc3c 87bb
00000310: cb0f c13d 184e f23c 6b0b 403d 49f5 ab3d
00000320: ff9c 593d 2584 babc 8243 c2bc 337e 42bd
00000330: 0ea2 453d 5bd5 59bc af51 0ebc d75a 32bb
00000340: 4092 89bc 84e0 a23d 3a7f 7fbc 7511 acbd
00000350: 3d5d 523d eee2 c6bc a374 b1bd 981f 9ebd
00000360: 020f 843d fd51 5abd ce92 74bd 2a33 91bd
00000370: 8ecd 4e3d 8dba ce3d 07fd 873d b2f7 8ebd
00000380: 0a82 0f3b abbc 673d 5bc3 1a3d 5773 2a3d
00000390: 766f b53d 7380 ebbc 8243 d6bc df48 4dbd
000003a0: 6369 6e3d 72b6 23bc 47a0 a5bd c380 ca3d
000003b0: 438e 3bbd c288 d23b 3c2c 0b3d ccdb c4bb
000003c0: 7e82 aebd 4c22 ccbc b8c9 6dbd bffc a23d
000003d0: 8fae d8bc 4c43 b4bd 60d4 97bd c160 2a3d
000003e0: 2c86 e7bc cfe0 a23d 798f 643d cda0 b8bc
000003f0: c33f b33d 7838 dabc a7a8 773d e86c 0dbd

lstm.weight_ih_l1 f4 [400, 100]
-0.019168824 -0.010087379 0.024409791 -0.08184774 0.050290607 -0.0020145965 -0.10091965 0.033122763
0.0048601627 -0.03841967 0.12712371 -0.11636885 0.09207786 -0.034254916 0.046440803 0.05809616
-0.06965261 -0.12349854 0.025069233 0.1081115 0.035680704 -0.008302288 0.103736274 -0.047825094
-0.06915279 0.11922352 0.07415095 0.004045972 -0.07525859 0.065802544 -0.026367111 -0.06635483
0.039661817 -0.03609249 -0.09315632 0.059144977 -0.0135046 -0.10560893 0.05673645 0.0420252
-0.06491857 -0.063732386 0.036089413 0.023381526 0.03793055 -0.06553802 -0.045797404 0.08408788
-0.03857018 0.002155982 0.12935972 0.080306485 0.10984611 0.04796314 -0.09278072 0.0008347734
-0.013901406 -0.021196833 0.014659224 -0.03557525 -0.019357366 0.027728174 0.0788319 0.09764547
0.07542357 -0.074477606 -0.10347626 -0.012239257 -0.009685743 0.033866905 -0.056593116 -0.043454614
-0.029537639 -0.016804151 -0.0028778666 -0.11630005 0.06127334 0.1041714 -0.0662725 -0.005289041
-0.09362106 -0.017575705 0.090188675 0.03463661 0.108420365 -0.09819666 -0.12822041 0.06045638
-0.11069551 -0.03741267 0.010036919 -0.10259237 -0.017215094 0.008514697 0.010108473 -0.07645692
0.020361252 -0.061370805 -0.044898678 0.001862474 0.024803098 0.0716883 0.052922867 -0.03059042
0.02478832 -0.008951869 -0.10578909 0.060074374 0.08994605 0.07505345 -0.08513363 -0.040155247
0.10866767 0.049766414 -0.012317166 -0.04022061 -0.010524088 -0.011919691 -0.056339916 0.07934101
0.07749912 -0.01135726 -0.037721995 -0.089293644 0.03549793 0.1006474 -0.022123352 0.106523186
0.033843834 -0.02569709 -0.09313819 -0.10715763 -0.06583793 -0.009165066 -0.075462766 0.018738829
0.09014708 -0.09059937 0.08763835 0.065193065 -0.101549335 -0.0065688877 -0.022984445 0.00450012
-0.062199514 0.082907036 -0.102868795 -0.02707571 0.09325701 0.07776766 -0.02294978 -0.040341206
-0.016301788 0.06759011 -0.04524915 -0.00870643 0.06657384 0.008144183 0.07501998 -0.017029583
-0.0391268 -0.013879839 -0.037609994 0.08652021 0.037642557 -0.0372686 0.027649526 -0.04790612
0.03160766 -0.016123878 0.0406965 0.04633417 0.061228435 -0.021111416 0.06321574 -0.0889572
0.07977176 -0.05064946 0.042547602 0.03572707 -0.048616387 -0.020319633 -0.07901204 0.082679994
-0.00053487654 -0.108783 -0.06961617 0.11154266 0.062141158 -0.052485634 -0.06337431 0.068614654
-0.096908666 0.022721622 -0.09405442 -0.079569586 -0.044651285 -0.011225635 0.1125456 -0.07363493
-0.023528319 0.06559442 0.06417416 -0.0029907224 -0.0737727 0.10118454 -0.029395146 0.02253074
0.003518078 -0.008937625 -0.034812544 0.0857917 -0.0021948523 -0.06811675 -0.03650463 -0.001030766
-0.078095496 0.09131303 -0.022733988 -0.021283459 -0.0736438 0.07026549 0.06815479 -0.0780233
0.05691473 -0.019185813 -0.078432314 -0.09383571 -0.034949247 -0.08262487 -0.07500101 0.08709281
0.023712449 -0.011384678 0.015524127 0.03213303 0.0873086 -0.09479436 0.07574561 -0.07266252
0.04542021 0.061339997 0.05901231 0.009122496 -0.11365571 -0.046458937 0.025683822 -0.101976916
0.022100626 0.06873227 0.014743441 -0.0883453 -0.05197764 0.08714387 0.021672184 0.051332206
00000000: f007 9dbc 8945 25bc 0bf7 c73c ca9f a7bd
00000010: 86fd 4d3d 5207 04bb f6ae cebd bcab 073d
00000020: 0042 9f3b f25d 1dbd b82c 023e cb52 eebd
00000030: 5193 bc3d e24e 0cbd b638 3e3d 3df6 6d3d
00000040: 07a6 8ebd cdec fcbd fe5d cd3c 9069 dd3d
00000050: ee25 123d 5206 08bc af73 d43d 3fe4 43bd
00000060: fa9f 8dbd 762b f43d 74dc 973d 1394 843b
00000070: 2d21 9abd 7cc3 863d d7ff d7bc 0be5 87bd
00000080: 6e74 223d b8d5 13bd bec8 bebd 0142 723d
00000090: 6642 5dbc 7f49 d8bd 7b64 683d 9e22 2c3d
000000a0: 07f4 84bd 2086 82bd 7ed2 133d 9d8a bf3c
000000b0: 105d 1b3d cc38 86bd 0f96 3bbd 4436 ac3d
000000c0: c4fb 1dbd 604b 0d3b e076 043e ba77 a43d
000000d0: fff6 e03d ff74 443d d103 bebd b2d4 5a3a
000000e0: b9c2 63bc fba4 adbc 3e2d 703c 5ab7 11bd
000000f0: 5793 9ebc 3226 e33c 9f72 a13d 59fa c73d
00000100: ac77 9a3d b787 98bd 5deb d3bd 2a87 48bc
00000110: f3b0 1ebc 06b8 0a3d 2fce 67bd 77fd 31bd
00000120: ebf8 f1bc dca8 89bc 979a 3cbb b82e eebd
00000130: c1f9 7a3d d157 d53d e0b9 87bd b14f adbb
00000140: 66bc bfbd edfa 8fbc d7b4 b83d 1edf 0d3d
00000150: 7f0b de3d 551b c9bd 364c 03be 1ca1 773d
00000160: 54b4 e2bd 073e 19bd e471 243c f31b d2bd
00000170: ab06 8dbc 3a81 0b3c 029e 253c 7295 9cbd
00000180: a4cc a63c f45f 7bbd ade7 37bd 421e f43a
00000190: de2f cb3c 51d1 923d a6c5 583d c398 fabc
000001a0: e010 cb3c dcaa 12bc f3a7 d8bd 8c10 763d
000001b0: a235 b83d a0b5 993d 8a5a aebd d479 24bd
000001c0: 288d de3d ded7 4b3d f0cd 49bc 5ebe 24bd
000001d0: 396d 2cbc cf4a 43bc afc4 66bd 8a7d a23d
000001e0: dcb7 9e3d cd13 3abc 6182 1abd 96df b6bd
000001f0: 4766 113d 3920 ce3d 083c b5bc d428 da3d
00000200: d59f 0a3d b482 d2bc 3cbf bebd 7675 dbbd
00000210: 09d6 86bd 1329 16bc 398c 9abd 2c82 993c
00000220: 089f b83d 2a8c b9bd bc7b b33d f183 853d
00000230: 19f9 cfbd d33f d7bb e049 bcbc be75 933b
00000240: ebc4 7ebd 2acb a93d e0ac d2bd e1cd ddbc
00000250: 88fd be3d a744 9f3d 2d01 bcbc d23c 25bd
00000260: 548b 85bc af6c 8a3d 2c57 39bd 6aa5 0ebc
00000270: de57 883d 2e6f 053c 13a4 993d a081 8bbc
00000280: 6c43 20bd 4468 63bc f00c 1abd 8231 b13d
00000290: 152f 1a3d f6a6 18bd 4281 e23c 3539 44bd
000002a0: 0977 013d 3916 84bc 60b1 263d e6c8 3d3d
000002b0: abca 7a3d d9f1 acbc 4177 813d 312f b6bd
000002c0: 605f a33d cf75 4fbd 6546 2e3d 8c56 123d
000002d0: fa21 47bd 5c75 a6bc 10d1 a1bd 2154 a93d
000002e0: f536 0cba 9fc9 debd ec92 8ebd 7a70 e43d
000002f0: ba87 7e3d 2dfb 56bd 64ca 81bd d785 8c3d
00000300: 0d78 c6bd b222 ba3c 9b9f c0bd 61f5 a2bd
00000310: 44e4 36bd baeb 37bc 4f7e e63d e9cd 96bd
00000320: 76be c0bc 5e56 863d be6d 833d ffff 43bb
00000330: 2416 97bd d739 cf3d 17ce f0bc 6392 b83c
00000340: 8e8f 663b 1e6f 12bc 9997 0ebd 8fb3 af3d
00000350: 83d7 0fbb cb80 8bbd e185 15bd c51a 87ba
00000360: 88f0 9fbd 5302 bb3d a13c babc a65a aebc
00000370: 90d2 96bd 5ae7 8f3d bd94 8b3d aeca 9fbd
00000380: 6c1f 693d 912b 9dbc 1fa1 a0bd f02c c0bd
00000390: f126 0fbd 3a37 a9bd 219a 99bd b75d b23d
000003a0: 9c40 c23c cd86 3abc e858 7e3c ed9d 033d
000003b0: dace b23d 8c23 c2bd 8420 9b3d 16d0 94bd
000003c0: 8b0a 3a3d a63f 7b3d e4b6 713d 8576 153c
000003d0: 53c4 e8bd ba4b 3ebd e166 d23c 46d9 d0bd
000003e0: 5f0c b53c 81c3 8c3d 798e 713c 61ee b4bd
000003f0: 81e6 54bd 7c78 b23d dd89 b13c b841 523d

lstm.weight_hh_l1 f4 [400, 100]
0.01494056 0.006631748 -0.010556242 -0.04824752 -0.081879124 0.07155363 0.055603754 0.10095266
-0.0750753 -0.04431959 -0.06375041 0.060970515 0.008706141 0.0011579003 0.044485815 0.08120987
0.0057553845 0.07054531 -0.046727397 -0.055132467 0.03622927 -0.024677796 -0.0234355 0.007252077
-0.028820202 0.011614178 -0.056777894 -0.017180972 -0.08077845 0.04639356 -0.034405388 -0.07023378
-0.05824774 -0.10681617 -0.04915023 -0.015960375 0.042691674 -0.11983184 0.0542458 0.0054328265
-0.02950241 -0.053101685 -0.060165517 -0.08623821 -0.04497493 -0.040816326 -0.07400526 0.09586192
0.016485108 -0.041972037 0.025885671 -0.0022107232 -0.05745035 -0.035207327 0.073608756 -0.08503146
-0.06307058 -0.07957026 0.07104445 0.07346866 -0.00898268 -0.11135405 0.058064584 -0.05609939
0.0048062974 -0.045827165 -0.042079844 -0.09298131 -0.06206858 0.032801006 0.08560912 0.03842801
0.09824187 0.08808556 0.061668668 -0.06992173 -0.02580165 0.036751255 -0.0029901734 0.028312571
0.004006921 -0.047596235 0.03530909 -0.028710924 -0.062516116 -0.033428855 0.10530312 -0.08004292
0.06368147 0.16242911 -0.0048073716 0.012555222 -0.07770633 -0.06237528 0.070665754 0.056390762
0.06639508 0.020805767 0.087577954 0.0077495486 0.004927887 -0.02431831 0.084435284 0.047761016
0.07222779 -0.017575134 0.09175659 -0.0056060427 -0.09403945 0.034407225 0.013652717 -0.048654996
0.027427234 -0.031800132 0.011822155 0.046354193 0.07404241 0.007512073 0.0857452 -0.035905704
0.046318434 -0.012582033 -0.021725181 0.08767771 0.0772814 0.054326072 -0.07647813 0.05583117
0.0084504085 -0.08130154 -0.03080946 0.022854619 -0.045250963 -0.030250609 -0.0747683 0.071766905
0.06231119 -0.009634888 -0.048110094 0.06294967 -0.080551416 0.080382094 -0.020274239 -0.028200928
0.04992359 -0.06290381 0.025912719 -0.0060926992 0.03396693 -0.08436819 -0.050157145 0.030602112
-0.046359923 0.0008702155 0.036084175 0.04474442 0.056477275 -0.05464456 -0.10179804 -0.025580788
-0.0073867394 -0.005988376 0.09924246 -0.11217341 -0.101458676 -0.07000665 0.012271943 0.0704052
-0.02216478 -0.075351804 -0.049165282 0.018511444 0.0192701 -0.039281342 0.05797851 -0.06985458
0.011314882 0.09423904 -0.08401701 -0.09714293 0.019043889 0.050676227 -0.02584545 0.06874207
-0.08840569 0.052141722 0.05768225 -0.048860155 0.10183396 -0.04662239 0.020276332 0.020914406
-0.089437015 -0.011375692 -0.066563755 0.0051109944 0.035251006 -0.04161963 0.062774725 -0.008588378
-0.079732366 0.016815744 -0.029022655 -0.055973526 0.08241232 0.076767474 -0.03240484 0.11886853
0.030317217 -0.016601404 0.030785246 0.046860885 0.01976821 0.0007438991 -0.011381984 0.09513039
-0.044687357 -0.05034808 0.08411425 0.067635424 0.055235296 0.01607543 -0.09401042 0.050360616
0.052835252 -0.027709926 0.028109007 0.10944478 0.072519794 -0.09312032 -0.06986287 0.047737952
0.10783121 0.09936965 0.008267006 0.08360143 0.06716608 -0.029505532 0.014768523 -0.045955125
-0.025361424 -0.050295707 0.003679078 0.040653415 -0.085044265 -0.072788164 -0.08549407 0.036077447
0.0993221 -0.046289224 -0.07972073 0.040324878 0.03933277 -0.016531706 0.08214883 -0.031401373
00000000: 40c9 743c 224f d93b 17f4 2cbc 319f 45bd
00000010: 3eb0 a7bd b68a 923d c3c0 633d 45c0 ce3d
00000020: 14c1 99bd 7588 35bd 938f 82bd 38bc 793d
00000030: 34a4 0e3c b0c4 973a c236 363d 5c51 a63d
00000040: aa97 bc3b 0f7a 903d 3a65 3fbd 95d2 61bd
00000050: 2565 143d 1729 cabc cefb bfbc d5a2 ed3b
00000060: 5818 ecbc 6549 3e3c f08f 68bd 1cbf 8cbc
00000070: 2c6f a5bd 2c07 3e3d aaec 0cbd bad6 8fbd
00000080: 2f95 6ebd 70c2 dabd c051 49bd 55bf 82bc
00000090: 77dd 2e3d 656a f5bd d830 5e3d da05 b23b
000000a0: 0aaf f1bc 2781 59bd 1e70 76bd a99d b0bd
000000b0: a237 38bd 052f 27bd 1290 97bd 4153 c43d
000000c0: c70b 873c dfea 2bbd 300e d43c c8e1 10bb
000000d0: 0f51 6bbd 8f35 10bd 30c0 963d f924 aebd
000000e0: 262b 81bd bcf5 a2bd c17f 913d bd76 963d
000000f0: 172c 13bc 980d e4bd 21d5 6d3d 79c8 65bd
00000100: 257e 9d3b 44b5 3bbd ea5b 2cbd fc6c bebd
00000110: a03b 7ebd 595a 063d d653 af3d b066 1d3d
00000120: 0933 c93d 3466 b43d 4998 7c3d 2033 8fbd
00000130: fb5d d3bc 7c88 163d c9f6 43bb c4ef e73c
00000140: 7d4c 833b 45f4 42bd 44a0 103d 2c33 ebbc
00000150: 7308 80bd b2ec 08bd 2aa9 d73d 8bed a3bd
00000160: 6e6b 823d d153 263e 2887 9dbb 6bb4 4d3c
00000170: 7f24 9fbd 397d 7fbd 35b9 903d 00fa 663d
00000180: 25fa 873d db70 aa3c 125c b33d edef fd3b
00000190: 1d7a a13b 3137 c7bc 68ec ac3d 0ea1 433d
000001a0: 2aec 933d baf9 8fbc e1ea bb3d e5b2 b7bb
000001b0: c197 c0bd 97ee 0c3d a5af 5f3c 764a 47bd
000001c0: 14af e03c db40 02bd b6b1 413c e5dd 3d3d
000001d0: 8ca3 973d d627 f63b 2e9b af3d dc11 13bd
000001e0: 66b8 3d3d df24 4ebc 02f9 b1bc 5f90 b33d
000001f0: b645 9e3d 0485 5e3d 91a0 9cbd 3aaf 643d
00000200: 9573 0a3c 6c81 a6bd 1f64 fcbc 9c39 bb3c
00000210: 1359 39bd 20d0 f7bc 1f20 99bd 87fa 923d
00000220: 053a 7f3d a6db 1dbc 170f 45bd c2eb 803d
00000230: 24f8 a4bd 5e9f a43d 2916 a6bc a205 e7bc
00000240: ae7c 4c3d b6d3 80bd e946 d43c 44a5 c7bb
00000250: e820 0b3d 3bc9 acbd 9471 4dbd 48b1 fa3c
00000260: e7e3 3dbd 2c1f 643a 00cd 133d ed45 373d
00000270: b754 673d f9d2 5fbd 7e7b d0bd cd8e d1bc
00000280: 760c f2bb 243a c4bb a23f cb3d 2cbb e5bd
00000290: 91c9 cfbd a65f 8fbd 4210 493c 9a30 903d
000002a0: ea92 b5bc 0c52 9abd 8961 49bd 50a5 973c
000002b0: 54dc 9d3c 79e5 20bd e07a 6d3d eb0f 8fbd
000002c0: 0e62 393c 6600 c13d 1c11 acbd dff2 c6bd
000002d0: ee01 9c3c e091 4f3d d6b9 d3bc a4c8 8c3d
000002e0: 0b0e b5bd 8f92 553d 3944 6c3d 9621 48bd
000002f0: 538e d03d 1ff7 3ebd 8d1a a63c b054 ab3c
00000300: c12a b7bd 1c61 3abc 9452 88bd 217a a73b
00000310: 5c63 103d 5879 2abd 0990 803d 45b6 0cbc
00000320: b94a a3bd 2cc1 893c ebc0 edbc 7f44 65bd
00000330: cac7 a83d 4438 9d3d f0ba 04bd 5871 f33d
00000340: d05b f83c abff 87bc 5731 fc3c 33f1 3f3d
00000350: f1f0 a13c 3902 433a 807b 3abc b9d3 c23d
00000360: 170a 37bd ca39 4ebd 1844 ac3d 7184 8a3d
00000370: 683e 623d 9fb0 833c 8988 c0bd ef46 4e3d
00000380: c769 583d edff e2bc dc44 e63c 9624 e03d
00000390: 4285 943d deb5 bebd 4414 8fbd df88 433d
000003a0: 9cd6 dc3d 5182 cb3d 5672 073c 3a37 ab3d
000003b0: 5f8e 893d 96b5 f1bc adf7 713c 713b 3cbd
000003c0: c3c2 cfbc df02 4ebd b01c 713b 3284 263d
000003d0: b02b aebd f611 95bd 8417 afbd f2c5 133d
000003e0: 6369 cb3d c599 3dbd 9f44 a3bd b32b 253d
000003f0: 661b 213d 806d 87bc a53d a83d ba9e 00bd

lstm.bias_ih_l1 f4 [400]
0.04101154 -0.012889536 -0.06429675 0.05572838 0.06546143 -0.057903938 -0.035735827 0.03757146
-0.041401427 -0.04331645 -0.03874998 0.019590896 0.0649113 0.10121462 -0.037609916 -0.003916998
0.08425617 0.03536189 0.048065532 -0.042393755 -0.058058325 -0.06258049 0.089159824 0.088697605
-0.012848006 0.06751344 -0.048251513 -0.011350824 -0.07701656 0.06724835 0.03770666 0.077380665
0.05044922 0.0959677 -0.0049444856 0.04158712 0.02280053 0.028710602 -0.047394924 0.078609176
-0.10594343 -0.017165467 0.050725624 0.11709711 0.08070281 0.08806755 -0.020358363 -0.047636542
-0.009555189 -0.019030156 -0.06971827 -0.051268525 -0.07557261 -0.08802066 0.10634813 -0.012593028
0.107484475 -0.047197044 -0.093392186 0.0662862 0.052051086 0.03294517 0.02385129 0.042641465
0.009929603 0.09083941 -0.030159429 0.033507504 0.061157543 0.023497066 -0.08417087 -0.038347613
-0.02201059 0.019170614 0.079659194 -0.020309879 -0.049765356 -0.019011812 0.0016945102 0.059662063
-0.086780906 -0.03946708 0.065873824 -0.08908597 0.09187813 -0.07239091 0.082744434 0.092616744
0.07752656 0.0054697203 0.1041078 0.10082313 -0.017054103 0.04647853 -0.019686693 0.07925341
0.0024165954 -0.09920972 0.053168416 0.034124117 0.035050604 0.020425312 -0.01895361 -0.06308997
-0.07977253 -0.014091017 -0.08567296 0.043506335 0.08800852 0.07660151 -0.06384602 -0.04587263
-0.062010635 -0.069263764 -0.020316154 -0.00640717 0.01005518 -0.093112834 0.01664934 0.07819186
0.02820224 0.05143368 0.112540856 -0.06926459 -0.080265656 0.00988806 -0.045553856 0.016891727
-0.05587474 -0.023215499 0.03359055 0.080765694 0.061454885 0.018292269 0.10525902 -0.048435695
-0.025222745 0.10212436 0.040740933 0.16404147 -0.005790264 -0.08867344 0.0144127095 0.055172052
0.0611516 0.037345644 0.08058325 -0.052889343 0.0756576 0.03234113 -0.011700149 0.03462804
-0.043231018 0.014347321 -0.044648048 0.07261847 -0.0045876224 -0.059094403 0.096330404 -0.056185067
-0.010302949 -0.039813433 0.08337654 -0.0954988 -0.0563444 -0.017491471 0.06001322 -0.046518315
0.11207826 0.047096286 0.026412157 0.20848541 0.048878107 0.01956738 0.03296098 -0.05496859
0.03461902 0.012498809 0.020126887 0.07414829 0.059515942 0.075673245 -0.070191815 -0.0488822
0.05440587 -0.0018827373 -0.09025946 -0.09957195 0.093920134 0.13533191 0.07665509 0.015217724
0.07582301 0.07036196 0.003953611 -0.0060573956 0.103522606 0.0034909844 -0.045563262 0.06525625
-0.0675552 0.0906044 -0.012224284 -0.0730889 -0.06630567 -0.020233853 -0.08114917 0.07298791
0.049351353 -0.090459175 -0.012898056 -0.0002416273 0.009037914 -0.08282935 0.05191506 0.045908924
-0.050000675 0.035019387 -0.055709817 -0.101901256 -0.058870725 -0.012653086 0.10522363 0.03274439
0.013779516 -0.015187607 0.06071358 0.023639066 0.081503466 -0.10643102 0.03362424 0.03670193
-0.002284623 0.08071929 -0.12088558 0.015595401 0.02364199 -0.031307925 0.04722021 0.052771144
0.06867411 0.10232006 -0.039665855 -0.059715156 0.068851985 0.10938362 0.047887385 0.045141637
-0.103724696 0.044954035 -0.052629594 -0.06699229 0.038645737 0.04209612 -0.084464245 -0.04609118
00000000: b7fb 273d a22e 53bc 04ae 83bd 7143 643d
00000010: a410 863d ae2c 6dbd bb5f 12bd 88e4 193d
00000020: 8b94 29bd 976c 31bd 4db8 1ebd 167d a03c
00000030: 37f0 843d 9c49 cf3d db0c 1abd 295a 80bb
00000040: 808e ac3d a1d7 103d 5de0 443d 13a5 2dbd
00000050: 91ce 6dbd 332a 80bd 6d99 b63d 17a7 b53d
00000060: 7180 52bc 7d44 8a3d 61a3 45bd cef8 39bc
00000070: dcba 9dbd 81b9 893d 4c72 1a3d c179 9e3d
00000080: d7a3 4e3d b78a c43d 5a05 a2bb 4257 2a3d
00000090: 2dc8 ba3c 7f32 eb3c 2e21 42bd d9fd a03d
000000a0: def8 d8bd 989e 8cbc acc5 4f3d 9cd0 ef3d
000000b0: 8447 a53d c25c b43d 95c6 a6bc 891e 43bd
000000c0: 5e8d 1cbc 21e5 9bbc 74c8 8ebd f2fe 51bd
000000d0: d0c5 9abd 2d44 b4bd 0ccd d93d fd52 4ebc
000000e0: d220 dc3d b051 41bd 6744 bfbd 0fc1 873d
000000f0: 8533 553d 84f1 063d c863 c33c d1a8 2e3d
00000100: c6af 223c 030a ba3d e810 f7bc 2a3f 093d
00000110: 5580 7a3d eb7c c03c c761 acbd 6312 1dbd
00000120: 8e4f b4bc b10b 9d3c 5c24 a33d e760 a6bc
00000130: c2d6 4bbd a9be 9bbc 541a de3a 3560 743d
00000140: 30ba b1bd 3ca8 21bd dbe8 863d b472 b6bd
00000150: 9a2a bc3d af41 94bd ea75 a93d d9ad bd3d
00000160: 3fc6 9e3d 573b b33b 7836 d53d 5b7c ce3d
00000170: 0cb5 8bbc 4560 3e3d fd45 a1bc 9d4f a23d
00000180: be5f 1e3b 772e cbbd 20c7 593d bbc5 0b3d
00000190: 3991 0f3d fc52 a73c 9a44 9bbc 5035 81bd
000001a0: c85f a3bd 02de 66bc 4e75 afbd b333 323d
000001b0: d03d b43d 41e1 9c3d b4c1 82bd f0e4 3bbd
000001c0: ddfe 7dbd 29da 8dbd 106e a6bc 3df3 d1bb
000001d0: 7bbe 243c f1b1 bebd 3264 883c 0e23 a03d
000001e0: 6208 e73c 1fac 523d d27b e63d 98da 8dbd
000001f0: 5262 a4bd 8801 223c ae96 3abd 8560 8a3c
00000200: e9dc 64bd 6e2e bebc 3f96 093d 7c68 a53d
00000210: 1eb8 7b3d abd9 953c 0b92 d73d 8264 46bd
00000220: ee9f cebc 9426 d13d f7df 263d 7dfa 273e
00000230: 41bc bdbb 6c9a b5bd 4923 6c3c 17fc 613d
00000240: 1a7a 7a3d bff7 183d d508 a53d 7fa2 58bd
00000250: 5ff2 9a3d 2278 043d fbb1 3fbc 22d6 0d3d
00000260: 0213 31bd 0711 6b3c dfe0 36bd feb8 943d
00000270: c453 96bb f90c 72bd e048 c53d 5022 66bd
00000280: b3cd 28bc 6913 23bd 52c1 aa3d e094 c3bd
00000290: 63c9 66bd 464a 8fbc 6cd0 753d fd89 3ebd
000002a0: 4989 e53d 09e8 403d 4f5e d83c 337d 553e
000002b0: 6934 483d c54b a03c 1802 073d bf26 61bd
000002c0: accc 0d3d cec7 4c3c 24e1 a43c 0fdb 973d
000002d0: fdc6 733d 93fa 9a3d bac0 8fbd b438 48bd
000002e0: b1d8 5e3d 2ec6 f6ba f4d9 b8bd 61ec cbbd
000002f0: 3359 c03d 7394 0a3e 58fd 9c3d c353 793c
00000300: 1849 9b3d ee19 903d 4b8d 813b 1e7d c6bb
00000310: a903 d43d 00c9 643b 8ba0 3abd 12a5 853d
00000320: 615a 8abd cd8e b93d 5d48 48bc a2af 95bd
00000330: 44cb 87bd 77c1 a5bc 8931 a6bd af7a 953d
00000340: a524 4a3d a942 b9bd 5e52 53bc 565d 7db9
00000350: c213 143c 6fa2 a9bd e3a4 543d ff0a 3c3d
00000360: 82cd 4cbd 7d70 0f3d fa2f 64bd 9bb1 d0bd
00000370: 6e22 71bd e44e 4fbc 7d7f d73d fb1e 063d
00000380: 7bc3 613c 71d5 78bc ceae 783d b7a6 c13c
00000390: 4aeb a63d 82f8 d9bd 92b9 093d c354 163d
000003a0: 9db9 15bb 2850 a53d dc92 f7bd da83 7f3c
000003b0: d9ac c13c bd3c 00bd fb69 413d 8e26 583d
000003c0: 03a5 8c3d 2e8d d13d aa78 22bd e197 74bd
000003d0: 4502 8d3d 8504 e03d 9025 443d 70e6 383d
000003e0: 9d6d d4bd b921 383d 2192 57bd 4133 89bd
000003f0: fe4a 1e3d fb6c 2c3d 97fb acbd 1bca 3cbd
