BikeSharingPrediction-main/models/lstm_short_term_90d_run2.pt (torch, 546325 bytes, 10 tensors)

lstm.weight_ih_l0 f4 [400, 12]
000000 b0 69 81 3d 24 33 80 3d 35 46 a0 bd e1 fe ef bd
       0.063189864 0.06259754 -0.07825891 -0.11718536
000010 ae bf 80 bd 99 36 42 bd 47 75 dd 3d f3 8d c4 3d
       -0.0628656 -0.04741535 0.108133845 0.09597387
000020 a2 b5 d5 3d 71 fd b2 bc 5e 64 9c 3d a7 90 f3 bc
       0.10435034 -0.021849366 0.07636331 -0.029732062
000030 34 ae ea bc 30 44 9f bd 29 dc 14 bb 13 61 49 3d
       -0.02864752 -0.077766776 -0.0022714233 0.049164843
000040 91 5f b0 3c 4c 68 c9 bc 80 05 59 bc 62 fb 0b bd
       0.021529945 -0.024585865 -0.01324594 -0.034175284
000050 ac 74 b6 bd 67 31 c6 bd 1d 85 40 bd d2 c5 49 bd
       -0.08908972 -0.096773915 -0.047001947 -0.04926092
000060 6f 94 d6 3d 20 71 1b 3d 60 74 10 bb 91 26 0e bd
       0.1047753 0.03794968 -0.002204202 -0.03470475
000070 cd 41 5e bc f7 b3 b0 bd b3 35 51 3d 89 68 eb 3d
       -0.013565493 -0.086280756 0.051076602 0.11494548
000080 31 06 b2 bd fe 52 5d bd ef da d4 bd bb 6a c3 bc
       -0.08692587 -0.054034226 -0.10393321 -0.023854604
000090 c4 77 b7 3b 38 82 36 bd 08 48 08 3d ed 68 bd 3b
       0.005598994 -0.04455778 0.03327182 0.0057803304
0000a0 d1 64 4b 3d 0e c1 b5 bd 9a 91 56 3d 48 0a 46 3d
       0.049656693 -0.08874713 0.05238495 0.04834965
0000b0 4d c1 f8 3c 61 52 ab bd 15 82 8a 3d 9e 56 83 3d
       0.03036561 -0.08365322 0.067630924 0.06413005
0000c0 1f 5f a8 bd 1d 91 c1 3b 72 8f 3e 3d 14 fd 87 bd
       -0.08221268 0.0059071914 0.04652352 -0.06640068
0000d0 a7 9e 96 39 7a d1 a7 bc 14 90 23 bc b3 14 cb bc
       0.00028728435 -0.020485628 -0.009983081 -0.024790144
0000e0 b9 51 2a 3c 5c 56 b4 3c de cc f7 3c 47 ab 90 bd
       0.010395461 0.022013836 0.030249055 -0.070639186
0000f0 c3 fa 9f 3c f2 39 9a 3c 2b 95 c4 3d 9b 94 82 3d
       0.019528752 0.018826459 0.09598764 0.063760005
000100 6a e3 b7 bd c4 9f 7f 3d 6d d1 b4 3d d3 cb 83 3b
       -0.08978923 0.062408224 0.08829007 0.0040221005
000110 6a e4 3b bd 47 16 4c 3d 5e 7e 46 bc 64 96 d9 3d
       -0.04587213 0.049825933 -0.012115089 0.10624388
000120 22 78 27 bc 94 79 33 3d 38 4d 29 3d bb ba 3b 3d
       -0.010221513 0.043817118 0.041333407 0.045832377
000130 71 bd 8f bd 0b 04 87 bd 32 ae d8 bc 3d 88 eb 3d
       -0.07018555 -0.06592568 -0.02645025 0.11500595
000140 74 5f a9 3d 84 2d a3 3c 62 3e d6 bd f1 ec 44 3d
       0.08270159 0.019919164 -0.10461117 0.048077527
000150 23 02 25 3d 3e 1b 21 ba c6 41 16 bd 14 0d 7f 3d
       0.04028524 -0.0006145722 -0.03668382 0.06226833
000160 5f 00 11 3d cf bd 3e 3d 00 e9 84 3d 28 14 49 3d
       0.035400745 0.046567734 0.06489754 0.049091488
000170 3a ca bc bd 14 e0 b6 3d 97 d2 c0 3c fd 7e 56 3d
       -0.09218259 0.08929458 0.023537917 0.0523672
000180 53 91 39 bd 05 48 12 3d b7 88 f4 3c ec 6d 9c 3d
       -0.045304608 0.035713214 0.029850347 0.076381534
000190 3a c9 d3 3c bc 44 02 bd c9 7d 39 3d e2 d2 ec 3d
       0.025852788 -0.03180383 0.045285974 0.1156366
0001a0 8b d0 bc 3c ad cc e8 3d fd 3a e4 3c 7a 06 99 3d
       0.02304866 0.11367164 0.027860159 0.074719384
0001b0 27 df 3d 3d 79 f6 15 3d d1 2a dd 3c 43 a4 35 bd
       0.046355393 0.036612008 0.026997956 -0.044346105
0001c0 71 12 bf bd d6 9d d7 3c ea e1 ba 3d 84 a7 d1 3d
       -0.09329689 0.02632038 0.09125121 0.10237029
0001d0 ca 6f 31 bc 64 ad a2 3a 05 ff a0 3d dd f4 e4 3c
       -0.010829875 0.0012411294 0.07861141 0.027948791
0001e0 ab 28 9b bd 39 99 b4 3d 04 d1 c7 bd 4d 07 65 bd
       -0.07576116 0.088182874 -0.097566634 -0.055915166
0001f0 1e 53 47 bd e3 c2 3a bd 4c 2f 4c bd 35 e1 91 3d
       -0.04866325 -0.045596015 -0.049849793 0.07123033
000200 44 d7 ce bb 4c 9a 30 bd 6f d5 06 3d 8f be 83 3d
       -0.0063122828 -0.0431159 0.03291839 0.064328305
000210 dd b5 69 bb 10 9d 15 3c 70 9d 1e 3d fd 36 15 bc
       -0.0035661377 0.009131685 0.038724363 -0.0091073485
000220 18 e6 39 3b af 53 d7 bc 11 0d 29 bd 68 9e ce 3c
       0.0028365906 -0.02628502 -0.041272227 0.025222018
000230 71 43 48 3c cb 25 7e 3d a5 fa b5 bd 34 0f 06 3e
       0.0122231105 0.06204776 -0.08885697 0.13091737
000240 cf e6 7e 3d 5c 4f e3 3d 78 68 3a bd cf 2b b6 bd
       0.062231835 0.11099121 -0.045509785 -0.088950746
000250 2e d8 88 3d 20 5e 1b bd 22 28 ea bd ec 93 6b bd
       0.06681858 -0.03793156 -0.11433436 -0.057514116
000260 1e 80 c4 bd a4 63 11 bb 20 53 a6 3d a1 ab 98 3c
       -0.09594749 -0.0022184635 0.081213236 0.018636527
000270 39 3e 98 bd b9 70 d1 3d 2e d0 1e bd 27 4b c0 bd
       -0.07433743 0.10226578 -0.038772754 -0.09389334
000280 ca 94 25 3d d5 58 3b bd 5f 85 27 bd 71 ef a8 ba
       0.0404251 -0.045739014 -0.040898677 -0.0012888742
000290 2b 97 8e 3d 1c 91 7b 3d 12 4e 30 3d ff e1 59 3d
       0.06962427 0.061417684 0.043043204 0.053194042
0002a0 a1 78 9e 3d 18 ef e3 3d 59 29 d1 bc b0 0a ca 3d
       0.07737852 0.11129588 -0.025532411 0.0986532
0002b0 02 62 06 bc 26 cb c0 3c 0f 88 e2 bc f9 6f 30 bd
       -0.008202078 0.023534369 -0.027652768 -0.043075535
0002c0 88 db 83 bc 09 26 16 be ea bc 01 3e 89 d5 de bd
       -0.016095892 -0.14662947 0.12669721 -0.10880572
0002d0 93 2d 82 3d 9f dc 04 bc 73 c8 33 bd 40 11 46 bd
       0.06356349 -0.008109241 -0.043892335 -0.048356295
0002e0 e4 f1 3a bc 58 e4 85 3c 8c aa ff 3c 50 bc ae bd
       -0.01141021 0.016344234 0.031209253 -0.085320115
0002f0 55 72 5f bb ab 04 1f bd 3c 45 96 3c d8 ae 0b 3e
       -0.0034095247 -0.03882281 0.01834356 0.13640916
000300 77 25 e1 ba 3e 20 f2 3c 22 24 07 bc 9b 09 d3 3d
       -0.0017177303 0.02955639 -0.008248361 0.103045665
000310 1e 4f 8d 3c df 61 a3 3d e6 a3 25 3d cf bc a7 bd
       0.01724964 0.07977652 0.04043951 -0.08190309
000320 00 82 87 bd 55 ff 44 bd 1b 1b 56 3d f3 c2 06 3e
       -0.066165924 -0.048095066 0.052271944 0.13160305
000330 dd 81 57 3d b8 f2 11 3d b9 43 a6 3d d7 80 49 3d
       0.05261408 0.035631865 0.08118386 0.049195137
000340 db c3 fd bc 03 ee d8 bd bd d2 fa bc 04 b1 8a bc
       -0.03097718 -0.10592272 -0.030618066 -0.01693011
000350 0c dc 9d 3d 4a f8 86 3c 72 42 87 3d 53 ce 01 3e
       0.07707986 0.016475815 0.0660447 0.12676363
000360 93 bb 17 bd 19 99 35 3d da 38 82 3d 01 02 73 3d
       -0.03704412 0.04433546 0.063585 0.059328083
000370 9a a7 a8 3d be f0 8d 3d 2f 95 cb bd 12 3d 33 3d
       0.082350925 0.069306836 -0.09940564 0.043759413
000380 ff 56 a1 bb 11 c5 9d bd ba 25 b9 3a ce a0 7f bc
       -0.004923701 -0.07703603 0.0014125623 -0.015602304
000390 49 60 b7 bd 8a 78 1c 3d 30 fb 31 bd 15 b4 43 bc
       -0.08953912 0.038200893 -0.04345244 -0.01194479
0003a0 dd d3 90 3d c6 4d 1e 3d 86 87 c7 bc 41 7f 7c 3b
       0.0707166 0.03864839 -0.024356615 0.0038527998
0003b0 93 22 0e 3d d7 b8 a3 3d 94 65 6e 3d b9 a2 fb 3d
       0.03470094 0.0799424 0.05820234 0.12286896
0003c0 5d 3c f9 3d 86 cd c0 bc a3 b7 09 3d 6d c1 91 3d
       0.121697165 -0.023535501 0.033622395 0.07116971
0003d0 05 b3 7a 3d a8 30 b2 3d b4 af 37 bd 28 84 0c 3e
       0.061205883 0.08700687 -0.044845298 0.13722289
0003e0 be 6d 0a bc d7 ed fd bc e9 5e d7 bb 5e ea 9e 3d
       -0.008449016 -0.0309972 -0.0065725935 0.07759546
0003f0 be 8e a4 3d b8 29 a7 3d b5 09 72 bd 2e a8 1c 3d
       0.080350384 0.08162254 -0.05909129 0.038246326

lstm.weight_hh_l0 f4 [400, 100]
000000 84 e5 27 3c 8e a4 78 bd 7e 29 1b bd 45 19 e7 bb
       0.010247592 -0.060703807 -0.037881367 -0.007052573
000010 df b9 b6 3c 68 6d 23 bc 93 a7 94 3d 3c c1 1b 3d
       0.022305427 -0.009974815 0.07258525 0.03802608
000020 51 d5 9c 3d a5 01 7a bd 93 a7 93 bd 78 3e 9c bd
       0.076578744 -0.061036725 -0.072096966 -0.076291025
000030 7b 0b 9a 3c ad 50 c8 bc 87 9a 75 bd b3 91 3d 3d
       0.018804302 -0.024452532 -0.059961822 0.046281528
000040 d8 80 d6 bd fa 47 b7 bd 46 f0 c2 3b 9a 12 5e 3d
       -0.10473794 -0.08949275 0.005949053 0.05421696
000050 99 ba bd bb 85 62 6b bd fe db d1 3d fb 20 5d 3d
       -0.0057900664 -0.057467002 0.10247038 0.05398653
000060 f6 02 62 3d ed 09 9b 3d df fc 91 bd 28 a1 38 3d
       0.055178605 0.075702526 -0.071283095 0.045075566
000070 e4 0f 3a 3c e0 76 49 bd 3a e6 9d bb 40 da 41 bc
       0.011356328 -0.049185634 -0.004818705 -0.01183182
000080 c1 a2 51 3d 0e fe b9 bd bd a9 5a 3c 13 55 58 bd
       0.051180605 -0.0908166 0.013346133 -0.052815508
000090 cb f5 2e bd 3c 74 26 3d 4e a4 4f bd 9f 79 03 3c
       -0.042714875 0.040638193 -0.050693803 0.008024602
0000a0 ec 4e 85 bd b2 fb 07 3d 8f a3 8a bc d5 90 14 3e
       -0.06509194 0.03319902 -0.016923694 0.14508374
0000b0 a5 a1 77 bd ba 47 35 bc 06 3d 31 3d ec 77 45 bd
       -0.06045689 -0.011064464 0.043271087 -0.04821007
0000c0 bd cb ba 3d 77 f4 de bc 31 26 d8 bd e0 db 44 3d
       0.09120891 -0.02721618 -0.105541594 0.04806125
0000d0 de d6 b1 3d 5f a6 f5 bc 39 c0 79 bd b6 16 29 3d
       0.08683561 -0.029986558 -0.060974333 0.041281424
0000e0 3c 8a c7 3d 5c 51 0a bd 52 08 be 3d 01 86 b5 3c
       0.09743163 -0.033768997 0.09278931 0.022158625
0000f0 e5 e3 8f 3d ae 7f 2e bd 6e ed 4b bd fe 8e aa bd
       0.07025889 -0.042602234 -0.049786977 -0.08328055
000100 20 9d e4 bb 37 68 01 3d b3 33 b8 bd dc 2c e9 3a
       -0.0069767386 0.031593528 -0.08994236 0.0017789858
000110 1d a5 9c 3d 7d d4 32 3d 4b 2a c7 bd 1a a1 c9 3c
       0.0764868 0.043659676 -0.097248636 0.024612952
000120 85 0b 91 bd 0a 50 27 3c 80 ad 12 3c c8 9f 96 bd
       -0.07082275 0.010211954 0.008952498 -0.073546946
000130 ef c9 d6 bc 78 68 68 3d a9 8e d0 3b df 42 17 3d
       -0.026219336 0.056740254 0.0063646627 0.036929008
000140 e9 cd 36 3d 16 59 80 3d 52 32 ec 3d b7 42 38 3c
       0.044629965 0.06266992 0.11533035 0.011246375
000150 2c c8 13 bd a5 8a 91 bd c4 72 72 3d 53 89 93 bd
       -0.03607957 -0.071065225 0.05919148 -0.07203927
000160 05 9f a7 bd 13 30 3f bc 7a 46 95 3d ca dd 86 bd
       -0.081846274 -0.011669177 0.07288833 -0.06585272
000170 62 2f 19 b9 da 5a a7 3c a0 ec 33 3d 0a 0a 7f 3d
       -0.00014608869 0.020429064 0.043926835 0.062265433
000180 58 a4 a3 3d 2f 40 1e 3b 81 75 9b bd c4 d4 b1 3c
       0.079903305 0.0024147143 -0.075907715 0.0217079
000190 37 80 29 3c 07 a0 ad bd 10 cd 02 3e 9e f7 a3 3b
       0.01034551 -0.084777884 0.12773538 0.0050038835
0001a0 5f 76 e7 3d b0 bb 89 bc a8 91 c4 bd 9d d5 9d 3c
       0.11301874 -0.01681313 -0.09598094 0.019266898
0001b0 4a ea 52 3d a8 cf 75 bd a6 06 3d bd cb 36 40 bd
       0.051492967 -0.06001249 -0.04614892 -0.046927255
0001c0 8b b3 b1 bd 05 9e 91 3d de ff cb bd 80 2d 53 bc
       -0.08676823 0.07110218 -0.09960912 -0.012889266
0001d0 0d e3 ce 3d b3 45 b4 3d ac 9a ed 3d 4a ad c4 bd
       0.101019 0.088023566 0.11601767 -0.09603365
0001e0 87 c9 b0 3d f3 a8 a4 3d 9d b7 d2 3d 17 07 a5 3d
       0.08632188 0.08040037 0.10288928 0.08057993
0001f0 69 91 af 3d 3f 51 e9 3c 3a 30 b2 3d 9e 92 01 3d
       0.08572657 0.028481124 0.08700605 0.031633966
000200 11 ba 26 3d 64 5f 0b be 91 d8 54 3d 0a 67 89 bd
       0.04070479 -0.13610607 0.051964346 -0.06709106
000210 5e 4b a6 3c d2 cf 00 bd 6b da 3a bd 2a 2a 5c 3d
       0.02029961 -0.031448193 -0.045618456 0.05375115
000220 45 da d7 3d 8a 05 53 3d eb 60 1a 3c f8 e8 b0 3b
       0.105396785 0.051518954 0.009422521 0.005398866
000230 63 ad d8 3c 4a 4a b2 3c 94 d9 8e bd ac 97 b2 3d
       0.026449865 0.02176394 -0.069750935 0.08720335
000240 64 c9 05 bd 0e 18 a0 bd de 15 d6 3c 85 ec 63 bd
       -0.032662764 -0.07817088 0.026133474 -0.055645484
000250 9a 4e 9a 3d 21 d2 f9 3c ad 9b 3e bd 20 e7 f6 bb
       0.07534523 0.030495705 -0.046535183 -0.0075348765
000260 0d 25 8f bd a5 81 65 3d e5 a3 c3 3c 6f ff 81 bc
       -0.06989489 0.05603184 0.023881862 -0.01586887
000270 8c 98 5c bd 5c af d2 3d 37 f5 62 bd 1f 34 e8 bd
       -0.053856418 0.102873534 -0.055409636 -0.11338066
000280 94 19 af 3d b7 21 85 bc dd b1 23 bd b4 95 48 3d
       0.085498005 -0.016251428 -0.039964546 0.048970893
000290 a7 c5 7c bc a2 96 e8 3d cf 3f ab bd ca e2 a7 3d
       -0.015427983 0.11356856 -0.0836178 0.081975535
0002a0 f6 1b 01 3d 80 02 cc bd f1 f5 19 3d 7c f1 43 bd
       0.031520806 -0.09961414 0.037588064 -0.04783772
0002b0 e3 ce 62 bd e9 ae ba bd a5 e5 4d 3d 91 99 93 3d
       -0.055373084 -0.09115393 0.050267834 0.07207025
0002c0 96 66 29 3c 76 80 37 3d ab 09 4a bd af 88 9d bd
       0.0103394 0.044800244 -0.049325626 -0.07692086
0002d0 c7 5d ef bc 37 6d 60 3d 8d c0 45 bb d0 ca 88 3d
       -0.029219521 0.054791655 -0.0030174584 0.066793084
0002e0 ff 75 d3 3d ab 74 52 3e 48 34 bd 3c 7d 72 f9 bc
       0.1032524 0.20552318 0.023096219 -0.0304501
0002f0 99 53 0f 3e e4 87 12 3d 8a 0b 1b 3d 9a 7b c3 bd
       0.13996734 0.035774127 0.0378528 -0.095450595
000300 0e 8b 14 bb bd 5c 5b 3c d6 93 c9 3d 31 2e af bc
       -0.002266589 0.01338881 0.098426506 -0.02138433
000310 fa 56 72 bd 67 af 9b bd fa ba b4 bd be 3b e8 bc
       -0.05916498 -0.07601815 -0.088247254 -0.0283488
000320 84 63 8f bd e5 72 2d 3d 8d d8 11 3c fd a5 85 3c
       -0.07001403 0.0423459 0.008901727 0.016314501
000330 59 b6 b8 3d e2 ad fd bc aa 3d d5 bd 94 36 30 bb
       0.09019155 -0.030966703 -0.10412152 -0.0026888
000340 e0 cb 75 bd 91 29 83 3d 01 ba d9 3d bd 7e 28 3d
       -0.060008883 0.064044125 0.106311806 0.041136492
000350 ea 56 a9 bd 14 df a5 3d 78 25 20 bc 2f b8 5a bd
       -0.08268531 0.080991894 -0.009774558 -0.053398307
000360 49 74 5f 3d f4 89 1b 3d 36 c0 88 bd f1 45 a2 bd
       0.054554258 0.03797336 -0.06677286 -0.079234965
000370 e0 02 20 3d 53 b8 01 3d 89 89 90 3d 89 2c 09 bd
       0.03906524 0.031669926 0.07057483 -0.033489738
000380 82 c3 a7 bd 8d 40 65 bc 4e c5 03 bc ce b7 e1 bd
       -0.08191587 -0.013992441 -0.008042647 -0.11021386
000390 6e 78 b4 bc 27 86 82 3d 28 f6 37 3d 02 82 c8 3d
       -0.022030082 0.06373244 0.044912487 0.09790422
0003a0 a1 9c 9e bd 48 bc 0c 3d af ca 3b 3d 83 c5 96 bd
       -0.07744718 0.034359246 0.04584759 -0.07361891
0003b0 04 b5 6e bc 70 0b cb 3d ec e2 82 bd a6 f0 b4 3d
       -0.014569525 0.09914291 -0.06390938 0.088349625
0003c0 77 fb 9f bb 40 7b e4 bd 8f 0f 06 bd e2 ba b3 3b
       -0.004882272 -0.111563206 -0.03272968 0.0054849247
0003d0 8a 45 81 bd 99 92 51 bc 55 62 27 3d c4 06 70 bc
       -0.06312092 -0.012791299 0.04086526 -0.014650051
0003e0 36 18 f9 3d 44 66 ad 3d 48 27 d9 3a f1 44 c5 bd
       0.12162821 0.08466771 0.0016567493 -0.0963229
0003f0 0d 42 cd bd a9 86 a9 3d 64 18 ab bd 87 1a f5 3d
       -0.10022364 0.082776375 -0.083542615 0.1196795

lstm.bias_ih_l0 f4 [400]
000000 6b f8 77 3d d3 97 a6 3d d5 2e 55 bd 34 7e 96 bd
       0.060539644 0.08134427 -0.052046616 -0.0734829
000010 b8 2e b1 bd dd ed 85 bd 50 7e 9f 3c ff 4a 4b bd
       -0.08651489 -0.065395094 0.01946941 -0.04963207
000020 2e 40 b5 3d 85 84 9f 3d eb d9 82 bc 26 c2 bd bb
       0.08850132 0.07788948 -0.015973052 -0.0057909666
000030 9e 41 e4 bc 11 7c 7a bd e5 a8 30 bc 77 35 05 3d
       -0.02786332 -0.061153475 -0.010782455 0.03252169
000040 ac a3 02 bd aa 1d 49 bd d1 ff c6 3d c1 a9 2c 3c
       -0.03189437 -0.049100555 0.09716762 0.010538519
000050 b8 ee 66 bd c6 28 3a bd ea d5 6b 3d cf b6 99 3d
       -0.056380004 -0.04544904 0.05757705 0.07505571
000060 d8 77 0a bd d0 a0 60 3c 30 79 96 3b 5c 52 9b 3d
       -0.0338057 0.013710216 0.0045920834 0.07584068
000070 e4 d8 8b bd c4 84 8d 3d 82 66 0d bd 69 2f a1 3d
       -0.06828478 0.06910089 -0.034521587 0.07870371
000080 14 15 29 bc 64 d4 65 3d 15 2e 9b bd 36 0b 3f 3d
       -0.010319967 0.056110755 -0.07577149 0.04664155
000090 4c cf cd 3d 07 03 fb bc 8a d3 82 bd 8c fb 83 bd
       0.10049304 -0.030641092 -0.06388004 -0.06444463
0000a0 58 85 78 3d d0 91 ea bc fc 0e 18 3d e1 80 88 3d
       0.06067404 -0.028633982 0.037123665 0.06665207
0000b0 1c 2b fd 3d b1 34 3f bd 51 d0 7f 3d 28 bf 99 3d
       0.12361738 -0.04668111 0.062454525 0.07507163
0000c0 1a 67 15 3e f1 7e ea 3c 87 cc 7f bd 78 72 55 bb
       0.14590111 0.028624984 -0.06245091 -0.003256945
0000d0 c6 79 e1 3d a1 38 92 bd 41 b4 ad bc e0 33 65 3a
       0.110095546 -0.07139707 -0.021204116 0.0008743387
0000e0 64 27 29 3d d6 72 e9 3d b0 50 6b 3c d9 e2 b7 3d
       0.04129733 0.11398856 0.014362499 0.08978815
0000f0 24 f0 a5 3d 74 13 c6 3d 10 70 5e bd bf 75 40 3d
       0.08102444 0.09671679 -0.05430609 0.04698729
000100 e7 31 81 3d 30 eb c9 3d e6 fc 3e bb f0 1d 46 3d
       0.06308346 0.098593116 -0.0029142438 0.048368394
000110 17 cc a1 3d cd 2a a2 bc e8 8f 09 3e 61 a1 8c bc
       0.07900255 -0.0197958 0.13433802 -0.017166795
000120 86 ae b2 3d f1 21 db 3d b3 79 0b 3e fd 54 70 3c
       0.08724694 0.10699833 0.13620643 0.0146687
000130 81 c3 45 3d 3f fd ce 3d a9 bf 82 bd 7a 3e 06 bd
       0.04828215 0.101068966 -0.063842125 -0.032774426
000140 11 e0 a7 bd 7c d0 5b bd 60 9a d7 3d 44 45 d8 3d
       -0.08197034 -0.053665623 0.105274916 0.10560086
000150 fa 44 97 bd 21 e4 dc bc 24 56 ba bc 49 4f 2d bc
       -0.07386203 -0.02696425 -0.022746153 -0.010577985
000160 c6 b8 2e bd fe f6 f4 bc 12 99 66 bc 61 bb b7 3d
       -0.042656682 -0.029902931 -0.014074581 0.089712866
000170 bb 09 20 bd df 00 a0 3d ce 27 41 39 e0 5f 2b bd
       -0.03907178 0.07812666 0.00018420743 -0.04183948
000180 ce f4 fd 3c 10 0f b9 3d c9 47 fc bc eb 40 83 bd
       0.031000521 0.09036076 -0.030795949 -0.064088665
000190 db 05 1f bd 74 94 ba 3c e4 d4 58 3d df 10 79 3d
       -0.038823944 0.022775866 0.052937403 0.060807105
0001a0 32 89 87 bd 36 1a 3f bb 00 89 3a bc 6d 3a 9f bd
       -0.06617965 -0.002915991 -0.011385202 -0.07774816
0001b0 15 e9 40 3c ed e3 04 bd 5c d2 a7 bd 63 0a 20 3c
       0.011774321 -0.03244393 -0.0819442 0.009768101
0001c0 f3 ba 96 bd 18 11 9a 3d c0 ee 53 3d 3a c5 5b 3d
       -0.073598765 0.075227916 0.05174136 0.053654887
0001d0 cc b6 86 bc 83 ed 8e 3d 42 3f 27 3d ca a9 c5 3c
       -0.016444586 0.069788955 0.04083181 0.024128813
0001e0 5e 1e 07 3d 6c e7 d3 3d 11 11 92 3d f1 22 ac bc
       0.032987945 0.103468746 0.071321614 -0.021012755
0001f0 0b f7 c5 3d 5f 31 d9 3d e6 fd 43 3d 4f e9 d6 3d
       0.0966626 0.1060512 0.04784956 0.10493719
000200 ed cc d3 3d ab 2d 73 3d 51 d8 5a bc 23 66 20 3d
       0.10341821 0.059369724 -0.013357238 0.039159905
000210 9b 9c c2 3c 4b 55 75 3d 84 a0 b8 3d 8e 3a f1 bc
       0.023756316 0.059895795 0.09014991 -0.029446866
000220 37 63 93 3b 0a 70 23 bd 1f 4b ae 3d a4 2a c8 bd
       0.0044979113 -0.03990177 0.08510422 -0.09773758
000230 7a d2 46 bc d6 38 4e 3d f0 ed 7a 3c 76 bd 00 3d
       -0.012135142 0.05034717 0.015315518 0.031430684
000240 6e 9f 5b 39 4a 80 f1 bc 7a 7b 36 3c 96 2f 8c 3d
       0.0002094486 -0.029480118 0.011137838 0.06845014
000250 1a 06 98 3d 89 73 31 3d c8 1b 29 3d 57 97 d4 3c
       0.07423039 0.043323074 0.04128626 0.02595107
000260 17 71 7b 3d 48 de 55 3c 9e 41 19 3e d8 be a3 3d
       0.061387148 0.013053484 0.14966437 0.07995385
000270 4b aa c0 3c bb da 6e bd da 15 d8 3d 14 36 84 bd
       0.023518702 -0.058314066 0.10551043 -0.06455627
000280 43 58 54 3d 06 16 18 3d c1 b5 43 3c 71 44 b1 3b
       0.051841985 0.03713038 0.011945189 0.00540977
000290 53 85 b6 3d 2b 0d 39 3e 60 c1 18 3a 79 48 c2 bc
       0.08912148 0.1807143 0.0005827155 -0.023716198
0002a0 90 4b 86 ba 96 87 3f 3d 62 1c 88 3d 7f 45 33 bd
       -0.0010245908 0.046760164 0.066460386 -0.04376745
0002b0 4b e2 a1 3d 49 71 b3 3d 1f 22 d8 3c a0 0e b8 bd
       0.0790449 0.08761842 0.026383458 -0.089871645
0002c0 d5 26 83 bb 8a e1 bb bd 88 d2 c9 bd 7c 6e 69 bd
       -0.004002432 -0.091738775 -0.09854609 -0.05699013
0002d0 d0 fb 99 3c 8f fe eb 3d bb e7 95 3c 0b 0c 95 3d
       0.018796831 0.115231626 0.018298974 0.07277688
0002e0 85 6b 93 3d 22 60 44 bb 81 8e 87 3d af 38 1f bd
       0.07198242 -0.0029964526 0.06618977 -0.038872417
0002f0 49 e1 14 3e c6 8f 49 bd 67 4a bf 3d e7 ef b8 bd
       0.14539064 -0.04920938 0.09340363 -0.09030133
000300 ac 3e 4b 3d 06 2a d4 3c 40 40 10 3e 53 77 63 3d
       0.049620315 0.025898945 0.1408701 0.05553372
000310 5f e6 a2 bc 6e 2e 56 bd df f6 9b bd 1b c5 8e bd
       -0.01988524 -0.052290373 -0.07615446 -0.06971189
000320 13 36 18 3d a6 59 59 bb a7 82 40 3d 63 50 26 bd
       0.037160944 -0.0033165007 0.0469996 -0.040604006
000330 63 0a 7b 3d 8e ff 67 3d 4a 08 bd bd 08 67 2c bb
       0.061289202 0.0566402 -0.09230097 -0.0026306529
000340 5a f6 9f bc 18 c6 2f bd 5c f2 6a 3d ac 72 3e bd
       -0.01952665 -0.042913526 0.05736004 -0.04649608
000350 aa a1 d1 3d 9b d2 c8 3c f8 69 b3 3d 71 a2 b4 3d
       0.10235913 0.024514487 0.08760446 0.08820046
000360 ce 14 2a 3d c0 29 e7 bc 5c c7 26 bd 16 02 82 bc
       0.041523747 -0.02821815 -0.040717468 -0.015870135
000370 e3 2d b3 bc c5 0b 21 3b e9 2b 29 3d cc c2 b1 bc
       -0.021872466 0.0024573666 0.04130164 -0.021699332
000380 70 06 94 3d 44 0d f2 bb 1e 63 a2 3d 53 8c 8d 3c
       0.0722779 -0.0073868353 0.07929061 0.017278826
000390 9d cb a2 3b c9 8f 25 bc ab b2 d3 3c 29 4f 8e 3d
       0.0049681203 -0.010105082 0.025842031 0.06948692
0003a0 41 51 8e bd bc c6 c4 bd 9f 89 a5 3c b3 fb b9 3d
       -0.06949092 -0.09608218 0.020207224 0.09081211
0003b0 44 0b 6c 3c d9 1c d7 bb 36 fa b3 bc 17 09 03 bd
       0.014406983 -0.006564718 -0.021969896 -0.03199109
0003c0 72 f9 f6 bc bf 3c 16 3d d5 82 cd bc dd f0 e2 3c
       -0.030148242 0.036679026 -0.0250868 0.027702743
0003d0 89 39 cc 3d 4d 0d 77 bd c8 35 92 3d 24 19 0a 3c
       0.099719115 -0.06031542 0.07139164 0.008428846
0003e0 4c c0 8f bd c6 0b 82 bc 53 29 3f bd 81 59 89 bd
       -0.070190996 -0.015874755 -0.04667027 -0.06706525
0003f0 80 53 bd bd 76 30 d6 bb e8 b2 83 3b 86 62 ef bd
       -0.09244442 -0.0065365387 0.00401913 -0.11688714

lstm.bias_hh_l0 f4 [400]
000000 9c 6e 64 bd 47 34 87 3d a8 7b 81 bd 68 7d 85 bd
       -0.055769548 0.06601768 -0.06322414 -0.0651806
000010 f0 b7 98 3d 41 ca d3 3d 79 a0 c9 3d d9 a4 20 bd
       0.07456958 0.10341311 0.09845061 -0.03921971
000020 c8 86 82 3d 6f ac 8e bd f6 e6 13 3b 7e 98 c0 3d
       0.06373364 -0.06966483 0.0022568083 0.094040856
000030 63 0a 61 bd aa 45 ba bd 40 a9 2e 3c 60 fa 97 3d
       -0.054941546 -0.090953186 0.0106604695 0.07420802
000040 e8 e6 f0 3d ca 0d 5e bd a7 9e c5 3d 4b 57 1e bd
       0.11762792 -0.05421237 0.09649401 -0.038657468
000050 25 80 a3 bd dd fe b8 ba f8 b9 f6 bc 5f 89 e0 3c
       -0.07983426 -0.0014114041 -0.030117974 0.027409254
000060 70 c1 10 bd d9 8c d0 bc 85 ee ba 3c 58 9c 6d bc
       -0.035340726 -0.025457786 0.022818813 -0.014502607
000070 da ff 62 bd c2 3d dc 3d df f5 72 bd bb cf ba 3d
       -0.05541978 0.10753967 -0.059316512 0.09121653
000080 4e aa 48 3c f1 24 b2 3d 2e 16 4a bc db 9c a9 3c
       0.012247635 0.08698452 -0.01233439 0.020704677
000090 e4 45 59 3d ff 47 72 3c c6 22 a9 3d 3f 0e 83 3c
       0.05304517 0.014787673 0.08258586 0.015998004
0000a0 17 33 62 bc 81 1b 16 3e 2e 75 91 bd e7 b0 b9 3d
       -0.013806126 0.1465893 -0.071024284 0.090669446
0000b0 cc 32 91 3d 99 08 af bb 26 05 de 3a 48 0d 95 bd
       0.07089767 -0.005341601 0.001693879 -0.07277924
0000c0 eb 36 81 bc cf 23 97 3d dc 5c 58 3d c7 f2 2c 3d
       -0.015773257 0.07379877 0.052822933 0.042223718
0000d0 6c 68 d6 3d 7d bb 93 3d 6a 40 b6 3d 68 e0 8d 3d
       0.10469136 0.07213495 0.08899005 0.06927568
0000e0 9c 4b 1e 3d 06 9d 30 3d e2 b4 3c 3d 8c 61 2a 3d
       0.038646325 0.0431185 0.04607094 0.041596934
0000f0 ab fe 45 3c ac fb bf 3d 75 31 b8 bc 43 ae 3f 3d
       0.012084643 0.093741745 -0.02248452 0.04679705
000100 26 58 c0 3c 72 66 8d 3d 3c ac 3c bd 72 4d cb 3c
       0.023479532 0.069043055 -0.046062693 0.024817202
000110 0f d6 1c 3d 83 63 81 3d 03 b6 d9 3c 3f 22 09 3d
       0.03829008 0.063178085 0.026576048 0.033479925
000120 9a 2e 9d bd 45 10 c1 bb 8f 00 57 bc d0 34 e3 3d
       -0.07674904 -0.005891832 -0.013122692 0.110940576
000130 9b 37 2c 3d 1d 28 7f 3c cb e5 88 bd a6 3f c0 3d
       0.042045217 0.015573529 -0.066844545 0.0938714
000140 27 b0 22 3d bc 09 5c 3d 66 7c cf bc 08 83 03 bd
       0.039718773 0.05372022 -0.025327872 -0.032107383
000150 27 f3 ea bc 84 e8 b4 3d 40 7a f1 3c 7e 7e b6 3d
       -0.028680397 0.08833411 0.029477239 0.08910845
000160 81 55 c1 39 48 42 a9 3d 49 6c 16 bd 83 e1 58 bd
       0.00036875534 0.08264595 -0.036724363 -0.05294944
000170 96 39 61 3c 08 a5 0c bd 99 f5 d2 3d eb 91 a4 bb
       0.01374664 -0.034337074 0.1030075 -0.0050222776
000180 cd 0e 34 bc 0a 10 07 3d 69 37 a4 3c e7 a4 8e 3d
       -0.010989857 0.03297428 0.020045953 0.069650464
000190 1f 9f 98 bd 33 46 b9 3d 0a 39 ac bd 60 dd 3d bd
       -0.07452225 0.090465926 -0.08409317 -0.046353698
0001a0 28 7d 57 3c 67 d6 9b 3d e2 28 9f bd 45 be b4 bc
       0.013152398 0.076092534 -0.0777147 -0.022063384
0001b0 2d 42 a5 3d 35 64 57 bd 54 49 df 3c dc a6 50 3d
       0.08069263 -0.0525858 0.027256645 0.05094038
0001c0 bb d6 f9 bc 2c 1e c4 3d 6c f5 1a bd 2f da a6 bd
       -0.0304979 0.09576067 -0.03783171 -0.08147084
0001d0 1e 51 c4 3c dd 2a a6 3c 64 07 8d 3d d9 84 ac 3d
       0.023964461 0.02028411 0.06886175 0.08423776
0001e0 73 d9 d7 3d 05 98 24 3d 28 0f 16 bc b9 c2 d2 bc
       0.10539522 0.04018404 -0.009158887 -0.025727617
0001f0 ed 1c 8e 3d 97 3c 3b 3d e1 df 51 3c c7 6d bc 3d
       0.06939111 0.04571208 0.012809725 0.09200626
000200 6d 74 a4 3d b4 22 c1 3d fb 50 a4 3d 7b 13 90 3d
       0.08030019 0.09430447 0.08023258 0.070349656
000210 13 b5 be bd c9 bb d7 bc 48 c3 92 3d 34 11 c6 3d
       -0.09311881 -0.02633466 0.07166153 0.0967125
000220 3b 56 b3 3d 53 72 9f bd e5 50 d2 3d d2 bc 97 3d
       0.087566815 -0.077854775 0.10269336 0.074090615
000230 e6 dd f9 3d 5b 09 e7 3b 6e b6 8c 3b 42 3e 89 bc
       0.12200527 0.007050676 0.0042942083 -0.01675332
000240 3f a8 09 3d a9 50 86 3d ca 5e b5 3d f6 e4 7d bd
       0.033607718 0.065583535 0.0885597 -0.061985932
000250 c7 c3 02 3e b6 f1 ae bc 89 a1 15 bd cb 3e 2c 3c
       0.12769996 -0.021355491 -0.036531005 0.010513018
000260 e2 3a 9f 3d fd f6 98 bc 6e cf 3d 3d 3d 84 05 3d
       0.07774903 -0.01867246 0.0463404 0.032596815
000270 48 d9 16 3e 99 31 ce 3d 90 47 9e bb 9a 80 88 3c
       0.14731324 0.10068054 -0.0048303083 0.016662885
000280 eb f3 fb bc 75 fb f0 bb 8f 2c 0f bc 3d ad f1 3c
       -0.030755958 -0.0073541948 -0.008738651 0.029501552
000290 7d 2d 1b bd 0a bf 5a 3d 35 d3 d1 bc 9d aa 43 3d
       -0.037885178 0.053404845 -0.025613407 0.04777013
0002a0 86 f0 c7 b8 c8 6a 5d bd f8 ab d7 3d 68 b3 29 bd
       -9.5338604e-05 -0.054056913 0.10530847 -0.04143086
0002b0 63 4e b3 3d 5e e0 27 bd b6 e8 a2 3d 98 75 7d 3c
       0.087551855 -0.040985458 0.07954542 0.015469931
0002c0 6b 5d ac bd 6f 90 47 bd 39 92 99 3d 62 62 46 3d
       -0.084162556 -0.048721727 0.07498593 0.04843367
0002d0 eb b2 07 bd 3e 12 d7 3c 8f 72 c2 3d 4f 38 c0 3d
       -0.033129614 0.026253816 0.094945066 0.0938574
0002e0 af 97 8b 3d 4c 92 c8 bc 8b 2c 27 bd 1e 2d 97 3c
       0.06816041 -0.024483822 -0.040813964 0.01845413
0002f0 d0 ec 28 bc 82 44 5e bd f1 3a c2 3d fb de 83 3d
       -0.010310367 -0.054264553 0.094838984 0.064390145
000300 00 87 84 37 2f 50 c9 3d 0c c6 30 bd 93 67 83 bc
       1.579849e-05 0.09829747 -0.043157622 -0.016040599
000310 7c b1 bd 3d 2e f8 c6 3d e5 b3 81 bc ab b3 b2 bd
       0.09262368 0.09715305 -0.01583285 -0.08725675
000320 1e 09 1c 3c 6f 3c b4 3d 6b 0b 60 3d 08 e2 b5 bd
       0.009523658 0.08800589 0.05469839 -0.08881003
000330 f4 35 ca bd 6a 25 66 3d 24 55 90 3d ab 94 56 3d
       -0.09873572 0.056188025 0.07047489 0.052387875
000340 17 a6 ad 3d a6 7a c4 bd c8 b6 c3 3d 1e df a8 3d
       0.08478945 -0.09593706 0.09556347 0.08245681
000350 a6 91 b1 bd dd cf e9 38 fa a6 af bd f7 ea 89 3d
       -0.08670358 0.00011149023 -0.0857677 0.06734269
000360 04 d1 0d bd 4b 40 ca 3d 79 9d c8 bc 89 53 9c 3d
       -0.03462316 0.09875544 -0.024489151 0.076331206
000370 53 5f 36 3d f1 02 b8 3d 25 f7 e3 3d 85 0e 52 3d
       0.044524502 0.08984936 0.111311235 0.05128338
000380 40 50 05 bd 2d a3 c0 bd ce 1e 69 3c 4a 94 bd bd
       -0.032547235 -0.09406123 0.014228536 -0.092567995
000390 48 02 02 3c b2 2b 92 3d 99 62 e7 3d cb 89 8b 3d
       0.007935114 0.071372405 0.11298103 0.06813391
0003a0 b9 ec 99 3c 24 ac 9d 3d d7 2a be bd 7f ce b3 3d
       0.018789636 0.07698849 -0.09285515 0.087796204
0003b0 7c 7e a3 3d 6b 6b 40 3d c1 4a 9c 3d a4 5d bf 3a
       0.07983109 0.04697744 0.07631446 0.0014600051
0003c0 d1 3d 24 3d 17 94 2f bd 92 a8 27 bc 6a 00 aa 3d
       0.040098015 -0.04286584 -0.010233061 0.0830086
0003d0 8b 16 b7 bd b5 62 86 3d 1b d9 13 bb 1a 61 8f bd
       -0.089398466 0.065617956 -0.0022559825 -0.070009425
0003e0 68 43 6b 3d 06 f1 df 3b 38 27 18 3c 7f fe f4 3c
       0.05743733 0.006834152 0.009286694 0.02990651
0003f0 8f d1 ed bb 44 8c 94 3c 2e e3 ad 3d 57 c0 85 bd
       -0.0072576473 0.01813329 0.08490597 -0.065308265

lstm.weight_ih_l1 f4 [400, 100]
000000 27 b6 db 3d e3 f7 18 bc b2 4d 0f 3d ef 6f f5 bc
       0.10728102 -0.009336445 0.034986205 -0.0299606
000010 0e 2f c6 bd 7c 64 33 bd e6 01 c5 bc f9 fc a3 bd
       -0.09676944 -0.043797 -0.024048757 -0.08007235
000020 14 49 51 3c e3 c9 9d bd 53 20 99 3d fa 40 3c bc
       0.012773771 -0.077045225 0.074768685 -0.011490101
000030 ae b4 71 bd 5a 97 b2 bd 5a ef 9a bd 96 ac dd bc
       -0.0590102 -0.08720274 -0.07565184 -0.027059834
000040 6b 02 8c bd e7 01 47 3d e2 fb 70 3d e8 80 b8 3d
       -0.06836399 0.0485858 0.058833964 0.09008962
000050 d0 94 cf 3c c3 9a ac bc af f6 e4 bc 14 05 70 3d
       0.025339514 -0.02106989 -0.02794966 0.058598593
000060 f2 1e ee 3c 18 f7 36 3d f3 1d 97 3d 97 9f 94 bd
       0.02906749 0.04466924 0.07378759 -0.07257002
000070 ed a4 64 3d c4 25 f5 b8 81 df 8c 3d 19 c6 dc bc
       0.055821348 -0.00011689545 0.068785675 -0.02694993
000080 64 a2 81 bd fd 1c 58 bd dc 5a 1a bc 8b a8 89 3d
       -0.06329802 -0.05276202 -0.009421077 0.067216
000090 f4 ff 3c 3c 01 2a 87 3a db 92 95 bd 4d 4c 56 3d
       0.011535633 0.0010312201 -0.07303401 0.05231886
0000a0 cb fa 4f bd a9 42 24 3c 06 fd 88 bc 27 42 28 3d
       -0.050776284 0.010025659 -0.016722213 0.041078713
0000b0 79 13 c5 3d 11 0a ff bc eb aa 31 bd a2 9c 09 bd
       0.09622855 -0.03113273 -0.04337589 -0.033596642
0000c0 e0 75 47 3d b6 9f 78 bd 4a df 7e bd a2 b8 67 3d
       0.0486964 -0.060699187 -0.062224664 0.056572564
0000d0 48 5f c6 3c ed 8e 25 bd 32 60 9a 3d 8c 5a 2b bd
       0.024215356 -0.040419508 0.07537879 -0.0418344
0000e0 cb cc c6 3d fa 90 62 3d 1b 41 96 3d 45 47 20 bd
       0.0970703 0.05531404 0.07336637 -0.039130468
0000f0 ce da e5 bc cb ab 58 bd a1 df 21 3c 1d 04 e8 3c
       -0.028058436 -0.05289821 0.009879977 0.028322274
000100 c3 8e b3 3c 10 62 5b bd cd 3c 61 bd bc 5d 9e bc
       0.02191866 -0.053560317 -0.054989625 -0.019331805
000110 14 75 c1 bb cd 72 d3 3c d3 0c c0 3c 36 65 a1 3d
       -0.0059038494 0.025811577 0.023443615 0.078806326
000120 7d d1 21 3d 8c 3f 58 bd 60 b5 37 bd 24 92 ba bd
       0.039506424 -0.052794978 -0.044850707 -0.09109905
000130 01 59 1c 3d e3 a2 5c bc 97 b5 00 be aa 51 d9 3d
       0.03817082 -0.01346657 -0.12569271 0.10611279
000140 ee af f6 3a cf 82 3b 3d 3c 91 40 3d 50 b3 53 3d
       0.0018820742 0.045779046 0.047013506 0.051684678
000150 de 6c 10 3d 1b a4 a2 bb ae ce a2 bd da 7a aa bc
       0.035260074 -0.0049634106 -0.07949577 -0.020810533
000160 a2 5f 82 ba c7 61 42 3d 3c 43 bf bd 28 0d 36 3d
       -0.0009946714 0.04745653 -0.09338996 0.04444614
000170 68 e9 82 bd fb 62 1b 3d c2 74 e6 bd 36 47 c9 bb
       -0.06392175 0.037936192 -0.112527385 -0.006142522
000180 c4 dd 8f 3d 24 dd f4 3c ea 85 58 bd b4 8d 9e 3d
       0.0702472 0.029890604 -0.052862085 0.077418715
000190 21 ce b5 3d 8a 14 d6 bd 55 1a 2a bd ce 04 0e bd
       0.088772066 -0.10453136 -0.04152902 -0.03467255
0001a0 ed 33 03 bd 66 90 ad bd e8 f2 ac bc 11 2b 81 3d
       -0.032031942 -0.084748074 -0.02111192 0.063070424
0001b0 56 93 a5 bd b4 72 51 bd 09 f9 6a bd 3b 96 11 bd
       -0.08084743 -0.05113478 -0.057366405 -0.03554366
0001c0 87 89 19 bd fd 0e 9e 3d d9 70 42 bd 7e 97 88 bd
       -0.037484672 0.077177025 -0.0474709 -0.0666952
0001d0 79 f1 0c bd 7f b2 69 3d 43 d4 6c bd 7b 16 1e bd
       -0.034409974 0.057054993 -0.057819616 -0.038595658
0001e0 58 c2 84 b7 0a 8c c3 3d 4b 6f 91 3d cf 81 9c bd
       -1.5826125e-05 0.09548195 0.071013056 -0.076419465
0001f0 e1 46 23 3d 7f 03 19 3d fb 42 a2 bd e9 0f 74 3c
       0.039862517 0.03735685 -0.07922932 0.014896371
000200 8f 71 ae 3c ff ca 24 bd a0 ad 70 3d f4 93 15 3d
       0.021294383 -0.040232655 0.05875933 0.036518052
000210 ba 81 71 3d 44 5c 96 bd b3 07 58 bd e0 9e 4a bd
       0.058961608 -0.07341817 -0.052741718 -0.04946792
000220 e2 6e c1 3c 8d 4a 98 bd 2f 3d eb 3c d7 5d 79 bd
       0.023612443 -0.074360944 0.028715698 -0.06088051
000230 61 d2 9a bb 2c 7a 15 bb 24 58 7e bd 3c b5 0f bc
       -0.004724786 -0.0022808416 -0.062095776 -0.008771237
000240 70 ff 8d bc 13 1f c8 3b 5a 55 93 3c 3d ca 88 bd
       -0.017333716 0.00610722 0.017985035 -0.06679199
000250 52 1d 52 3d 6f a2 0c bb 0e 21 ab 38 ee d7 aa 3d
       0.051297493 -0.0021459123 8.160072e-05 0.083419666
000260 c7 3c ea 3d 12 28 8c 3d 7a 06 c6 bd b7 96 ef 3c
       0.114373736 0.0684358 -0.09669204 0.029246671
000270 19 2c 23 3d e2 08 88 bc 38 00 90 bd 30 db 82 bd
       0.039836977 -0.016605798 -0.07031292 -0.06389463
000280 ae c6 f7 3c 8e fe fe 3c 92 05 33 3d fa 24 db bd
       0.030246105 0.03112724 0.043706484 -0.10700412
000290 d6 67 ae bd e3 0b e9 bc 80 f9 82 3d 0f af 84 bd
       -0.08515899 -0.02844805 0.063952446 -0.06478702
0002a0 80 3f 9d 3d e6 92 a6 3d e4 4d 22 3d 59 1c 0b 3d
       0.07678127 0.081334874 0.039625064 0.03396258
0002b0 8c df b7 3d 86 57 c1 bd a5 75 8d 3d e0 19 b1 3d
       0.08978185 -0.09440522 0.069072045 0.086475134
0002c0 10 c3 a0 bd 25 7d bf bb 2c 39 12 3d 81 33 6a bc
       -0.07849705 -0.005843776 0.035699055 -0.014294506
0002d0 ff b4 cf bd 49 c7 a0 bd f5 04 82 bd 5c 95 32 bd
       -0.10141944 -0.078505106 -0.06348602 -0.04359947
0002e0 0b df bf 3d c9 63 5f 3d 14 67 14 bd c4 2a a2 3c
       0.09368714 0.054538522 -0.036231115 0.019795783
0002f0 e7 8a 17 bd 6b 72 b8 3d 16 f3 91 3d 89 cb d1 bc
       -0.036997702 0.090061985 0.07126443 -0.025609748
000300 8a 60 d1 3d 6a e3 60 bc fb 8e 5b bc 94 ff b2 bc
       0.102234915 -0.013726095 -0.013400788 -0.021850385
000310 58 c4 3e bd 7c 50 1f bc bf 21 78 3d 17 d8 ab 3d
       -0.046573967 -0.009723779 0.060579058 0.08390825
000320 2d 40 9b 3d 98 27 5d bd 0f c1 5c bd 45 b5 6a 3d
       0.075806 -0.053992838 -0.053895053 0.05730178
000330 c9 97 80 3d 31 6a a5 bd 77 d2 c3 3d 36 26 39 bd
       0.06278951 -0.08076895 0.09561627 -0.045202456
000340 88 c2 09 3b a1 26 3b bd 38 13 4c 3d 9a f8 f8 bc
       0.002102049 -0.045691136 0.049823016 -0.03039198
000350 8a b8 5c bd f4 2e 20 3d 70 4f 09 3e 1b d8 9c bd
       -0.053886928 0.039107278 0.13409209 -0.07658406
000360 75 0e 97 3d 00 e0 c2 bc e5 a4 d8 3d 65 a9 a4 3d
       0.07375804 -0.023788452 0.10578326 0.08040122
000370 ba d3 1b bd e5 c3 a4 3b 97 87 79 3d 53 d3 72 bd
       -0.038043715 0.0050282353 0.060920324 -0.059283566
000380 b0 0c 1b 3d 5a 2c c5 3d 1b ff 98 3d 96 09 80 bc
       0.037853897 0.096276 0.074705325 -0.01562957
000390 12 d4 9f bd 57 f1 2d 3d 04 bb 03 bd 8e ce 5a 3b
       -0.07804121 0.042466488 -0.032160774 0.0033387276
0003a0 c2 e2 c2 3d 85 86 a6 3d 19 69 99 bb 8d 90 57 3d
       0.09515907 0.08131126 -0.004681718 0.05262809
0003b0 0e 91 d6 3c 22 d8 16 bd b0 eb 10 be 92 38 ab bd
       0.026192214 -0.036827214 -0.14152408 -0.08360399
0003c0 7f 0e d2 3d 41 c1 d7 bb 53 66 b3 bc ef de fb bd
       0.10256671 -0.006584317 -0.021899378 -0.122983806
0003d0 38 71 41 bd 73 53 39 3d ee 55 ee 3c 7e 7a 07 bd
       -0.047227114 0.0452456 0.029093709 -0.033075802
0003e0 b5 9f ac bd 8d 63 26 bd ed 36 c1 bd 31 60 53 3c
       -0.08428899 -0.040622283 -0.094343044 0.012901352
0003f0 a5 18 40 3d 91 e1 c8 3d 6c dd 32 bd 9a 7c 71 3d
       0.046898503 0.098086484 -0.043668196 0.05895672

lstm.weight_hh_l1 f4 [400, 100]
000000 0b 31 5f 3d 76 5b ba 3d 61 38 8e bd a0 0b 00 3e
       0.05449013 0.09099476 -0.06944347 0.12504435
000010 c1 19 8e 3d 48 f3 0f 3d 72 5e 94 bd 05 24 3b 3d
       0.06938506 0.03514412 -0.072445765 0.045688648
000020 73 40 1a 3e b7 12 9c 3d ca dc 2b 3d 7c 83 8b bd
       0.15063648 0.07620757 0.041958608 -0.06812188
000030 09 96 ca 3d bf ea ff bc 50 d3 64 bd af 00 9c 3d
       0.09891898 -0.031239865 -0.055865586 0.07617318
000040 37 22 25 bd e6 69 24 3e ee 55 77 3c cc 07 81 bd
       -0.040315833 0.16056022 0.015096171 -0.06300315
000050 d0 bc a2 3d d3 59 dd bc ad 9d 81 3d 60 22 b7 bd
       0.079461694 -0.02702037 0.063289024 -0.089421034
000060 79 42 ce 3d 27 cd 69 3d b3 05 97 3d 88 93 61 3d
       0.100712724 0.057080414 0.07374134 0.055072337
000070 42 05 82 3c 71 4a c5 ba 64 11 a2 3b c7 77 41 bd
       0.015871648 -0.0015052092 0.004945921 -0.04723337
000080 c2 c0 71 bd 6f e0 16 bd 66 35 45 bd 19 aa 2d bd
       -0.05902172 -0.03683513 -0.048146628 -0.042398546
000090 39 aa 95 3d 33 29 34 3d 52 51 de bd 26 c5 dd bd
       0.07307858 0.043984603 -0.10855354 -0.10828619
0000a0 5c 82 7a 3d b2 97 3a bd a5 24 03 3a 19 88 8d bb
       0.061159477 -0.045554824 0.0005002714 -0.0043192026
0000b0 5b 29 4d 3d 73 b4 39 3d 7c 00 98 ba 05 90 d4 3c
       0.050088268 0.045338105 -0.0011596824 0.02594758
0000c0 50 30 b7 bd 83 85 f0 bd 79 8c 3e bd 76 75 84 bd
       -0.08944762 -0.11744215 -0.046520684 -0.064677164
0000d0 98 34 85 3d c3 33 c4 bc df 42 d9 3d c2 ea 28 be
       0.06504172 -0.023950463 0.10608458 -0.16495803
0000e0 e7 af 5a bd 66 3e 85 3c 93 c2 90 bd 10 ee 79 bd
       -0.05339041 0.016265105 -0.07068362 -0.06101805
0000f0 96 b1 0b 3d 41 29 20 3d 5f 99 70 3d f5 3a 67 bd
       0.034104906 0.039101843 0.058740016 -0.05645271
000100 49 e3 a2 bd f9 69 b3 bd cd 19 71 bd 34 39 36 bb
       -0.079535075 -0.08760447 -0.058862496 -0.0027805092
000110 ad 4e a4 3c 35 c6 87 bd e0 cf da bd 81 c7 d5 3d
       0.020057047 -0.06629602 -0.1068418 0.10438443
000120 0d 8b b8 bd a6 92 a5 bd 88 a0 e3 bd 35 06 bb bd
       -0.09010897 -0.080846116 -0.11114603 -0.09132043
000130 3d 81 ac 3d 72 9d 75 bd d4 35 9f 3d 56 a5 b6 bc
       0.08423088 -0.059964605 0.07773939 -0.022295635
000140 f0 d0 8c bb 15 d6 b3 3d d7 01 36 3a ce b6 13 bd
       -0.004297368 0.08781067 0.0006943023 -0.036063008
000150 5c b1 3c bc fd 8c 1a 3d cb 3b fa bb a9 bf f3 3c
       -0.011516895 0.037732113 -0.0076365224 0.029754477
000160 a4 25 c6 bd ae da bc 3d 63 1d 3e 3d 0c 8a f2 3c
       -0.09675148 0.09221397 0.046414744 0.029606842
000170 39 36 e3 3c cb 8a 9d bd 2a ea 4b bc c0 01 bf bd
       0.027735816 -0.07692488 -0.012445966 -0.09326506
000180 b2 bc 08 bd 89 57 40 3d b7 10 3f bc 3d df b9 bd
       -0.03338308 0.04695848 -0.0116617 -0.090757824
000190 66 cf 81 3d 46 9b 80 3d 4a 10 8c 3d 29 3b 10 3c
       0.06338386 0.06279616 0.068390444 0.008803167
0001a0 ed b5 9d bd a1 c3 aa 3d 11 80 88 bc 52 09 9e bc
       -0.07700715 0.083380945 -0.01666263 -0.019291554
0001b0 45 d4 52 bd e2 c3 87 3d 1a 7d 95 bd 40 a9 b9 bd
       -0.051471967 0.066291586 -0.07299252 -0.09065485
0001c0 8f 83 33 3d d6 e4 a3 3d 02 a1 18 3d 42 41 46 3c
       0.043826636 0.08002631 0.037262924 0.01210052
0001d0 f3 c4 a1 bd b8 1e 4e bc 0d 3d 07 3d 98 18 ae bd
       -0.07898893 -0.012580566 0.033017207 -0.08500785
0001e0 bb 9b 03 bd 95 d2 c1 bc 05 26 01 bd 36 b9 af 3c
       -0.032130938 -0.023659984 -0.0315304 0.02145062
0001f0 be fd 8f 3d fa ce 94 bd 60 0e 24 bd cd fb 3a 3d
       0.07030819 -0.0726604 -0.04005277 0.045650292
000200 6e a1 68 3d e0 3b 0f 3b 4c 68 bd bd 0c 2d 7f 3c
       0.056794576 0.0021855757 -0.09248409 0.015574705
000210 9c 15 25 bc fb c8 2f bd 3f 1e 0e bd ee cb d0 bd
       -0.010075953 -0.04291628 -0.034696814 -0.101951465
000220 cd 17 8f 3c 6f 4b 99 bd 57 70 b2 3d e5 fd c8 bd
       0.017467404 -0.07485091 0.087128334 -0.098140515
000230 1f cb 9c bc a4 ce 6d 3b 2c 55 d1 3d a6 90 97 3d
       -0.019139824 0.0036286497 0.10221323 0.074006364
000240 01 af b0 bd f4 b4 fc bc a9 a8 18 3d 65 e3 da 3c
       -0.08627129 -0.030848004 0.03727022 0.026719758
000250 fe 47 8f bd 79 7b ac 3d b8 72 a9 3c c3 fc b2 bb
       -0.06996153 0.08421988 0.020684585 -0.0054622605
000260 e7 3f b3 3d fa e5 71 3c 5f 1a a3 bc 19 58 bb 3d
       0.08752423 0.014764303 -0.019910036 0.09147663
000270 87 dc 91 3d 3e 81 96 3c 8b 0c ac 3d e8 89 9a bc
       0.071221404 0.018372174 0.0840083 -0.018864587
000280 ed 7c c4 bd 64 a8 a4 bd 5c cd 64 3d 3d f1 31 bd
       -0.0959414 -0.080399305 0.05585991 -0.043442953
000290 63 1f 8c bd 84 8a c3 bd d4 2d a0 3d df 88 90 3d
       -0.06841924 -0.09547904 0.07821241 0.07057356
0002a0 52 4e 2b 3c 32 7c 5a bc f6 4c 02 bd 55 97 a5 3d
       0.010455685 -0.0133352745 -0.031811677 0.08085505
0002b0 2c 79 9b 3d b7 cd d9 bc 92 df ad bd 08 5f 8b 3d
       0.07591471 -0.02658735 -0.08489908 0.06805235
0002c0 04 a1 df 3c 83 4b bd bc a9 74 d9 bc 4e 80 39 bd
       0.027298458 -0.023107296 -0.026544886 -0.045288377
0002d0 91 f7 17 3d 6d 41 ad 3b a1 61 9e bd f6 c8 1c 3d
       0.037101332 0.0052873404 -0.07733465 0.03827759
0002e0 5d 54 37 3c ee fa 16 3d a8 7d 3b bd 56 a6 c9 3d
       0.011189547 0.0368604 -0.045774132 0.09846179
0002f0 61 eb c5 bc 29 4f ac 3d ad 7d a0 3d a9 32 78 bd
       -0.024160089 0.08413536 0.07836471 -0.06059519
000300 9f da 6f 3d 73 d9 80 3d de a1 d8 3d f3 ff 8f 3d
       0.058558103 0.06291475 0.10577749 0.0703124
000310 34 96 8d 3c 20 85 d7 3b 0e 59 2a 3d 8c 15 82 bd
       0.017283536 0.006577149 0.041588835 -0.06351766
000320 a3 49 b2 3c 75 82 56 bd b3 02 b5 bd 8e 14 15 3d
       0.021763628 -0.052370507 -0.088384055 0.036396556
000330 11 c9 e6 3b 2d 6f 95 bd 87 db 3f 3d e2 36 a9 bd
       0.007043012 -0.07296596 0.046840217 -0.08262421
000340 d6 7f 0a 3e 6c a7 45 be de 72 8b bd 82 5e 95 3d
       0.13525328 -0.19302148 -0.068090186 0.072934166
000350 66 98 48 3c f9 74 bb 3d 8d 8f 05 3d 3e 3e d3 3d
       0.012243366 0.0915317 0.032607604 0.10314606
000360 40 25 66 3d 33 b5 e3 ba 68 aa b5 3d 25 51 58 bc
       0.056187868 -0.0017372727 0.08870393 -0.01320294
000370 0d c9 82 bd 06 d6 a5 bd 39 3c 37 bd 00 62 48 bc
       -0.06386004 -0.08097462 -0.044735167 -0.012230396
000380 11 a7 d9 3c 0e cd dc 3c e1 b6 80 bd db b3 ec 3d
       0.026568921 0.026953246 -0.062848814 0.11557742
000390 b4 92 f8 bc f9 a6 c2 3c 4c f7 93 bd b1 61 dc 3c
       -0.030343391 0.02376126 -0.072249025 0.026902052
0003a0 1a c5 81 bb de e8 be 3d 5b 80 ed bc 1f 2f 93 bd
       -0.003960264 0.0932176 -0.028991869 -0.07186722
0003b0 3e b0 b4 bd ec 15 a9 3d d6 53 a2 bd 45 84 15 3d
       -0.08822678 0.082561344 -0.07926147 0.036503095
0003c0 31 c8 1d bc e7 0f 7d bb 70 1f cd bd 0e 91 52 3d
       -0.009630249 -0.0038614215 -0.10015762 0.051407866
0003d0 a7 3f 82 bd 24 97 62 3c fe b4 59 bd 77 e3 f5 3c
       -0.06359797 0.01382998 -0.053151123 0.03001569
0003e0 14 d5 b7 bd 22 3a bb 3d aa b5 60 bd 60 64 f1 3c
       -0.08976188 0.09141947 -0.05486075 0.029466808
0003f0 ed 99 ec bd cc 7b dd 3d eb 04 9c 3c 60 31 89 bb
       -0.115527965 0.10814628 0.019045314 -0.004186794

lstm.bias_ih_l1 f4 [400]
000000 6c 39 28 bd 52 ab 73 3d dc bf ac 3c f8 5f 86 3d
       -0.041070387 0.059489556 0.02108758 0.06561273
000010 5e 50 8f 3d d1 6a 07 3d bb 57 38 bc 81 79 82 bd
       0.06997751 0.033060852 -0.011251385 -0.06370831
000020 64 36 9e bb 75 9b 95 3d db 9b f2 bb 27 1f 89 3d
       -0.004828261 0.07305042 -0.0074038333 0.06695395
000030 44 11 0f 3d 87 e5 92 3d 52 7a 28 bd d6 a1 67 bd
       0.034928575 0.07172685 -0.04113228 -0.056550823
000040 27 5f 69 3d 0e 3c 70 3d af 95 a9 bd 33 41 0b 3d
       0.05697551 0.058651023 -0.08280503 0.033997726
000050 3e b1 86 bd 89 b4 82 bd 72 28 b2 bd aa 32 cd 3d
       -0.06576775 -0.063820906 -0.086991206 0.10019429
000060 fc 97 cc 3c f1 e7 da 3c 33 19 c3 3c 28 38 95 bd
       0.024974816 0.026721926 0.023815727 -0.072861016
000070 e9 dc 6f 3d 08 10 23 3c 50 6e 89 3d 4b 9a 87 3c
       0.058560286 0.009952553 0.067104936 0.016553065
000080 96 10 15 3c 16 8e 5d 3d 2e dd 40 3c b6 72 d6 bc
       0.009098193 0.05409058 0.011771483 -0.026177745
000090 72 83 a0 3b 14 44 3c 3c 82 23 c7 bd 46 44 4c bd
       0.004898482 0.01149084 -0.097235695 -0.049869798
0000a0 16 4d 24 3d c8 90 2c bd b7 c0 92 3d 52 ed 97 bd
       0.040112577 -0.04213026 0.07165664 -0.07418312
0000b0 84 48 ac ba fb 99 74 bd cd c9 95 bc 0d 82 d2 3d
       -0.001314417 -0.05971716 -0.018284703 0.102787115
0000c0 1c 4a 6f bd 8e c3 2e 3d e1 0d 5e 3d 25 5f 81 3d
       -0.058420286 0.042666964 0.054212455 0.063169755
0000d0 28 f2 9e bc 40 d2 75 bd b9 a5 73 bc 63 a6 56 3c
       -0.019402578 -0.060014963 -0.014871054 0.013101193
0000e0 72 5e ae bd 65 58 bd 3c b4 42 8a 3d 1b b5 b6 bd
       -0.08514108 0.023113439 0.06751004 -0.08921262
0000f0 25 14 8a 3d 40 fe 8f 3d ed b7 a7 bd fb 9e 7e 3d
       0.067421235 0.07030916 -0.08189378 0.062163334
000100 ce d9 bb bb c0 5b 84 bd 0c ee 39 bd ad a0 19 bd
       -0.0057327515 -0.064628124 -0.045393035 -0.037506748
000110 a7 59 27 3a 64 2f 57 3c a5 41 0d bd ac de b4 bd
       0.00063839037 0.013133857 -0.03448643 -0.08831534
000120 f8 f8 17 3d ac 46 74 3d 85 f9 47 3d 04 1b 3f bd
       0.03710267 0.05963771 0.048821945 -0.046656623
000130 1e 8a 98 bd 7e ef 25 bb 2a cf 67 b9 d7 8d 12 bd
       -0.07448219 -0.002531975 -0.00022107051 -0.0357798
000140 9a da c0 3d 6e 2d d1 3d 6a 92 42 3d 46 de 58 3d
       0.09416695 0.10213743 0.047502913 0.05294635
000150 29 1a 85 3d e7 52 96 3d 48 e7 87 3d b6 70 0d 3d
       0.0649913 0.07340031 0.0663591 0.034531318
000160 50 f7 77 bd 3a e1 8c 3d 7a e4 af bc 7b 0e b1 3d
       -0.06053859 0.06878896 -0.02147125 0.0864534
000170 88 8b f1 3d 7b bd 9c 3d f4 61 71 bd a0 26 86 3d
       0.117941916 0.07653328 -0.058931306 0.06550336
000180 38 18 e2 bc e7 1b ad bc 97 cf a6 3c 3f fd 9f 3c
       -0.027599439 -0.021131469 0.020362658 0.019529937
000190 de bd c3 3d 6e c7 1b 3c b9 6f b0 bc bc b5 75 3c
       0.09557699 0.009507997 -0.021537649 0.014996942
0001a0 b4 ae 1c bd 76 b6 65 3d 05 07 e0 3c ed 57 72 bc
       -0.038252547 0.05608221 0.027347097 -0.014791471
0001b0 4b c9 d3 3d 4c af 11 3d 17 07 6e 3c e1 25 e7 3c
       0.10341128 0.035567567 0.014528058 0.028216304
0001c0 53 69 d1 bc fb 9c c3 3d aa 4e a5 3d 1f 1d 89 bd
       -0.025562918 0.09551426 0.080716446 -0.066950075
0001d0 4e b9 16 3b eb cf 2d 3d 03 2f 5b bd 54 2c e5 bc
       0.0022998634 0.042434614 -0.05351163 -0.027975239
0001e0 04 bd 36 bd ca 2f 1d bd f5 2d 07 bc 14 1a 93 3d
       -0.044613853 -0.038375653 -0.008250703 0.071827084
0001f0 e2 eb d9 bc 28 73 a2 3d b8 a9 8e 3d 58 59 57 3d
       -0.026601736 0.079321206 0.06965965 0.05257544
000200 68 3a 9c bd 62 aa c4 3c 66 60 23 3d 75 2d 68 3d
       -0.076283276 0.024007026 0.039886855 0.056683976
000210 37 d1 57 bd 98 f5 5d bd be 40 42 bd b1 0a 86 3c
       -0.052689757 -0.054189295 -0.047425024 0.01636252
000220 99 65 b3 bd e6 f0 37 3d e6 a6 ae bc b6 1c f4 3b
       -0.087596126 0.044907473 -0.021319818 0.0074497117
000230 2c 53 84 3d 85 9b 57 bd 50 82 db bd b3 95 a7 3d
       0.06461176 -0.05263855 -0.107182145 0.0818285
000240 74 49 52 3a 29 9a d0 3d 5b 49 e6 3d 1b 7e da 3d
       0.00080218096 0.10185654 0.1124446 0.10668584
000250 5d 38 90 bd 53 7b 59 3d 12 5a b4 3d 94 34 8f 3d
       -0.070420004 0.053096127 0.08806242 0.0699245
000260 50 c4 2b 3c 2c dc d6 3d 3f 0f c6 bc ff 55 b4 3d
       0.010483816 0.10491213 -0.024177192 0.08805465
000270 ca ff 5b bd e2 11 a6 bc 91 ad a4 3d 1b e4 83 bb
       -0.053710736 -0.020272199 0.08040918 -0.004024995
000280 38 69 26 bd c2 63 a9 3d 3f 9c 8f 3d 44 c4 5d 3d
       -0.04062769 0.082709804 0.070122235 0.05414225
000290 69 f5 d5 3a ac 57 3b 3d 35 f0 fe 3d a6 60 bc bd
       0.0016323748 0.045737907 0.124481596 -0.09198122
0002a0 3d c6 33 bc 2a 7a ba 3d fd fe f8 bc 82 37 e1 3b
       -0.010972557 0.09105332 -0.030395025 0.006873072
0002b0 7f 9a 99 bc c8 58 f4 bc e9 dd 0c 3b 4e b3 66 3d
       -0.018750427 -0.02982749 0.0021494573 0.056323342
0002c0 da b8 da 3c 9f 4d 32 bd 40 11 bc 3d e4 f8 61 bd
       0.026699472 -0.043531056 0.09182978 -0.055169
0002d0 cd 28 9d bb aa 2a b9 3d a0 76 86 bd 86 23 6d 3d
       -0.0047961236 0.09041341 -0.06565595 0.057895206
0002e0 8c 34 96 3c 31 a4 d7 3c a7 c8 97 3d 2c c6 19 3d
       0.018335603 0.02632341 0.07411318 0.037542507
0002f0 ca f9 9e bc 7a 6d 1d 3d 3d d2 e2 3d fc 2e 69 bd
       -0.019406218 0.038434483 0.11075256 -0.056929573
000300 e9 de b4 3d af 86 3e bd 5a 0f 2d bb cd 01 da bc
       0.08831579 -0.046515163 -0.0026406855 -0.026612187
000310 98 c6 72 bc 88 52 61 bd d9 41 3e 3d ad da 71 3d
       -0.014817856 -0.05501035 0.046449516 0.059046436
000320 e5 7e 0c 3d bb b2 ea bc e3 5b ab bd 89 9c 61 bc
       0.034300704 -0.028649678 -0.083671354 -0.013770231
000330 5f aa 22 bc 56 2a a9 bd 62 da 4f bd ff 75 2a bb
       -0.009928315 -0.08260028 -0.050745375 -0.0026010273
000340 ad 51 89 3c 7f b5 cf 3d 36 4e 92 bd 05 2d 0a bd
       0.016762579 0.101420395 -0.07143824 -0.03373434
000350 be 3e 85 bd 95 0e 79 3d d7 fa b5 3d 1d 17 8d bd
       -0.06506108 0.060804922 0.088857345 -0.06889174
000360 a6 c7 44 3a d8 f0 21 3d b0 1e da 3c 96 95 a5 bc
       0.00075065566 0.039536327 0.026625961 -0.02021293
000370 01 d8 14 3d 51 08 90 bd 33 ca 96 bd a2 63 95 3d
       0.03633881 -0.07032836 -0.07362785 0.07294394
000380 9d 3d 34 3c 91 92 d2 3c a0 65 96 bb 1f 5b f4 3b
       0.011001018 0.025704654 -0.0045897514 0.0074571515
000390 8b fc eb bc ad f5 82 bd 66 1a 82 bd 9c 19 db 3d
       -0.028806945 -0.06394515 -0.06352691 0.10698244
0003a0 f8 84 90 bc d4 c7 5d bd 98 c5 bb bd 33 d1 84 bc
       -0.01764153 -0.05414565 -0.091685474 -0.016213035
0003b0 b3 c0 b7 3d 5b b6 72 bd 44 6b 82 3d ee 83 92 3d
       0.08972301 -0.05925594 0.063681155 0.0715407
0003c0 dd f9 63 bd aa 04 0d 3c 90 27 47 3d a4 37 d9 3d
       -0.05565821 0.008607069 0.048621714 0.10606316
0003d0 23 db 71 bd 96 d2 ad 3c 11 4d 0b 3d c4 ca 9d 3d
       -0.059046876 0.02121858 0.034009043 0.0770469
0003e0 31 94 1d bd 04 ba 3a 3b 3c 1b 1d 3d 33 7a 7a 3d
       -0.038471404 0.0028492222 0.03835605 0.061151695
0003f0 71 7c 85 bc 1c f3 8f 3d 6b 36 61 bd 6e aa 70 3d
       -0.01629469 0.07028791 -0.054983538 0.058756284
