BikeSharingPrediction-main/models/lstm_short_term_90d_run5.pt (torch, 546325 bytes, 10 tensors)

lstm.weight_ih_l0 f4 [400, 12]
00000000: ec77 8bbb bd2e ad3c 1088 dfbd 36f0 803b
00000010: 098f 843d e560 12bb 498a 9c3d 6933 c33c
00000020: 5ab0 073d 0e08 2e3d d238 893d 842f 8b3d
00000030: f100 943d 5a3c 88bd 6440 a9bd 95f4 a1bd
00000040: d77c c0bc f9db a0bc 01f3 0c3d 87d1 c23d
00000050: f88c 5fbd 23f0 c2bb f3fe 8b3d 77a6 843b
00000060: 133b f13d 7602 833d 70f5 1bbd 3dce e73c
00000070: cc6c c93c 7bbc bb3d c75f a5bc 9b63 35bd
00000080: c2ab e43c f8de b43d 6d5f 75bd da4b f3bd
00000090: bcd2 cf3d 6f4a 55bd 7814 52bc 1cd0 d7ba
000000a0: 8786 a13c fdfb 00bd 984f 2cbd f056 dc3d
000000b0: ed9b 1a3d 6dc8 eebd 5e41 ee3a 98a4 fe3d
000000c0: 8966 883c 9d5f be3d c527 60bd 5e55 2a3d
000000d0: 4ca6 92bd 6438 6ebd 2e4e 43bd 59a9 193d
000000e0: 82c7 d8bc e746 d03d 56b8 663d 3268 1c3c
000000f0: 25b3 013d 28e8 573d 3564 4dbd a73c b53d
00000100: d088 c2bd 17ee 0fbc e4a1 c13d 1bed 4a3d
00000110: 1043 aa3d cc7b 6cbc 2c21 803d 2fef a8bd
00000120: ecd2 e0bc 3fee 573d 43c4 0dbd 56ee f0bc
00000130: 69e9 a93d 0b4e 73bd eb27 b5bd 00f4 61bd
00000140: ada8 443d 66db 7ebd 9cf4 8cbc a4f5 e13d
00000150: 5b03 bfbd 4c66 df3d 2629 b13d 61bb 213d
00000160: d3a7 503d a225 abbd a973 d63d 26af 993d
00000170: f1b8 9abc 36ce 173d 2137 0c3e d6c5 8e3d
00000180: 3423 48bd f13b f13d 2c2d a53d 20e2 843d
00000190: 2fc2 563d f01f db3c 9d9c b53d e3c4 fd3d
000001a0: 3af2 003d ce20 b53d d984 a0bd 0e20 be3d
000001b0: dd43 b53d b4fa 03bd bdae 19bb 107d 3abd
000001c0: c9d7 7dbc 90e5 c43d f47a a93d b66f 14bd
000001d0: d4af e03c 4bc9 ab3d 79da debd a66d a5bd
000001e0: 97e7 54bd 338d 8cbd 3755 8a3d 5ee3 febd
000001f0: af30 213c a51d 163d 069f 45bd a13e d83d
00000200: bf4f 7ebd 83a0 0b3d 133a f1bd 7bf2 743d
00000210: d8af 1abd d9a5 b33c 755a 51bc 7d35 b83d
00000220: 13b7 52bd 01d7 313d 90c7 acbc 5623 9fbd
00000230: be7c 993d 60e2 003e 5b76 a03d 90ec e9bc
00000240: af14 2ebd ae51 e33d ae96 c03d 4d43 68bd
00000250: 6441 87bc ea04 1d3d cbeb 16bc 190f ce3d
00000260: dad1 7d3d 439b a63d 8d4e e4bd 15ca 8ebd
00000270: 905c 9fbd 5465 a33c 124f 5a3d 82be 09be
00000280: 4739 5bbc 6623 f5bd 52f7 3b3d 2e6b 4fbd
00000290: a8c4 e33c 32af 453d 399a ff3d 70ba 093e
000002a0: c5e4 44bc fe7c 463b 5758 b8bc d8f1 9f3c
000002b0: 317e 3fbd 4269 52bd f742 b73d c116 043e
000002c0: 009e 97bb 0e5d c7bd 297f 41bd 8a26 1fbc
000002d0: ddc1 0bbd f305 e13d ea89 09bd 185b 9d3d
000002e0: 03c0 933c 2253 bdbd 23e7 b03c 5aa3 0b3d
000002f0: 1f6c 91bd 1c6e 97bd c958 3abb 1fcf 3cbd
00000300: 7451 9ebd d82b 943d 4b9d c43b 578d 3b3b
00000310: d1b1 9fbc 2a9c a9bc 5d75 9abd 433d e13d
00000320: 49ec a9bd ec29 9a3d 97d9 a33d 5b01 013c
00000330: ac59 7fb9 11be 9cbc c876 debc 51e9 0cbd
00000340: e99f 4ebc ccd2 aebd 8c4b 9a3d a284 1a3c
00000350: 2182 dabb c8b4 dcbc 2249 b3bd f1b8 4bbb
00000360: 0333 883d a143 cc3d 7095 b1b8 f150 9c3d
00000370: 96f7 bcbd 105a 923d 321a 41bd 611a 65bc
00000380: ff3a 243a 3edd a7bd 9d97 623d 069a 28bd
00000390: f935 43bd 9abd 163c ac79 d43d 988c 54bd
000003a0: 34de 9a3d b875 6dbd a8e0 cb3c 0ddc c2bc
000003b0: 9ce4 b03d e8ff 8dbc 55d2 9ebb 5feb 523d
000003c0: cc76 f8bc 4969 c1bd fb31 d5bd 8f87 e63c
000003d0: b8ac 02be bf74 8fbc 32cd ae3c b134 c7bd
000003e0: a2e1 89bd 8c92 0f3d d949 a33c 7858 bb3d
000003f0: 9e73 0a3d 0a7e 8fbd df57 553d f332 8dbc
-0.004256239 0.02114045 -0.10914624 0.0039348854 0.06472594 -0.0022335586 0.07643563 0.023828225
0.033127166 0.04248815 0.06700291 0.06796172 0.07226742 -0.06652136 -0.08264235 -0.079079784
-0.023497028 -0.019636141 0.034411434 0.095126204 -0.054577798 -0.0059490367 0.06835737 0.0040481645
0.11778846 0.06396954 -0.038075864 0.028296584 0.024588011 0.09166809 -0.020187272 -0.044284444
0.027913932 0.088315904 -0.05990546 -0.11879702 0.10147616 -0.05207294 -0.012822263 -0.001646522
0.019717468 -0.031490315 -0.042068094 0.107587695 0.03774636 -0.11659322 0.001817744 0.124337375
0.016650455 0.092955805 -0.054725427 0.04158532 -0.07160625 -0.058159247 -0.04768198 0.037515018
-0.02646232 0.101697735 0.05632814 0.0095463265 0.031664986 0.052711636 -0.050144393 0.08849459
-0.09498751 -0.008784792 0.09454706 0.049542528 0.083135724 -0.014433812 0.06256327 -0.08248746
-0.027444325 0.052717444 -0.034610998 -0.029410522 0.082964726 -0.0594006 -0.088455044 -0.055164337
0.048012424 -0.062220953 -0.017206483 0.1103318 -0.09326812 0.109081835 0.086504266 0.03948534
0.0509413 -0.08356787 0.10471279 0.0750411 -0.018887015 0.037061892 0.13692905 0.06971328
-0.048861697 0.11779011 0.080652565 0.064884424 0.05243128 0.026748627 0.08867762 0.12391069
0.031481005 0.088441476 -0.07837839 0.09283458 0.088508345 -0.03222151 -0.00234501 -0.045529425
-0.015493342 0.09614098 0.082754046 -0.03623935 0.027427591 0.08388003 -0.10881514 -0.080775544
-0.051978674 -0.06862869 0.06754535 -0.124457106 0.009838267 0.036649365 -0.04824736 0.105588205
-0.06208777 0.034088623 -0.11778655 0.05980156 -0.037765354 0.021929668 -0.012777914 0.08994577
-0.051444124 0.043417934 -0.021091253 -0.07770412 0.07494496 0.12586355 0.078350745 -0.028555185
-0.042500194 0.110995635 0.0940374 -0.056704808 -0.016510673 0.038334765 -0.009211491 0.100614734
0.06196771 0.081350826 -0.11147795 -0.06972138 -0.07781327 0.019945778 0.053298064 -0.13451579
-0.013380355 -0.11969642 0.04589016 -0.050639324 0.027803734 0.048262782 0.124805875 0.13450027
-0.0120174335 0.0030286903 -0.022503061 0.0195245 -0.046751205 -0.051369913 0.089483194 0.12899305
-0.0046269894 -0.09734546 -0.04724041 -0.009713778 -0.03412043 0.10987463 -0.03357879 0.076833904
0.018035894 -0.09244372 0.02159459 0.03409133 -0.071007006 -0.073940486 -0.0028434268 -0.046095964
-0.0773038 0.07234925 0.006000196 0.002861818 -0.01949397 -0.020704348 -0.075419165 0.10998013
-0.08297021 0.07527527 0.08000486 0.007873858 -0.000243521 -0.0191336 -0.027156249 -0.034402195
-0.012611368 -0.085363 0.07533941 0.009431036 -0.0066683446 -0.026941672 -0.08754183 -0.0031085575
0.06650355 0.09973837 -8.4678526e-05 0.07632626 -0.09226911 0.07146084 -0.047144122 -0.01398334
0.00062648946 -0.081964955 0.05532037 -0.041162513 -0.047658894 0.009200478 0.103747696 -0.051891893
0.07561913 -0.057973593 0.024887398 -0.023786569 0.08637354 -0.01733394 -0.004846851 0.051494
-0.030330084 -0.0944391 -0.10409924 0.028140811 -0.127612 -0.017511724 0.02133808 -0.09726847
-0.06732489 0.035051867 0.019932674 0.091477334 0.033801667 -0.07006462 0.052085754 -0.017236209

lstm.weight_hh_l0 f4 [400, 100]
00000000: d0be f33d 69ab 96bd f3d0 313d 8026 64bd
00000010: 2569 f7bd 73fe abbd 89e9 7c3d ab67 babd
00000020: 1bf7 93bd 599b 93bc 320b 913d b9da 96bc
00000030: 3d5b 893d 9a78 e53d 393f a3bd f18d b4bd
00000040: 6874 45bd baf8 bdbd b399 853c 807a c7bd
00000050: 1d41 7bbc 2859 013c c4a1 4a3c caad 953d
00000060: e988 513d bc26 c6bd 524a ed3b 85ff a83d
00000070: 7eeb 18be 83cb 8b3c d773 663d 90c0 0d3e
00000080: 8b5b 41bc ec0e b13d f556 3dbd 4edf 43bd
00000090: 2322 a9bd ec85 4fbd 6596 1cbd e262 923d
000000a0: 1dc6 07bd a825 cbbc a423 35bd 7592 00bb
000000b0: 531a a53c 6132 963d 91d6 5f3d 901d a83d
000000c0: 3e7d a43c c6c9 c93d 3662 dbbd 8531 ee3d
000000d0: 76de 18bb de8c b1bd b772 cb3c d724 52bd
000000e0: f674 063d b580 6d3c 18eb adbd f400 71bd
000000f0: 220d a03d b613 de3b 9ae8 493d 27a5 35bd
00000100: 9e13 b03c ee5d a83d 7ae9 a73d fa07 85bd
00000110: f497 af3d 69e8 9f3d 54ae b9bd 3395 a73b
00000120: 2268 b63d adda 4b3d 6737 a5bd 7dd7 433d
00000130: c411 4bbd 7e05 e5bb bdcc 45bd ed40 353d
00000140: 82b5 fabc 66be ad3c b95d 973d ba20 4b3d
00000150: 9b16 c13c 0a36 b4bd 427c b3bd fb0c abbc
00000160: 565f 103b 4535 273d 1f20 e0bd 298f 973d
00000170: 9927 643c 0f72 143c 22b0 63bc a895 3b3b
00000180: b6a2 133a 341c e4bd f507 67bd d8ce 443c
00000190: 5c20 c73d 4a6f cdbc 583d 1f3d c468 a8bd
000001a0: 36f9 8ebd bb2f 87bc 5a47 7cbd 6cf6 c73b
000001b0: 447f abbb ca28 5d3d eb6f a0bc 4bef 9bbd
000001c0: 6797 40bd 74f6 4abd 9d08 003d ad6a cf3d
000001d0: 2c94 ebbd 6655 bcbd 4171 51bc 4d1b 86bd
000001e0: 9e8f 95bc f173 c5bb d051 cabd 80a9 853d
000001f0: 91ca 0ebd fdd5 043d 84f9 b33d a06a b93d
00000200: 1aa5 2e3d 3748 1dbd 3956 033d 1f7b af3d
00000210: 35ef 5cbc 56e6 143d b36b 933d 6cef 883d
00000220: 6e69 33bd 32d1 5e3d fe2f 93bd 3c68 adbc
00000230: 0c68 bbbb ee22 a73c 0ad6 27bd e4df 45bc
00000240: e88d 653d 87f2 9e3d 95b1 b13d 3ad6 2f3d
00000250: 9f10 85bb 14f2 183d ed9c 3d3c c4c4 6bbb
00000260: 67ab 4c3d 5f3a f8bd c596 6fba 8322 4f3d
00000270: e771 773d a7a9 f4bc 363a 2cbd 4276 44bd
00000280: 8849 bbbd 7fe5 cabc 83cd 22bd f125 f73c
00000290: 7389 cdbd 60c7 5a3d 4bb6 e73d 3623 c63c
000002a0: a1a4 7f3c 19df a53d 255b f6bb 134c bdbd
000002b0: d474 243c 3d0e f43b 6a10 e7bd 7b08 d33d
000002c0: 42bd 973a ea9f aabc 7e8c 4fbb f258 4cbd
000002d0: c018 0fbd d00d 293d 84ff 6d3d d2da 293e
000002e0: c55b 003d 4b44 abba 01b8 693d e1f2 353d
000002f0: 8400 ce3d 04ce 72bd 13c9 993d 9502 e33c
00000300: 7be6 6d3d f18f e23c 3f22 9a3d 7359 f7bb
00000310: bf4b cabd 3e7d debc fd23 e03b 493a 41bc
00000320: b5e9 21bd a89e 293d b213 64bd 266e f7bc
00000330: bfbd 7d3c 2ee0 493c cade 3c3d 89b7 86bb
00000340: 60ff 4a3d 79e8 d6bc 39b5 833d 6487 b53c
00000350: a999 18bc 17a7 21ba ca24 aebc 5751 a6bc
00000360: 8f3d d1bc 57ed 97bd add3 dabd 6014 5ebd
00000370: d975 6c3b a8ee 583d 5e69 9e3c 6340 ae3d
00000380: 8111 f4bd 37ea 27bd 889f 3abd b7a3 a3bb
00000390: 3a82 02bd 1052 203d 1d2d 25bd 11e4 8abd
000003a0: a51b 1dbc 6eb1 5b3d 7865 9b3d 713e d33d
000003b0: 821d 42bd fc7d 403d ba18 7b3d fd03 05bd
000003c0: 2d34 0abd 3985 b13d 23c3 20bd 7dad f3bd
000003d0: 8c01 103d 78dd a43d b870 2e3d 4893 adbd
000003e0: 9a94 503c 6ada 36bd b99a a43d 1086 a73d
000003f0: 6d3e 303d 42e3 0c3d 71d4 c63d ed00 e5bd
0.11901629 -0.07356913 0.04341216 -0.05570078 -0.120806016 -0.08398142 0.061746154 -0.09101804
-0.07224866 -0.018018411 0.070822135 -0.018414842 0.067068554 0.112046435 -0.07971043 -0.08816136
-0.048206717 -0.092759565 0.016308641 -0.09740162 -0.015335348 0.007894792 0.0123676695 0.07308538
0.05115596 -0.09675357 0.0072415257 0.082518615 -0.14933583 0.017064815 0.056262817 0.13842988
-0.011801611 0.08645424 -0.046225507 -0.04782038 -0.08258464 -0.050664827 -0.038229365 0.07147767
-0.03314792 -0.02479823 -0.044223443 -0.0019618545 0.020154154 0.07333828 0.054647986 0.082087636
0.020079251 0.09852938 -0.107120916 0.11630539 -0.0023325956 -0.086694464 0.024834974 -0.051304664
0.032826386 0.014496018 -0.08492106 -0.0588388 0.07815005 0.006777252 0.04929409 -0.044346955
0.02149373 0.08221041 0.08198829 -0.06495662 0.08573905 0.078080006 -0.090664536 0.0051142215
0.089065805 0.049769092 -0.08067208 0.047812928 -0.04957749 -0.00698918 -0.048290957 0.04425137
-0.030604128 0.021208953 0.07390923 0.049591757 0.02357035 -0.0879937 -0.08763935 -0.020880213
0.002202948 0.040822286 -0.109436266 0.074003525 0.013925456 0.009060397 -0.013896974 0.0028623138
0.0005631851 -0.11138192 -0.056404073 0.012012206 0.09722969 -0.02507748 0.03887686 -0.082231075
-0.06981127 -0.016502252 -0.061591484 0.006102374 -0.005233677 0.053993978 -0.019584617 -0.07614001
-0.04701939 -0.049551442 0.031258214 0.10127769 -0.11502871 -0.09195976 -0.0127833495 -0.06548176
-0.018256959 -0.006025784 -0.09878886 0.0652647 -0.03486115 0.032430638 0.08787826 0.0905354
0.042637922 -0.038398948 0.03206465 0.08568405 -0.013484766 0.036352478 0.07198276 0.06686291
-0.043801717 0.054398723 -0.07186888 -0.021167867 -0.0057191905 0.020402398 -0.040975608 -0.0120773055
0.056043535 0.07761102 0.08676449 0.04292891 -0.0040608193 0.03734024 0.011573059 -0.0035975436
0.04996815 -0.121205084 -0.0009139593 0.050570022 0.06041136 -0.029866053 -0.0420477 -0.047964342
-0.09144884 -0.024767635 -0.039746772 0.030169459 -0.10035982 0.053412795 0.113140665 0.024186712
0.015603215 0.08099193 -0.0075181895 -0.09243026 0.01003762 0.0074479864 -0.112824276 0.10304352
0.0011576789 -0.020828206 -0.0031669433 -0.049889512 -0.034935713 0.04127294 0.058105007 0.1658738
0.03133752 -0.0013066618 0.057060245 0.04442108 0.10058692 -0.059278503 0.07509055 0.027711192
0.05808113 0.027656527 0.07526063 -0.007548505 -0.09877729 -0.02715933 0.0068402276 -0.011793681
-0.03952952 0.041411072 -0.055682845 -0.03020389 0.0154871335 0.012321515 0.046110906 -0.0041112346
0.04955995 -0.026233898 0.0643105 0.022159286 -0.009313979 -0.0006166561 -0.021257777 -0.020302458
-0.025542049 -0.07418316 -0.10684905 -0.05421865 0.0036080985 0.052961975 0.019337352 0.085083745
-0.11917401 -0.04099485 -0.045562297 -0.0049938816 -0.031862475 0.03914076 -0.040326227 -0.067817815
-0.0095891105 0.053636007 0.07587713 0.10314644 -0.047391422 0.046995148 0.061302878 -0.032474507
-0.033741165 0.08667988 -0.039248597 -0.11898325 0.035157725 0.08050054 0.042587966 -0.08475357
0.012730742 -0.04464189 0.080373235 0.08179867 0.043028284 0.034396417 0.09708489 -0.11181817

lstm.bias_ih_l0 f4 [400]
00000000: f832 0e3d aa28 71bd 5a76 cb3d b1a3 bd3c
00000010: d96b af3d 8975 5bbd be9a c6bd d60f 66bd
00000020: afd5 123c 3e26 48bd 6671 403d b55f d2bb
00000030: f30f 43bd 3572 79bd 6dbe 78bc dba8 2c3c
00000040: a44e d0bc b78d dfbc 22f1 153b 51eb 8d3d
00000050: 38eb 70bd 11de db3b 592e 8e3b b39e cabb
00000060: 5112 9bbd 9ab6 aa3d 43ed 453d 406c 06bb
00000070: 2da9 833c 3951 d23d 8201 12bd 54eb a13d
00000080: 48cc 213d c965 97bd 7ebb a33d 4445 2f3d
00000090: d49b a0bc 4a30 993d d77f c8bc 8933 13bd
000000a0: 1293 013e 1be5 05bd ba0b b73d b7fb 48bb
000000b0: 4776 c13d 227a 0b3d 35f2 7ebc a33c 373d
000000c0: 68ad 823d 89b1 9c3d b11f b23d 00f7 f73d
000000d0: 3306 9d3d aafe 93bb 9b5b 80bd 5e42 983c
000000e0: 5d96 b8bd 4d93 893d 8c7f e93c 83d5 0c3e
000000f0: 047e 9e3d 0fd7 203c 59e5 44bd bf0b 363d
00000100: e69d 103d 0d53 793d ba64 bfbc 2110 fdbc
00000110: 092b ecbb 80c8 9f3d b99a 953d ac51 0c3d
00000120: 930d c53c 78db 303d 0cab 52bd 5146 f53d
00000130: d857 a9bc 5329 5d3d dc9f f0bb ef18 0a3e
00000140: b407 b3bd ce71 cabd c3b1 ed3d 7142 113d
00000150: 2ce9 c83d 44ea 113d fb2b 3dbd d0b5 7c3d
00000160: d338 263a a4d4 b73d e1c6 5fbd cbfa 8c3d
00000170: 69d6 9fbd 9d42 323d f348 483d 8d00 633d
00000180: 9684 f03d 3128 abbd 48a1 d33d a86d 94bd
00000190: 0599 b5bc 1946 65bb 767d 183c da49 bbbd
000001a0: 3822 183e 33cf 973d 53a6 c23d 6e2a 8f3d
000001b0: deb5 323d b2fb 8a3d 52bb acbd 53db 513d
000001c0: 2cba 693d 1ab5 b13d 7174 11bc 2afb 293c
000001d0: db7a 4fbc 60fd bd3d 97fb ad3d 4245 84bd
000001e0: 317a 963d 7b0d 2e3d a368 68bd 61fd 53bc
000001f0: e4e1 8e3d def4 283c a4ac d13d 47b4 2c3d
00000200: 8113 1b3d c178 a2bc c53c 0ebd 67a5 8a3c
00000210: d55c 033c b413 23bb c396 4fbd 1fc4 943d
00000220: d510 883d 2adb 64bd 6e4d 6dbd 3bcd 5f3d
00000230: b933 3f3c a187 5abd 0bf0 e8bc cbc8 a43d
00000240: 0cfc d13c e468 a5bd b09b 1fbc 4a04 4bbd
00000250: e3bb 933c eb9c 2a3a 4fff af3d a8ec 343d
00000260: 326d 41bd 77d1 713d de0f fa3c dc1f 593d
00000270: 5c76 4a3d 0b11 37bd 7b64 6abd 6522 c23c
00000280: 309a cfbc 02ca 39bd 2802 e13c dd36 b53d
00000290: 49a7 4ebc b5bc 8a3d 59c9 abbc 463b 36bc
000002a0: 81c7 f23d a7f5 c43d cefb bb3c f42b 5fbc
000002b0: 93e4 dd3d 30c0 2c3b 55dc 76bd 921c 683d
000002c0: 648f 8dbc 2c24 9bbd 9dec a03d 9aea 113e
000002d0: 9969 d73c b932 04bd 8a06 f13d a7b9 4a3d
000002e0: a0c0 aa3d 97e3 a7bb e611 b73d 5321 453d
000002f0: 8f88 19bd a0b1 9d3c c925 ad3d 1697 ba3d
00000300: da14 c13d b376 073e d106 49bb a039 723d
00000310: eeb5 65bd 42d2 943d 6e06 0f3d 4751 a93d
00000320: 18f8 6f3d e2ec 763c 3cae 88bd cb06 833d
00000330: 4570 46bd 55b6 a0bd afc5 44bd 67d6 1abd
00000340: 46b9 b83d cca2 b23c aad4 2f3d c334 d7bc
00000350: 18e3 c5ba ed12 a43d 61ad 893d b831 09bc
00000360: ec96 c2bd f375 e9bc 7ca0 553d e915 a53c
00000370: cfc6 6dbd 64ab 41bd d835 213c 2828 56bd
00000380: 5266 f93c 914f db3b 259b a33c 0c24 373d
00000390: c84b aebd b9db a83d 4c3c b63d fe88 b73d
000003a0: 6141 5c3d 566a 173d d1e1 dcbd 024f 33bc
000003b0: 4fe0 9ebd c474 ddbc bd5a bebd f70c 1e3d
000003c0: 16b8 ad3d 4575 c4bd 60da 82bd 0c58 d43d
000003d0: 1d62 c0bd 7c17 81bd 63f2 a8bc 7600 a43d
000003e0: 2a2f 9c3d 7c51 a23c 39f8 cbbb 8971 d5bc
000003f0: a581 77bd 3443 94bc 22ad 813d 67ea c13c
0.034716576 -0.05887667 0.09934683 0.023149343 0.08565492 -0.053578887 -0.096974835 -0.056167446
0.008962079 -0.048864596 0.046983145 -0.0064201006 -0.047622632 -0.060899932 -0.01518212 0.010538305
-0.025428124 -0.027289255 0.0022879322 0.06929649 -0.058818072 0.006709822 0.004339021 -0.006183469
-0.07571853 0.0833561 0.048321974 -0.00205113 0.01607188 0.10269398 -0.03564597 0.079062134
0.03950146 -0.07392461 0.07994746 0.042790666 -0.019605555 0.074799135 -0.024475021 -0.03593782
0.12653759 -0.032689195 0.089377835 -0.0030667612 0.09446388 0.03405202 -0.015560676 0.044735562
0.06380731 0.0765105 0.08697451 0.121076584 0.07667198 -0.0045164423 -0.06267472 0.018586334
-0.090130545 0.067175485 0.028503202 0.13753323 0.07738879 0.009816899 -0.048070285 0.044444796
0.035306834 0.06087022 -0.02336346 -0.03089148 -0.0072072786 0.07801914 0.07304902 0.034257576
0.024054324 0.04317805 -0.051432654 0.119763024 -0.02067177 0.053994488 -0.0073432755 0.13486074
-0.08741704 -0.09884988 0.11606171 0.035463754 0.09810099 0.035623804 -0.04618452 0.061696827
0.0006340865 0.08976105 -0.054633025 0.068837725 -0.07804567 0.04352056 0.048897695 0.055420447
0.11744039 -0.08357275 0.10333496 -0.07247478 -0.022167692 -0.0034984408 0.009307256 -0.091449454
0.14856803 0.07412567 0.0950438 0.06990515 0.043630473 0.06786288 -0.08434166 0.051234554
0.057062313 0.086771205 -0.008877859 0.010374824 -0.012663568 0.09276843 0.084952526 -0.064585224
0.07347525 0.042493325 -0.056740414 -0.012938828 0.06976679 0.010312287 0.10238007 0.042164113
0.037860397 -0.01983297 -0.034725923 0.016924573 0.008017738 -0.002488357 -0.050680887 0.0726397
0.066438355 -0.055873074 -0.05793517 0.054639082 0.0116700465 -0.053352002 -0.028434774 0.08046111
0.02563288 -0.08076647 -0.009741709 -0.049564637 0.018033927 0.0006508368 0.08593618 0.044171005
-0.047223277 0.059037652 0.030525144 0.0530089 0.049429283 -0.044693988 -0.057224732 0.023698041
-0.025342077 -0.045358665 0.027466848 0.08848355 -0.012613126 0.06774274 -0.020970033 -0.01112253
0.118544586 0.09617167 0.022947218 -0.013621319 0.10834613 0.002635967 -0.06026872 0.05666787
-0.017280288 -0.075752586 0.078576304 0.1424965 0.02629547 -0.032274935 0.11768825 0.049493458
0.083375216 -0.0051235664 0.08938961 0.048127484 -0.037483748 0.019249737 0.084544726 0.091108486
0.09427805 0.13228874 -0.003067423 0.059136987 -0.056081705 0.07266666 0.03491824 0.082674555
0.05858621 0.015071126 -0.066738576 0.0639778 -0.048446912 -0.07847277 -0.04804009 -0.037802126
0.09019713 0.021806143 0.04292742 -0.026270276 -0.0015097586 0.08011422 0.067225225 -0.00837367
-0.09501442 -0.028498625 0.052155003 0.02015205 -0.058050927 -0.04728259 0.0098394975 -0.05228439
0.030444298 0.0066928347 0.01997144 0.04471211 -0.08510548 0.08245034 0.088982195 0.08961676
0.053773288 0.036966644 -0.107852586 -0.01094413 -0.07757627 -0.027033217 -0.09294651 0.038586583
0.08482377 -0.0959268 -0.06389308 0.10368356 -0.093937136 -0.063033074 -0.020623391 0.080079004
0.07626183 0.019814245 -0.006224659 -0.026055114 -0.060426373 -0.018098451 0.063318506 0.023671342

lstm.bias_hh_l0 f4 [400]
00000000: da8b f33b d0a5 c13d a69a a83d ecfb a03d
00000010: f067 123b a71f f73c c771 0ebd 5fea 92bc
00000020: b5e1 d43d dadf 3e3d b460 44bd bb88 313d
00000030: e980 5d3d 6db0 803d 91c3 dc3d a07a 133d
00000040: 0f9e 89bc a55c b3bc 6095 a8bd d874 26bc
00000050: eefd f4ba fa7a acbc 1697 42bd 3782 b43c
00000060: 8a60 85bb 318d febc d954 85bd b691 473b
00000070: e38f ff3d efaf b33d 8660 9e3d df3f f7bc
00000080: 62c2 1abd abbb b43d 5c16 1dbd a24f 6a3c
00000090: da4a 0cbd 05c8 6bbc 4df1 34bd 30de fc3c
000000a0: 2597 963d dd8e 9dbb 7dca 903d 64a7 52bd
000000b0: 357b a0bd 7a2d 3bbd d631 8fbb c298 e3bc
000000c0: a602 a2bd d6fa 043d 7d55 c33d 6c51 a73d
000000d0: a1bf cc3d 749c ad3d 2064 35bd 15d5 82bd
000000e0: 4d4e 8c3d 5a4e 703d 6449 9bbd cca9 583d
000000f0: 4b9b fc3c 4f7a 9a3d 76b4 793d b527 643d
00000100: ece0 cb3d 10c5 9cbd eac8 d03c eb0b c1bd
00000110: b252 f03d fafe 2b3c 6e7e 23bc 8339 91bd
00000120: 1335 b33c cb09 b33c 3506 0a3d 1210 f2bc
00000130: 63f4 903d 36ff 65bd 3d12 833d f8d3 92bc
00000140: c63b 67bc 9e3e 70bd 30b4 313d 5d96 a13d
00000150: 14fb 46bc bb94 90bd d342 37bd e5e1 a23d
00000160: 7f80 a83a 348c b73d fdd4 84bd 3f63 c13d
00000170: d0c4 e43c 0f4e 6b3d f759 0d3b b58d d83c
00000180: a96c b83c ba80 51bd 7885 7abd e72d 1d3c
00000190: cd01 0dbd 26a1 923d 5bc4 993d 9ef4 923d
000001a0: 122c 233e ab89 bc3d 0a47 ea3b 5c1b aa3d
000001b0: e097 a23d aaf0 883d d8b8 86bd 2161 ce3d
000001c0: da9b f7bc 9217 163e e4f4 0dbd 9ca9 53bd
000001d0: 0eae 763d 4ad1 0d3d f4f1 a8bc bc13 66bd
000001e0: c2ee 2e3c afe9 1f3d b406 793d f9b3 75bd
000001f0: 66a1 ab3d 5a35 003d 3eea d23d f713 9fbd
00000200: 1536 983d c607 953b 4c34 343d 6130 ef3d
00000210: a15d 10bd 597d ec3c 3ed9 833d 5eff 85bb
00000220: 6f8a d03d ae36 f2bb 11c9 a63d cba3 763d
00000230: b782 3e3d 236a f93c ba78 5abd 7f7e abbd
00000240: 843e d33c ccc7 5f3c 2fb2 7b3d 048d ab3d
00000250: 99e3 31bd 59a9 ff3d 2883 67bd 5294 053e
00000260: fb78 b03d 2d78 d23d a258 debc 55e7 a43d
00000270: 22fe 89bd 5322 1bbb 6592 1a3d 85b7 a33d
00000280: 6448 47bb e0d6 cf3d 0098 26bc c54a e33c
00000290: f77e 5dbc 7638 b3bc 1aad bdbd d366 9fbd
000002a0: b2f7 cab8 19e4 c8bb cf60 67bb db7b 34bd
000002b0: e3de 833d 23eb 5c3d 9fd5 88bd ecf2 d33d
000002c0: 3491 e53c ad5c debc 09f2 85bd 86ab 04bd
000002d0: d2cc 003d 6ef0 ef3c 6617 953c 9b41 5a3d
000002e0: 1050 823d 6702 c5bd 8f64 01bd cfb3 bb3c
000002f0: 5b38 463c 7b4e 41bd c925 7c3d 8be9 533d
00000300: 884f 1d3c 346f e03d 53e4 1e3d 23be 73bd
00000310: b78e d9bc 34c5 6d3c 4e61 ecbc 6b44 9c3b
00000320: 994a 823c c6a4 b43b 6fda c7bd dc8c 61bc
00000330: 9ad5 d2bd 6d6b 72bd 70b9 cebd 4f46 6d3c
00000340: e43c bdbd e0a0 d23c 5841 79bc 5bed eabc
00000350: a09e ab3d e507 04bb d075 f8bc 49ee 1dbd
00000360: c4a0 4cbd 990f ccbd 5249 9cbd 51d6 0dbd
00000370: 851f 0b3d 0839 c1bc a008 f3bc 92af f43c
00000380: 9024 f4bc 3e45 01bc 4bb9 67bc 8562 6cbd
00000390: f813 b23d dc4a e83c 77b7 37bd 36b5 0fbc
000003a0: 432a bbbd 8858 0f3d 3024 16bd 0e05 533d
000003b0: e7a9 05bd 0275 acbd 171a 7cbd 9f38 77bd
000003c0: 2f98 3e3d 857c 463d 1b6b 6cbc 3854 8ebd
000003d0: ac63 18bc f892 4d3d 6e35 9c3d f597 763d
000003e0: c477 dc3c eed9 8d3c 25e0 58bb b5d4 803d
000003f0: 7431 10bd 3805 30bd 8d8f 583d 2df6 39bc
0.007432443 0.09455454 0.08232622 0.0786055 0.0022339784 0.03016646 -0.034776475 -0.017934022
0.10394613 0.0466002 -0.047943786 0.043343287 0.054078016 0.062836505 0.10779489 0.036005616
-0.016799001 -0.021894762 -0.08231616 -0.010159694 -0.00186914 -0.021054734 -0.047507368 0.022034748
-0.0040703462 -0.031073185 -0.06510324 0.003045184 0.12478616 0.08773791 0.07733254 -0.030181823
-0.037783034 0.08824857 -0.0383514 0.0143012125 -0.03425107 -0.01439095 -0.044175435 0.030867666
0.07353047 -0.0048082904 0.070698716 -0.051429167 -0.07836 -0.045697667 -0.0043699546 -0.027782802
-0.079106614 0.03246578 0.0953779 0.08169827 0.09997488 0.08477107 -0.04428494 -0.063882984
0.06850872 0.058668472 -0.075823575 0.052896306 0.030835768 0.0754286 0.060963117 0.05570193
0.0995501 -0.07654774 0.025486428 -0.09426101 0.11734523 0.010497803 -0.009978874 -0.070910476
0.021875894 0.021855256 0.033697326 -0.029548679 0.07077863 -0.05615159 0.06399963 -0.01792334
-0.014113372 -0.058653466 0.04338473 0.07890008 -0.012144823 -0.07059618 -0.044741463 0.07953242
0.0012855678 0.089622885 -0.06485937 0.09442758 0.027925879 0.05744749 0.0021568516 0.026434759
0.02251275 -0.051148154 -0.061162442 0.0095934635 -0.034425545 0.07159643 0.07508155 0.07175563
0.1593478 0.092059456 0.007149582 0.08306 0.07939124 0.06686528 -0.06578225 0.100771196
-0.030225683 0.14657429 -0.034657374 -0.051675424 0.060224585 0.03462342 -0.020623185 -0.056171164
0.0106770415 0.039041217 0.06079741 -0.05998609 0.08380394 0.03130088 0.102985844 -0.0776748
0.0743219 0.004548046 0.043995187 0.116791494 -0.03524554 0.028868364 0.0643792 -0.00408928
0.10182654 -0.0073917722 0.08143819 0.0602148 0.04651138 0.030446118 -0.05333779 -0.083737366
0.025786646 0.013658475 0.061449226 0.08376506 -0.043429945 0.124834724 -0.056521565 0.13044861
0.08616825 0.10276828 -0.027141873 0.080519356 -0.06737925 -0.0023671582 0.03773727 0.07993988
-0.0030408138 0.10148406 -0.010168076 0.027745614 -0.01351904 -0.021877509 -0.09261532 -0.07783284
-9.6782474e-05 -0.006130707 -0.0035305505 -0.04406343 0.06438997 0.05393518 -0.0668137 0.10349068
0.02802334 -0.0271438 -0.06540305 -0.03239014 0.031445332 0.02928945 0.018199634 0.053285223
0.06362927 -0.09619599 -0.03159004 0.022912888 0.012098397 -0.047193985 0.061559472 0.051736396
0.009601481 0.1095871 0.038791966 -0.0595075 -0.02655731 0.014512349 -0.028854992 0.0047688982
0.015904712 0.0055128066 -0.0975846 -0.013766494 -0.102946475 -0.05918448 -0.10093963 0.014482095
-0.092401296 0.025711477 -0.015213333 -0.028677633 0.08379865 -0.0020146307 -0.030329615 -0.038557325
-0.049958006 -0.099639125 -0.07631172 -0.034628216 0.033965606 -0.023586765 -0.029667199 0.029868875
-0.02980259 -0.007890044 -0.014143298 -0.057711143 0.08695215 0.028356008 -0.0448527 -0.008771231
-0.0913892 0.03499654 -0.036655605 0.051518492 -0.032632735 -0.08420755 -0.06154832 -0.060356732
0.046531852 0.048458595 -0.014429833 -0.06949657 -0.009301107 0.05018899 0.076273784 0.06020351
0.026912577 0.017315831 -0.0033092585 0.06290571 -0.035203412 -0.042973727 0.052871276 -0.011350197

lstm.weight_ih_l1 f4 [400, 100]
00000000: 6427 263c 572d adbc 95db 0cbd 96b1 c7bc
00000010: da78 153d 5fd5 a9bd f80c 073d ba30 c1bc
00000020: fc59 16bd 5259 62bd e10f 9a3d 3f83 b23c
00000030: 3a8e c0bd 49bc ebbc 5857 9c3d 01ec f2bb
00000040: 8d20 f43b 5294 663d ce9b 853d 353a 12bc
00000050: 944b 0bbb 89cd 853b ce1e 183d 1527 0abd
00000060: c5c6 72bd 83a9 7f3d 7735 193d 18a1 9cbd
00000070: d36d c9bb 1b3a ddbd 3194 8fbc 9a60 26bd
00000080: 639f cebd 5fc3 7f3d 9fbb 00bd 33cb 8cbc
00000090: 48fc 39bd ba4f e1bb 3b60 e8bc d16a 813d
000000a0: 1f72 513d 2250 c73d bcb7 e9bd 8f85 52bd
000000b0: 7894 42bd 732e b13c 1986 0b3c 9658 9cbd
000000c0: 65d6 78bb aef9 90bd 0efa 173e a160 593d
000000d0: 7ce8 893c 590c 033e 2287 e53c 70fc 8e3c
000000e0: c093 f8ba 7467 c03c c63b 4aba 3b81 47bc
000000f0: a0a4 84ba 1891 003c e2db 723d 3b60 b3bd
00000100: eb00 65bd b231 1fbc 0d80 783c 9044 813d
00000110: 7bfa 12bd 2e82 de3c 47fe 4d3c ec6e b83d
00000120: 49bd 763d 9d68 353c b47c 75bc 4b1d 61bc
00000130: e5d1 05bd 88cf 3bba c57b d6bd 3e36 1f3d
00000140: 3a13 92ba 766a 063c 64a8 bf39 0332 fe3d
00000150: e4ab 15be 2bd3 ad3b b28b ea3c a25a a5bd
00000160: c7cd 2cbd ef96 fbbd 3a7a 72bd e87a c33d
00000170: bb0d 3dbc 4d3f c23d 76d1 f53b 6382 d83b
00000180: 7ae6 9a3d d753 d13c 5ae2 dabd 93e5 9abd
00000190: faaa e5b9 9e4f f03c b811 6ebc e914 073d
000001a0: 0e7a 973d 90aa 853d 376b f23c c3e0 933b
000001b0: 7de3 51bd 9943 7e3d ef1b 423d 7c21 4a3d
000001c0: 666a 2d3c b633 43bd fc94 a3bd 0814 0e3d
000001d0: 51fd aabd 084c a23d 0ac5 a53d f0f7 c9bc
000001e0: 5983 a63d f902 b8bd b1cb 9dbd 3841 c3bc
000001f0: 0582 963d 59a3 9f3d 632e d53c fa3a 53bc
00000200: 0007 e9bc 4d4b 85bd a88d 78bc 6dfa ab3c
00000210: 4b7c 793d 374e 8cbd 0905 91bc 8039 15bd
00000220: b1ef dfbd b02a aabd 1958 8f3d 6b86 eabd
00000230: 38ed cfbd 6f03 4cbd 813c efbc 8017 093c
00000240: 4b68 acbd d382 58bd 88cf 82bd f72b b2bd
00000250: 8806 a0bc d163 8b3d 3b19 a7bb 125b 0fbb
00000260: 3f3f 92bd 54a3 6fbd 884b c13d 5cb6 aabd
00000270: 43f5 cebd 0699 143d b4c3 7b3d 344c b63d
00000280: 4cdd 413d 9b8e c83d 7e26 c8bd 143f 89bc
00000290: 8b12 f13d 5b19 3d3d 869d 9a3d bf8c 213d
000002a0: 1c6e 693c ac0b 57bd 26a9 443d abfa cebd
000002b0: 3c1f 95bd 5ceb 4d3c 6a5a cebc 7f4d d8bb
000002c0: ddd8 a1bd 3efb 50bd 27a5 8bbd efa3 013d
000002d0: 34b8 7fbd a3ab 57bd 1587 0bbc 029e a43c
000002e0: a2bc a0bc 0bbd 94bd 1371 783d 7e62 a8bd
000002f0: d9ed f0bc 3bee 0bbc 2675 603c c862 a63b
00000300: b06d 3ebd ce2c 8cbd ccae b83d 75a5 7c3b
00000310: 6076 2c3d 9af2 603d d076 5a3c 95e5 f8bc
00000320: 316b 76bd 67fa af3d 91e4 b6ba 551d b43d
00000330: 42d4 9abd f2f0 813d 21de 603c 05f3 533d
00000340: ced8 f0bc 51df cb3c f963 963c 8f2f 853c
00000350: 93fe 413d eab0 363d 5d71 aabd 2e47 61bc
00000360: 3a44 a33d b824 813b 4f42 38bd cca7 91bd
00000370: 6dad bfbd 3b43 723d 78ea bd3a 07f1 703d
00000380: 4da8 11bd 58ef 9abc 211a 61bd 6be4 4abc
00000390: cdd7 313d 5eb7 eb3c f63c 753d 16b4 d53d
000003a0: 81b0 5ebd c475 853d 61fa a13d 1597 1b3d
000003b0: fd79 31bd 8188 123d 9058 a93d 2169 0c3a
000003c0: 14e0 d1bc 8016 a43d 5756 97bb b3fb fdbc
000003d0: a15a a2bd 549b a2bd 33d9 17bd 4dd3 9b3d
000003e0: 40ce 733c 7ea1 c93d dd78 9bbc d9d3 4a3d
000003f0: 2fe5 ee3c 10f6 d93c 6574 1a3d b36d 5ebd
0.010141227 -0.021139784 -0.034389097 -0.024376672 0.036492206 -0.082926504 0.032971352 -0.023582805
-0.03670691 -0.055260964 0.0752256 0.021791099 -0.094021276 -0.028776305 0.07633847 -0.0074133878
0.0074501694 0.056293793 0.06523858 -0.00892501 -0.0021254765 0.0040833396 0.037138753 -0.033728678
-0.059271593 0.06241752 0.037404504 -0.07647914 -0.0061471253 -0.10802098 -0.017526718 -0.04061947
-0.10088994 0.06244218 -0.03142893 -0.017186737 -0.04540661 -0.006875959 -0.028366199 0.06319202
0.051134225 0.09732081 -0.11411998 -0.051396903 -0.047504872 0.021628594 0.008515858 -0.07634084
-0.0037969586 -0.070788726 0.14841482 0.053070668 0.01683449 0.12797679 0.028018538 0.017454356
-0.0018964931 0.02348683 -0.00077145954 -0.012176807 -0.0010119863 0.007847093 0.059291728 -0.08758589
-0.05590908 -0.009716438 0.015167248 0.063119054 -0.035883408 0.027161684 0.0125728315 0.09005532
0.06023911 0.011072305 -0.014983345 -0.013739894 -0.032670874 -0.00071644085 -0.10472826 0.03887009
-0.0011144646 0.008204093 0.0003655582 0.12411883 -0.14616352 0.005304714 0.028631065 -0.080739275
-0.042188432 -0.12284648 -0.059198596 0.09544927 -0.011538918 0.0948473 0.0075017763 0.00660734
0.07563491 0.025552673 -0.106877044 -0.07563319 -0.0004380567 0.02933484 -0.014530592 0.032978926
0.07396327 0.06526673 0.02959214 0.0045128777 -0.05124234 0.062076185 0.04738992 0.04934834
0.010584449 -0.047656737 -0.07987401 0.034687072 -0.083490975 0.07924658 0.08094223 -0.024654359
0.08130521 -0.08984942 -0.07704867 -0.02383481 0.07349018 0.07794828 0.026023095 -0.012892479
-0.02844572 -0.06508503 -0.015170492 0.020993436 0.06090955 -0.06850856 -0.017702596 -0.03643179
-0.109343894 -0.08308923 0.06999225 -0.114514194 -0.10152668 -0.049807962 -0.029203655 0.008367419
-0.0841833 -0.05285914 -0.0638724 -0.08699792 -0.019534364 0.06806148 -0.0050994433 -0.002187435
-0.071409695 -0.05850537 0.094382346 -0.083355635 -0.10105374 0.036278747 0.061465934 0.08901253
0.047330186 0.09792825 -0.09772967 -0.01675371 0.11771115 0.04616676 0.075495765 0.039440867
0.0142474435 -0.052501366 0.048012875 -0.10106405 -0.07281348 0.012568321 -0.025189597 -0.006601035
-0.079026915 -0.051020853 -0.0681861 0.03165048 -0.06243153 -0.05265392 -0.008516093 0.020094875
-0.019621197 -0.072626196 0.06065471 -0.08221911 -0.02941029 -0.008540685 0.013699805 0.0050776936
-0.046491325 -0.06844483 0.09017715 0.0038550769 0.04210508 0.054918863 0.013333991 -0.03038291
-0.06016082 0.08592682 -0.0013953616 0.08794657 -0.07560016 0.06344785 0.013724835 0.051745433
-0.029400256 0.024886759 0.018358218 0.01625803 0.04736192 0.044602312 -0.083224036 -0.013749881
0.079719976 0.003941145 -0.04498511 -0.07112083 -0.0935925 0.059146147 0.0014489433 0.05882361
-0.035560895 -0.018912956 -0.05495656 -0.012383561 0.043418694 0.02877396 0.05987259 0.10434739
-0.054367546 0.06516603 0.07909084 0.03798588 -0.043329228 0.03577471 0.08268845 0.00053562416
-0.025619544 0.08012104 -0.004618447 -0.031003809 -0.07927442 -0.07939783 -0.03707237 0.07608662
0.014880717 0.09845255 -0.01897853 0.04951844 0.029162018 0.02660659 0.03770866 -0.054303836

lstm.weight_hh_l1 f4 [400, 100]
00000000: 2104 2f3e e371 85bd 5e3c 00bc ff4d 84bd
00000010: 953a b1bd 58fb 203c 402d 923d 1bc8 c6bd
00000020: 2d67 3a3c 90c1 4e3c be3a f3bd 6f2a 7f3d
00000030: 5915 72bd 103e 4f3d a184 11bc 9625 85bd
00000040: b4a5 053d f7b1 e3bc d224 fcbc 166a 1fbd
00000050: 854c af3d 0549 83bd 82f6 b8bb b948 28bd
00000060: 28c2 053d 233b 0b3d 74a3 b7bd f3c3 473d
00000070: 4bff 8abd 1eff 873c 834e 5cbd 5122 663d
00000080: b1fb afbb 6aa0 893d 8a00 7a3c f234 c13d
00000090: 78ef 12bd d5c7 b73c 5cd2 dfbb 1301 673e
000000a0: 6da9 3dbd 7a61 6a3d 727c e23c 7299 20bb
000000b0: 0b4f 1a3d 6ca9 96bd d258 fbbb 3ef5 173e
000000c0: da55 b13c aecb 9fbd 4058 7ebb 7791 89bd
000000d0: f0dd d4bc a91f fcbd 42de 263d 8ff8 9d3d
000000e0: 8c7b 4ebd f516 aabd c6ad 3f3d 63b9 463d
000000f0: 2f24 883d b58b 703e 3eb4 5c3b d39a ac3d
00000100: 1718 d0bc 812e 523d 2c1e 983c 6c1d c2bd
00000110: 1771 803c dbd2 28be 5640 acbc 3cfb 2ebd
00000120: 79a1 b93d fa67 9b3d 9bfa c6bd 4877 dfbd
00000130: c413 8ebd 7afb b4bc b2c4 21bd 3e69 8a3d
00000140: 93d9 a63d 0ba2 283c 86c2 95bd 62dc 0b3d
00000150: 72f7 ad3c 7652 863c 4d44 0b3c 18d6 af3b
00000160: a5c7 1b3d 4fbe 64bb 83a2 7cbd d130 7c3b
00000170: c3b5 c03d 6a32 a4bc 66e6 11bd 521e b83c
00000180: 1703 80bd 1528 be3d 1a7b 713b 2ce3 8d3d
00000190: e416 84bd 0bdb a1bd a702 b63c 60eb f63c
000001a0: b46d 743d cfa6 51bc bba7 18bd 1873 99bc
000001b0: 8ea9 5fbd ca7a 683d dc60 013c 331d 51bd
000001c0: e218 a4bd c860 6d3d 216f 59bd b1df 06bd
000001d0: 7084 9ebd a177 503d 885f 9f3c b85e 7a3d
000001e0: 1b6b 743c 6511 81bb 6665 adbc 9dea 033d
000001f0: bd52 01bc 49e9 09bd d239 183d c075 cbbd
00000200: 59a5 9f3c b6ca 85bd af26 d73c 159d 18bd
00000210: 7c2f 60bd fc7a 9f3d 1904 ce3d 758c 873c
00000220: 97e0 653c 4cd6 99bb 9bec 35bd 9ef1 ecbd
00000230: 31a4 323d 43d4 643d 1151 2b3d 9970 eabc
00000240: f34b 9f3d 31e5 3cbc 8b48 30bd 8570 a43d
00000250: ec5c 193d f18a 83bd fd79 aa3d d2c1 4e3d
00000260: b191 a43d 77a2 acbc 14d8 abbc 4456 a2bd
00000270: c8f9 43bd b5ae 30bd 646e d73d cc08 783d
00000280: 2c99 8c3d 151b bebc 676d 813b 9c55 8abd
00000290: 9e00 b23b 1d54 923d e9c4 d43d fe3b 3cbd
000002a0: 9fd4 5a3c b422 f33c d405 48bd be38 4cbb
000002b0: c2b7 b5bd a3c3 1bbd 665b a83d 003d 8dbd
000002c0: 5310 8fbd 06d4 98bd 5e03 c03b 2d29 12bd
000002d0: b61c d0bd 0caf 6f3d 87ad c9bd f10a 8dbd
000002e0: 816e ae3d b5e0 91bc 9fe6 7d3d d9b6 a93d
000002f0: 4216 06bd e604 57bc 9a21 2bbc f265 8fbd
00000300: 025d c9bc 75f2 173b 81ca dcbb b0b2 893c
00000310: 2506 803d c672 4b3d a321 a0bd 2ce8 173d
00000320: 40c8 c2bd 9657 16bd 2004 97bd abe5 5cbd
00000330: 6720 52bd 2253 bc3d 6b84 043d c9dc 4bbd
00000340: eddb c2bd 5ec2 ef3c 8dcc c5ba 02e9 493d
00000350: 7979 af3d 130d cc3b 18fe 3fbd 8e16 e53c
00000360: 3933 833d 3c12 1c3d 25f2 10bc 7c83 c5bd
00000370: 6abe c2bd a7f4 c3ba d364 13bd b9a1 bdbd
00000380: 322a b73c 1021 a03d a135 c4bb 4f18 26bc
00000390: 1988 b9bd 706a cf3d 3296 1fbc 2d4a 313d
000003a0: 1e1e 853d 731a be3d 3e5f c3bb 6af5 85bb
000003b0: 03f7 8e3d 2c0d 533c 2d2d 2abd 1061 41ba
000003c0: 635f bf3d 3364 9fbd d590 91bc fa94 90bd
000003d0: a990 90bd 68d4 4bbd 8a3e 543c bb98 c1bd
000003e0: 5c27 a23d dc2e 19bd 8048 abbd 0a65 a2bd
000003f0: ba19 d13d f19f 19bd ce3f 483c 36a4 963d
0.17091419 -0.06515863 -0.007826893 -0.06460189 -0.08653752 0.00982555 0.07137537 -0.09706136
0.011377138 0.012619391 -0.118764386 0.062296327 -0.05910239 0.050596297 -0.008881719 -0.065013096
0.03262873 -0.027794821 -0.030779276 -0.03891953 0.08559517 -0.06410412 -0.0056446204 -0.04108498
0.032655865 0.033991944 -0.08966723 0.048770856 -0.067869745 0.016601142 -0.053785812 0.05618507
-0.00537058 0.0672005 0.015258918 0.09433927 -0.035872906 0.022434155 -0.0068304967 0.22559004
-0.046304155 0.057221867 0.02764723 -0.0024505523 0.037673037 -0.073565334 -0.0076705003 0.14839646
0.021647383 -0.07802521 -0.0038809925 -0.06717198 -0.025984734 -0.12310726 0.040739305 0.077134244
-0.050410792 -0.0830516 0.046796583 0.048516642 0.066475265 0.23490794 0.0033676769 0.08427968
-0.025402112 0.05131388 0.018569075 -0.09478268 0.015678925 -0.16486685 -0.021026772 -0.042720065
0.090640016 0.07588191 -0.09715768 -0.10911423 -0.06937364 -0.02209257 -0.039494224 0.067583546
0.08146968 0.01029254 -0.07312493 0.03414572 0.021236155 0.016396742 0.008500171 0.005366098
0.038032193 -0.0034903472 -0.06167842 0.0038481245 0.09409668 -0.02004357 -0.035620116 0.022475395
-0.06250589 0.09284989 0.0036847056 0.06928095 -0.064496785 -0.07903107 0.022218062 0.030141532
0.059674934 -0.012796118 -0.037269335 -0.018731639 -0.05460506 0.056757726 0.007896628 -0.051053237
-0.080125585 0.057953626 -0.053084496 -0.032928172 -0.07740104 0.050895337 0.019454733 0.061125487
0.014918114 -0.003938841 -0.021166515 0.032206167 -0.0078932615 -0.033669744 0.037164517 -0.099345684
0.019488024 -0.06532805 0.026263563 -0.03725918 -0.054732785 0.07787129 0.10059375 0.016546467
0.014030597 -0.0046947356 -0.044415098 -0.11569522 0.043613616 0.05586649 0.041825358 -0.028618144
0.07778158 -0.011529253 -0.043037932 0.08029274 0.037442133 -0.06422985 0.08324049 0.05047781
0.08035601 -0.021073563 -0.020977058 -0.0792661 -0.04784563 -0.043135364 0.10519102 0.060555264
0.06865153 -0.023206273 0.0039498094 -0.0675461 0.0054322025 0.071449496 0.1038912 -0.04595565
0.013356357 0.029679634 -0.048833683 -0.003116175 -0.0887294 -0.03802837 0.08220558 -0.068964005
-0.069855355 -0.07462315 0.0058597764 -0.0356838 -0.10161726 0.058516547 -0.09847551 -0.068868525
0.08517171 -0.017807344 0.061987516 0.082868285 -0.03273607 -0.0131237265 -0.010445023 -0.070018664
-0.024580482 0.0023185287 -0.0067380075 0.016808838 0.06251172 0.049670003 -0.07818916 0.03708665
-0.09510851 -0.036704622 -0.07373834 -0.053929966 -0.051300433 0.09195544 0.032352846 -0.049771104
-0.09514604 0.029267486 -0.0015090868 0.04929448 0.08568091 0.0062271445 -0.046873182 0.027964856
0.06406254 0.038103327 -0.008846794 -0.09644219 -0.09508975 -0.0014950231 -0.035984825 -0.09259362
0.022358987 0.07818806 -0.0059878384 -0.010137632 -0.09059162 0.10127723 -0.009740399 0.04328363
0.06499885 0.092823885 -0.0059622815 -0.0040880935 0.069807075 0.012881558 -0.04154699 -0.0007376829
0.093443654 -0.07782783 -0.017769257 -0.07059665 -0.07058842 -0.049763113 0.012954364 -0.09452959
0.079176635 -0.037398204 -0.08363438 -0.07929428 0.10209985 -0.037506048 0.0122222435 0.073555395

lstm.bias_ih_l1 f4 [400]
00000000: 9ca2 6b3d 4172 d73d 6252 98bd 2da4 84bd
00000010: 3031 c83d c64d 52bd e62c fe3d 2369 0e3d
00000020: 68d7 983d f810 49bc fdf1 633d 7960 79bd
00000030: 5e61 bd3d bbf5 cabd 173f 6b3d 6266 353d
00000040: 92cf 053d 5404 9dbd 2a8a 45bd 0f39 5cbd
00000050: 5082 51bc ed69 6ebd 6727 c23b cc1a f1bc
00000060: 1b9e 63bd c48d a03d 9a83 47bd f3c0 1a3d
00000070: bd83 a1bd 49b4 2cbd 1b5c 93bd ee8b f0bb
00000080: 62f4 303d 6cec b0bd f757 8c3d 0669 213d
00000090: feb3 46bd eb5c 943d 3e77 603d d97e 9d3c
000000a0: 04b7 8cbd 3115 753c 8773 943d ac73 a33d
000000b0: 324b a1bd 466d aa3d b3e4 e2bc 663d 93bd
000000c0: 1edb b4bc bb7e b73d 9a49 803d 4edc 52bc
000000d0: e6fd 733c 2f7a 0c3d 3de2 843d 5c04 b03d
000000e0: bc6a 8fbc b815 9abc 5b53 7fbd 4644 653d
000000f0: 1ed5 c3bc 29b3 f5bc c98a b13d 3b20 843d
00000100: aaa6 253d 5652 b1bd c06c 83bd 56d3 973d
00000110: 9432 b5bd 82e8 143d eff1 4fbd 846c 0dbd
00000120: f808 84bd ef3a 99bd 9db3 3f3d bb9d 153d
00000130: 8271 b8bc 06b0 88bd f4fd 783d 47b7 dd3b
00000140: 880d f2bd c4cb 4e3d 27b8 bb3d d574 f53c
00000150: d5bd be3c 26de c9bd 7e26 bf3d bdda a63c
00000160: 5268 07bd 204a cbbd c308 1c3c 137c e2bc
00000170: ad12 4cbd 3a05 063d ed7d c53b 8496 8abd
00000180: 530f cf3d 6a83 c6bc d758 293d 7878 493d
00000190: 38f0 d63d 9c9d 89bd 018c ff3c ed9c b6bd
000001a0: 47e5 63bd 998b c6bd 676b 363d 254b 72bd
000001b0: 73d2 5b3b ab15 5b3d 4c7c a73d 9a36 863c
000001c0: f12b 9cbc f9be 473b 5b93 8e3d 331e eebc
000001d0: b692 693d a194 523d 87fc a03d 65fe d7bd
000001e0: 7710 d13c 5fd4 97bd dac3 a33d 6b5f 28bd
000001f0: 669c d93c 3498 3fbd e489 0b3d 0ce5 43bd
00000200: 7ed6 923d a868 a43d 4b4d 423d 9a50 87bd
00000210: 31e4 58bd c758 be3d 1c8e 113c 88b7 913d
00000220: 1241 9e3d ee34 fd3b a73e 5ebd c91b 7e3d
00000230: ba04 843d 343f b0bc 4fa4 643d 4c04 f23c
00000240: 550b 813d 414f 36b9 9483 26bd 3a7b 93bc
00000250: 19a0 9bba 1147 233d ff51 7a3d 5960 983d
00000260: 0b39 563d 06b4 8cbd a91b 48bd 1240 4dbd
00000270: b15d 0a3d f91c b83c 57a4 a7bd 0527 183d
00000280: 698c b93c 3739 993d bd29 923c 38a0 83bd
00000290: ad56 11bc 30c4 193c d92b 7dbc 9b7d 113e
000002a0: a890 acbc 5082 6b3c 2175 d53d c691 aeba
000002b0: 8955 66bc e45c 843d 28a2 1e3d 80ec 6abd
000002c0: e06c 913d 1647 bd3c 9f75 23bc 0e1a 9f3d
000002d0: 64a6 8cbd 43ba 50bd aee9 e7ba 2039 8c3d
000002e0: 8fba cfbd 713a dbbb 661b abbd d99c 35bc
000002f0: c047 703d e0fc 9abd f44f c1bc b70d e13c
00000300: 685e cdbb 0f21 7d3d abae e43c 28d0 903b
00000310: afce 20bc ec07 f7bc 3053 713d e681 b6bd
00000320: 99e8 49bd 5aa6 08bc a6bc a2bd 2f79 7f3c
00000330: 4ed5 e43d f5d5 5dbd 44f1 1b3d 6e85 cd3d
00000340: 0a35 38bb 505b 83bc 64e0 da3b b027 16bd
00000350: 8389 3bbd 7d3a 443d 9e92 a2bd b6dc 79bd
00000360: 586e b03d 2998 84bd 4152 14bd 5119 a4bd
00000370: 90b0 c0bd a0b6 793d 6caa a8bd a485 7e3d
00000380: a7b9 9bbd 4746 9c3d 1687 cf3d 23a8 82bc
00000390: d94e 223d d11a 5f3d 7e2e f83c 5e85 80bd
000003a0: d1d0 06bd 5348 a03d 4219 cc3d 6166 f1bc
000003b0: 9d5a 97bd b74a 0dbd 30bf 653d 5ca1 0e3d
000003c0: d1c4 d8bd 8e69 01bd a0af 873d b31e c6bd
000003d0: 2b22 4a3d 5333 eb3c f76a 093d 2320 bdbd
000003e0: a756 d1bd c093 943d 5d29 513d b302 9a3d
000003f0: 36ae 9c3d e9f3 853d 9e39 32bc c1f4 243d
0.057528123 0.10519839 -0.07437588 -0.064766265 0.09775007 -0.0513437 0.124109074 0.034768235
0.074629605 -0.012272112 0.0556507 -0.06088302 0.09247087 -0.099101506 0.057433214 0.044287093
0.032668658 -0.07666841 -0.048227467 -0.053765353 -0.012787417 -0.058206487 0.0059251073 -0.029431723
-0.055570703 0.0783954 -0.04870949 0.037781667 -0.07886455 -0.04216412 -0.07195302 -0.0073408997
0.04320181 -0.08638844 0.068527155 0.0394068 -0.048511498 0.07244285 0.05480122 0.019225525
-0.06870845 0.014958666 0.072485976 0.07981047 -0.078756705 0.083216235 -0.027696943 -0.07189445
-0.02207714 0.08959719 0.062640384 -0.012869908 0.014892077 0.03429621 0.06488464 0.085945815
-0.01750695 -0.018809184 -0.062335353 0.055973314 -0.023905333 -0.029992657 0.08669049 0.0645146
0.040442146 -0.086582825 -0.06417227 0.07413356 -0.08847538 0.03635455 -0.050767835 -0.034527317
-0.06447023 -0.07481944 0.046802152 0.036527377 -0.022515062 -0.06674199 0.060789064 0.006766233
-0.11818987 0.050487295 0.09165984 0.029962936 0.023283878 -0.098568246 0.09333514 0.020367974
-0.033058472 -0.099262476 0.009523573 -0.027647054 -0.049822498 0.03271983 0.0060269744 -0.0676699
0.10110345 -0.024232585 0.04134449 0.049187154 0.10495037 -0.06719515 0.031194689 -0.0891665
-0.055638578 -0.09694595 0.04453602 -0.059153695 0.0033542186 0.05348746 0.081780046 0.016383458
-0.019063922 0.0030478819 0.069616996 -0.029067134 0.05702468 0.051411275 0.07860666 -0.10546569
0.025520546 -0.074135534 0.0799634 -0.041106623 0.026563834 -0.04677601 0.03406705 -0.047825858
0.071698174 0.08027774 0.047436994 -0.066071704 -0.052951995 0.09294277 0.008883979 0.07115084
0.07727255 0.007727257 -0.05425897 0.062038217 0.06446214 -0.021514513 0.05582076 0.029543065
0.063009895 -0.00017386397 -0.040652826 -0.018003095 -0.0011873274 0.039862696 0.061113354 0.07440252
0.052300494 -0.06870274 -0.048854504 -0.05010993 0.033780757 0.022474753 -0.08185642 0.037146587
0.02264996 0.07481616 0.017842168 -0.06427044 -0.008870763 0.009385154 -0.015452349 0.14208071
-0.021065071 0.014374331 0.10422731 -0.001331859 -0.014058479 0.0646303 0.038728863 -0.05735445
0.071008444 0.023105185 -0.0099767735 0.077686414 -0.06867674 -0.050958883 -0.0017693543 0.06846833
-0.10143005 -0.0066903164 -0.08354835 -0.011084759 0.058662176 -0.07567763 -0.023597695 0.02747236
-0.0062673576 0.061799105 0.02791532 0.0044193454 -0.009814902 -0.030155145 0.058917224 -0.08911495
-0.049294088 -0.008340443 -0.07946138 0.015592857 0.11173497 -0.054159123 0.038071886 0.10035215
-0.0028107786 -0.016034752 0.0066795815 -0.036658943 -0.04578544 0.04790734 -0.07938121 -0.061001502
0.086147964 -0.06474335 -0.036211256 -0.08012641 -0.094086766 0.06096518 -0.082356304 0.06213917
-0.0760377 0.07630592 0.101331875 -0.015949314 0.039625976 0.054468933 0.030295607 -0.06275438
-0.032913987 0.07826295 0.09965755 -0.029467763 -0.0739033 -0.03449508 0.056090534 0.034821853
-0.10584415 -0.031594805 0.06625295 -0.09673824 0.04934899 0.028710997 0.033549275 -0.09234645
-0.10221606 0.072547436 0.051064838 0.07520046 0.076504156 0.06540663 -0.010877995 0.040272478
